breakout/model/target_net_state_dict.pt (torch_old, 177756 bytes, 20 tensors)

conv1.weight f4 [16, 4, 5, 5]
000000 88 51 80 bd 9a 8f 14 bd f0 a8 43 bd 61 30 89 3d
       -0.06265551 -0.03626976 -0.047768533 0.06698681
000010 a8 fb 8f bc 40 f3 97 ba d9 e3 ae 3d ae 96 98 bd
       -0.017576054 -0.001159288 0.08539552 -0.07450615
000020 e2 78 8a bd a9 a8 a4 3d d1 6e 99 3d f0 3a b3 bd
       -0.06761338 0.08039982 0.0749184 -0.08751476
000030 ea d4 60 bd 87 82 b9 bd 94 cd d5 bc 28 7c 4f 3c
       -0.05489055 -0.09058099 -0.026099004 0.0126638785
000040 ee 41 6e 3d 58 c0 bc 3c c3 97 9e 3d c0 35 05 bb
       0.058168344 0.023040935 0.0774379 -0.0020326227
000050 c5 3d b4 3d 0d 45 ad 3d 2b 7b c3 bd 8a 0c bf bd
       0.08800844 0.08460436 -0.09544977 -0.093285635
000060 e8 3c 5f bc e8 af a7 3c 07 22 2c bd 6c b3 ca bc
       -0.013625361 0.02046962 -0.04202464 -0.024743758
000070 de d1 8c bd 3a 4a 53 bd c6 82 0d bd 00 fc ab 3b
       -0.068759665 -0.05158446 -0.034548543 0.0052485466
000080 f0 f1 1e 3c 17 4f c0 3d 30 3e 52 bc 60 f7 1a bb
       0.009701237 0.09390085 -0.0128322095 -0.0023645982
000090 e8 eb 92 bc 33 ff 65 bd e1 c6 a5 3d 30 fd 34 bd
       -0.017934754 -0.05615158 0.08094574 -0.04418677
0000a0 00 71 06 3c 6a 31 76 bd 32 2d 27 3d a9 eb af 3d
       0.008205652 -0.06010572 0.040814586 0.085898705
0000b0 62 4b 53 3d c0 90 ba bd 58 7f 0b bc 40 51 01 bc
       0.051585563 -0.0910964 -0.008514248 -0.007892907
0000c0 12 80 6d 3d 58 26 16 bc b0 03 a8 3b 98 cb 83 bc
       0.057983465 -0.009164415 0.0051273927 -0.016088292
0000d0 23 36 59 bd 67 27 bb 3d 58 41 7b 3c e8 29 4e 3c
       -0.053030144 0.09138375 0.015335403 0.012583233
0000e0 f8 7a 90 bd 52 be 30 3d 50 42 4c bd aa f7 06 3d
       -0.070547044 0.043150254 -0.049867928 0.032951035
0000f0 d0 c8 33 bd e6 11 82 bd 00 ad 18 bb b2 74 9a bd
       -0.04389268 -0.0635107 -0.0023296475 -0.07541789
000100 8b 97 a0 bd f0 3e 17 bc 3d d6 81 bd 90 fa 3d bd
       -0.078414045 -0.009231314 -0.06339691 -0.046381533
000110 25 0e c8 bd b0 72 29 bc 30 c7 87 bd e5 e7 80 3d
       -0.09768323 -0.010342285 -0.06629789 0.0629423
000120 0e de 7f 3d 0f bf 9e 3d 36 46 a2 bd 8b 2a a5 bd
       0.062467627 0.07751285 -0.07923548 -0.08064755
000130 e7 36 34 bd 01 13 99 3d 95 c9 a5 3d 28 cd 14 3c
       -0.04399767 0.07474328 0.08095089 0.009082116
000140 00 8b 3b bc 8a 16 69 3d 03 a7 73 bd 8c dd 99 bc
       -0.011446714 0.05690626 -0.059485447 -0.0187824
000150 a9 2e a6 3d e1 58 c7 3d db a8 b4 bd 22 06 09 3d
       0.081143685 0.09733749 -0.08821269 0.033453114
000160 ed 94 8d bd 57 31 85 3d 09 9b bd 3d 8b 25 c5 3d
       -0.06913171 0.065035515 0.09258086 0.096263014
000170 eb 3c cb bd cb 26 98 bd 99 90 a8 3d 4d 32 b4 3d
       -0.099237286 -0.07429274 0.08230705 0.087986566
000180 87 dc 89 3d 16 c4 36 3d ba 1a 5d bd 60 b0 8a bd
       0.067315154 0.044620596 -0.053980567 -0.06771922
000190 42 64 58 3d b7 19 31 bd 68 7a 92 bc e3 1a 62 bd
       0.05282999 -0.043237414 -0.017880633 -0.055201422
0001a0 7b 31 ae 3d ac de cf bc ba b1 88 bd da 39 c2 bd
       0.085055314 -0.025374733 -0.06674524 -0.094836906
0001b0 21 0f ad 3d a2 4b 46 3d 11 d2 ac 3d 6a 75 63 3d
       0.08450151 0.048411973 0.084385045 0.055531897
0001c0 76 dd 8a bd e3 1f b6 bd 60 89 27 3b ed 52 9a bd
       -0.067805216 -0.08892801 0.002556406 -0.07535348
0001d0 14 22 da 3c ad 21 c8 bd 89 ac b2 3d a8 85 8c bd
       0.026627578 -0.09772048 0.08724315 -0.068614304
0001e0 90 0b 5a 3c 0a da 89 bd c1 ff a2 3d 58 20 0f bc
       0.013308421 -0.06731041 0.079589374 -0.008735739
0001f0 29 2c c4 3d 59 50 ae 3d a8 9c 72 3c e0 aa c4 bd
       0.095787354 0.08511419 0.014807858 -0.09602904
000200 75 8d bb bd c0 37 99 bd 00 dc c6 bc 4c 7f 8f bc
       -0.0915784 -0.074813366 -0.024274826 -0.017516755
000210 00 60 12 bb b3 65 b2 bd 31 9d 85 3d e9 7c bc 3d
       -0.0022335052 -0.08710804 0.065241225 0.09203512
000220 4a a0 17 bd 00 cb 6a 3c 3e cd 71 3d 0c 87 85 bd
       -0.037018098 0.0143306255 0.059033625 -0.06519899
000230 40 d5 9d ba 8b 63 ac 3d 9c 31 d9 3c 3d 4f 37 bd
       -0.0012041703 0.08417424 0.026512913 -0.044753302
000240 cc 61 9d bc 28 91 05 bc 9b 65 bd 3d 7e 6b 44 3d
       -0.019211672 -0.008152284 0.09247895 0.047954075
000250 d5 48 97 3d 6a ff 54 bd 42 d9 59 3d 42 d3 0e 3d
       0.073869385 -0.052001394 0.05318571 0.03486944
000260 33 fc b6 3d cd 3d 41 bd 4e 73 92 bd f2 ef 5a 3d
       0.08934822 -0.04717808 -0.07150899 0.053451486
000270 70 d5 68 bc 33 ca 7a bd c9 68 be 3d 60 f3 f4 bc
       -0.014211044 -0.06122799 0.0929733 -0.029901206
000280 97 3e a8 3d c2 0f c7 bd 76 a5 72 3d 76 4b 09 3d
       0.08215063 -0.097198024 0.059239827 0.03351923
000290 29 03 9e 3d 1c d2 eb 3c a8 76 6a bc da 45 ad bd
       0.077154465 0.028786711 -0.014310516 -0.08460589
0002a0 28 97 a0 bc 08 47 86 3c 17 cb 24 bd 9a 2a 62 bd
       -0.019603327 0.016391292 -0.040232744 -0.05521641
0002b0 8a 0b b3 bd 18 5e c0 3c fc dd 81 bd 36 d4 a2 bd
       -0.08742435 0.023482367 -0.06341168 -0.07950632
0002c0 e0 c8 c3 3c 1a 7e 4d 3d 57 31 23 bd 74 53 15 bd
       0.023899496 0.050169088 -0.039841976 -0.03645654
0002d0 c3 36 a4 bd c4 81 d6 3c 62 a4 09 3d 00 2b ee 3b
       -0.080182575 0.026184924 0.033604033 0.0072683096
0002e0 67 8e b6 bd 82 25 6a 3d f0 5c 7c 3c f8 d6 99 bc
       -0.0891388 0.057164676 0.015403017 -0.018779263
0002f0 68 40 75 bc fa 53 8a bd b6 d7 2e 3d eb c0 a8 bd
       -0.014968969 -0.067542985 0.042686187 -0.08239921
000300 26 f4 12 3d bb 03 8f bd dc a0 e5 3c 1b b6 b8 3d
       0.03587737 -0.069831334 0.028030805 0.09019109
000310 26 a1 18 bd eb 9b ab bd a0 96 dc 3b e4 3a 16 bd
       -0.037263058 -0.08379348 0.006731823 -0.036677256
000320 f0 b5 1b bc 13 58 b1 3d 37 c5 78 bd 06 73 19 3d
       -0.0095038265 0.08659377 -0.060734954 0.03746321
000330 80 ae 8b 3b 60 1c e7 bb 7f 2a 8f 3d 81 f5 ab 3d
       0.0042627454 -0.007052943 0.06990527 0.083964355
000340 d8 0e ca 3c f9 a9 85 3d f6 26 20 3d 50 76 44 bd
       0.024665281 0.0652656 0.039099656 -0.047964394
000350 af 41 ba bd 94 15 d4 3c a2 75 3c 3d 22 6e 51 3d
       -0.090945594 0.025889196 0.04601062 0.05113042
000360 47 24 89 3d 75 1e bc 3d 97 26 56 bd 83 9d c6 3d
       0.066963725 0.09185497 -0.052282896 0.09698012
000370 ac be ae 3c bd 9d 7e bd b2 48 38 3d 67 54 69 bd
       0.021331154 -0.06216215 0.044991203 -0.056965258
000380 43 5a a3 3d 50 8f be bd 50 11 2e 3c 90 a6 34 bd
       0.079762004 -0.093046784 0.010624245 -0.04410416
000390 44 67 0b bd ed f6 b3 3d f2 7d 62 3d 6e f0 62 3d
       -0.03403403 0.08787332 0.055295892 0.055405073
0003a0 01 2a ad 3d 86 ac 9a bd 61 14 95 3d 98 1e 99 bd
       0.08455277 -0.075524375 0.072792776 -0.074765384
0003b0 ab 67 bb 3d 20 87 c9 bb 0a 3c 0a 3d 43 58 54 bd
       0.091506325 -0.0061501414 0.033748664 -0.051841985
0003c0 e9 5a 92 3d c0 90 4f 3c a8 e3 c7 bc ea 4b c8 bd
       0.07146246 0.012668788 -0.024400547 -0.097801045
0003d0 94 1f d7 3c a3 d9 c2 bd a8 2c 90 3c da 9f 34 bd
       0.026260175 -0.09514167 0.017599419 -0.04409776
0003e0 ae a8 86 bd b3 91 20 bd 30 d2 bb bb 1d f2 50 bd
       -0.06575142 -0.03920145 -0.0057318434 -0.051012147
0003f0 89 9c ae 3d e3 eb b5 3d a0 b2 42 3b e0 ad ba 3c
       0.085259505 0.088828824 0.002970852 0.022787988

conv1.bias f4 [16]
000000 88 2a ab bc 1d b5 1c bd af 72 ba bd 58 f3 61 3c
       -0.020894304 -0.03825866 -0.091039054 0.013790928
000010 cd 01 75 bd 09 c0 b8 3d a4 02 e3 3c 0c f6 f2 bc
       -0.05981617 0.09021003 0.02771122 -0.02965834
000020 e3 3d bf 3d 35 49 ba 3d 72 d3 17 3d 40 1b f7 ba
       0.09337976 0.090959944 0.037066884 -0.0018852726
000030 18 cc cb bd 28 cb a2 bd 48 5b b4 bd a8 67 4f bc
       -0.09951037 -0.07948905 -0.08806473 -0.012658991

bn1.weight f4 [16]
000000 48 41 c5 3d 60 a8 a9 3c ea ee 6d 3f d0 97 0a 3d
       0.09631592 0.02071017 0.9294268 0.033836186
000010 80 b1 bb 3e 11 be 66 3f 28 5d c5 3e f9 b8 2b 3f
       0.3665886 0.9013377 0.38547635 0.6707912
000020 d6 6c b6 3e 1e ea d5 3e 51 24 49 3f 98 eb 66 3e
       0.3562991 0.4178018 0.7857104 0.2255081
000030 bd 5b 0c 3f fa 84 64 3f 1c 01 73 3e dc df fd 3e
       0.5482748 0.89265406 0.23730892 0.49584854

bn1.bias f4 [16]
000000 00 00 00 00 00 00 00 00 00 00 00 00 00 00 00 00
       0.0 0.0 0.0 0.0
000010 00 00 00 00 00 00 00 00 00 00 00 00 00 00 00 00
       0.0 0.0 0.0 0.0
000020 00 00 00 00 00 00 00 00 00 00 00 00 00 00 00 00
       0.0 0.0 0.0 0.0
000030 00 00 00 00 00 00 00 00 00 00 00 00 00 00 00 00
       0.0 0.0 0.0 0.0

bn1.running_mean f4 [16]
000000 f6 77 6b bd d1 2c 9c bd 68 b5 a2 3b f1 ee 56 3d
       -0.05748745 -0.076257356 0.004965473 0.052473966
000010 0d 3d a4 bd d9 33 3b 3d 26 95 ce 3c 15 c8 74 bd
       -0.08019457 0.045703743 0.025217604 -0.059761126
000020 c3 2a c6 3c 9c 66 cd 3d ca e5 84 3d 2c 1e 4a bd
       0.024190312 0.10029337 0.06489141 -0.04934518
000030 c2 81 92 bd 63 31 65 bd 11 ea 0c be 73 73 0b be
       -0.071536556 -0.055955302 -0.13761164 -0.13618259

bn1.running_var f4 [16]
000000 15 2a be 3d a3 a4 bf 3d b3 a0 e2 3d 86 8c be 3d
       0.0928537 0.09357574 0.11065807 0.093041465
000010 6a 07 ba 3d 05 2e bd 3d 5b 6e ba 3d f6 58 bf 3d
       0.09083445 0.09237293 0.0910308 0.0934314
000020 bd c6 cb 3d 4c 6f b8 3d c1 90 bb 3d c9 85 c2 3d
       0.09950016 0.09005603 0.09158469 0.09498174
000030 23 49 b8 3d 40 36 b8 3d 48 72 c9 3d 34 25 0e 3e
       0.08998325 0.08994722 0.098362505 0.1388138

conv2.weight f4 [32, 16, 5, 5]
000000 d0 ea b4 bb 61 26 38 3d a0 78 51 bb 8a 6d 09 bd
       -0.005521156 0.044958476 -0.0031962767 -0.03355173
000010 af b5 3d 3d c0 6a b0 ba 2c 34 0b bd 70 bf cc bc
       0.046315845 -0.0013459548 -0.0339853 -0.024993628
000020 db 72 3e 3d 2c 4c 15 3c 40 13 02 bc ec e9 2f bc
       0.046496253 0.009112399 -0.00793916 -0.010736924
000030 0a 80 ed bc 60 13 2d bc 89 c1 04 3d da c8 01 bd
       -0.028991718 -0.010563701 0.032411132 -0.031685688
000040 ae 01 e2 3c 55 b1 0d 3d 68 d3 1c bd b0 69 56 3b
       0.027588692 0.034592945 -0.03828755 0.0032716803
000050 a8 cb cc bb 6c b0 6d 3c 50 cf 2f bb fa 6c 33 bd
       -0.0062498637 0.014507394 -0.0026826449 -0.0438051
000060 60 d6 78 bb aa f6 40 bd db a3 37 bd 3a 3d d0 3c
       -0.0037969574 -0.047110237 -0.044834 0.02541982
000070 6a 3d ac 3c e8 c0 41 bd 7f 98 31 bd 53 20 24 3d
       0.021025378 -0.04730311 -0.043358322 0.04006989
000080 50 ff e3 3b 71 c9 1e 3d 8f 56 3a bd 40 f5 9c 3a
       0.006957926 0.03876633 -0.045492705 0.0011974946
000090 d4 17 85 bc 40 55 87 bb f8 30 28 bd f8 0a 15 3c
       -0.016246714 -0.0041300356 -0.041062325 0.009096853
0000a0 58 c3 0b bc a8 85 a6 bb b1 71 1f 3d 82 a1 17 bd
       -0.00853046 -0.005081851 0.038926784 -0.03701926
0000b0 b0 34 66 3b 97 40 9f bc 2d db 0e 3d d7 3a 9d bc
       0.003512662 -0.019439979 0.03487699 -0.019193096
0000c0 c8 65 1d bc 7b 86 12 bd 38 3e 58 bc e2 63 83 3c
       -0.009606786 -0.03577278 -0.013198428 0.016038839
0000d0 72 83 9a 3c 8e 86 9f 3c 54 c9 52 3c 55 22 4c bd
       0.018861506 0.01947334 0.012865383 -0.04983743
0000e0 f6 40 be 3c c0 40 8c bc 87 b2 e1 bc e0 48 47 3b
       0.023224335 -0.017120719 -0.027550949 0.0030408427
0000f0 37 5b 23 3d 2d 3e 1e bd 28 6f 1b bc b3 c3 b5 bc
       0.03988191 -0.038633514 -0.009486951 -0.022188043
000100 f8 78 59 bc 40 e3 36 3a dd c4 e2 bc c5 d6 36 3d
       -0.01327347 0.0006976612 -0.027681762 0.044638414
000110 a8 25 25 bc 68 47 b2 3b 5a 21 88 bc 77 62 37 bd
       -0.010079779 0.005440641 -0.016617466 -0.044771638
000120 e2 39 8a 3c 30 bc 57 3b a3 fb 1c 3d 77 9d 1f 3d
       0.016873304 0.0032918565 0.038325917 0.03896853
000130 0d 4c 16 bd 7e a3 8c 3c 8f 58 2f 3d d8 95 21 bc
       -0.03669362 0.017167803 0.042809065 -0.009862386
000140 40 33 c6 bb 18 bd 94 3b 62 47 ad 3c b8 8f 1f 3c
       -0.00604859 0.0045391433 0.021152202 0.009738855
000150 40 69 cd 3a 00 4b aa 3b 25 bc 10 bd 97 8d 26 3d
       0.0015671626 0.005196929 -0.03533568 0.040662374
000160 1a d0 4a bd a0 25 31 bd 74 12 07 bc eb d0 47 bd
       -0.049514867 -0.043248773 -0.008244146 -0.048783224
000170 0d 5a 05 3d 9a 0c 81 bc b4 74 50 3c e8 02 44 bc
       0.032556582 -0.01575308 0.012723137 -0.0119635835
000180 58 dd f6 bb 5a 0a 37 bd 48 81 05 bc 80 15 78 ba
       -0.0075337104 -0.044687606 -0.008148499 -0.0009463653
000190 2a a7 ec bc 5a 6a 95 bc 10 59 99 bb 29 f2 19 3d
       -0.028888304 -0.018239189 -0.0046798065 0.037584458
0001a0 90 6d cc bc e8 e7 04 bc 50 3d a5 bc 8d 69 1f 3d
       -0.024954587 -0.008111931 -0.020170838 0.03891902
0001b0 40 d7 96 bb 1a 96 3a bd e0 5e 61 bc 00 42 12 3b
       -0.0046032965 -0.045553304 -0.01375553 0.002231717
0001c0 ec b7 53 3c 44 90 54 3c e1 83 36 3d 20 70 5d bb
       0.012922268 0.012973849 0.044559363 -0.0033788756
0001d0 90 51 cd bc 61 64 32 3d c1 6f 02 3d 30 54 c6 3b
       -0.025063306 0.04355276 0.031844858 0.0060525164
0001e0 93 44 e8 bc 32 5d cb 3c 05 73 12 bd 0b 74 05 3d
       -0.028353011 0.024824712 -0.035754222 0.03258137
0001f0 bd c0 1a bd d6 46 09 bd f2 9c d7 3c 80 88 67 ba
       -0.037781466 -0.03351482 0.026319955 -0.0008832291
000200 9b a9 24 bd 42 85 37 bd da 07 36 bd 1b 6e 45 3d
       -0.04020081 -0.04480482 -0.04444108 0.048200708
000210 53 d1 42 bd d2 1f 04 bd fd d9 3e bd 03 05 12 3d
       -0.04756291 -0.03225691 -0.04659461 0.03564931
000220 2d 33 2e bd f5 81 0b 3d 4e 24 c8 3c 99 97 26 3d
       -0.042529274 0.034059484 0.024431374 0.04067192
000230 46 40 e9 3c 18 00 cd 3b 3a 1b 0f bd 44 26 63 3c
       0.02847303 0.0062561147 -0.034938075 0.013864104
000240 83 60 a2 bc 50 a9 64 bb 68 d1 96 bb 3e c9 28 bd
       -0.019821411 -0.0034890957 -0.0046026 -0.041207545
000250 80 91 f7 b9 10 ab ab bb 05 33 3e bd b5 33 19 3d
       -0.00047219917 -0.005238898 -0.046435375 0.037402827
000260 d2 d3 8b 3c 2a 74 da bc 50 9e b5 bb d0 d2 db bc
       0.017068777 -0.02666672 -0.005542554 -0.026833922
000270 ea a3 fb bc e5 1c 2c 3d 00 0d 0a 3b c0 16 5a ba
       -0.030717809 0.042019743 0.0021064878 -0.000831943
000280 a6 98 dd 3c 7f b3 0d 3d 69 4e 0a 3d da e0 8d bc
       0.027050328 0.03459501 0.033766184 -0.017319132
000290 c9 d5 4b 3d b8 9a 50 bc 4a c2 ac bc 40 be 6a bc
       0.04976443 -0.0127322 -0.021088738 -0.014327586
0002a0 c0 4c 39 bc 53 5f f7 bc 38 cd 3b bd 68 77 35 3c
       -0.0113098025 -0.030196821 -0.04585001 0.011075832
0002b0 4a ee ff 3c bb 10 1e bd 08 fd 4c bc 6d 0c 1a bd
       0.031241555 -0.038590174 -0.012511499 -0.037609506
0002c0 3d 67 3e 3d 12 de 84 3c e6 c1 83 3c c8 b1 77 bc
       0.046485174 0.016219173 0.016083669 -0.01511807
0002d0 f6 61 10 bd 0b 45 12 bd 2a c2 0b bd 47 03 d3 bc
       -0.035249673 -0.035710376 -0.034120716 -0.025758399
0002e0 8b 86 3e bd 54 e6 5a bc 2f 1d 29 3d 4c 2e 1a bc
       -0.04651503 -0.013360579 0.041287597 -0.009410452
0002f0 82 6c 90 3c 37 ce 28 3d b0 d8 99 bc b5 b8 04 3d
       0.017629866 0.041212287 -0.018780082 0.032402713
000300 00 bc f5 b8 e8 dc 78 bc c5 19 2c bd bd e5 2f 3d
       -0.00011717528 -0.015189387 -0.042016763 0.042943705
000310 08 45 75 bc 10 d5 a5 bb 52 e2 8c 3c c6 10 01 bd
       -0.014970072 -0.0050607994 0.017197762 -0.031510137
000320 5a 8e f0 bc 96 9b ef 3c 00 4e d0 bb f7 79 34 3d
       -0.029364754 0.029248994 -0.0063569546 0.044061627
000330 48 9d 14 bc 91 d6 47 3d 72 1a b0 3c da b4 9b bc
       -0.009070702 0.04878861 0.021496985 -0.019007135
000340 12 fe ac 3c 60 c8 af bc 93 bf 0f bd c6 d1 23 bd
       0.021117244 -0.021457851 -0.03509481 -0.039994977
000350 d9 06 3e 3d 7a 6c 48 bd 6b ea 40 3d 7f 52 2f bd
       0.04639325 -0.048931576 0.04709856 -0.042803284
000360 60 82 3e 3c fc fc 78 3c 60 56 73 bb 01 24 4b 3d
       0.0116277635 0.015197035 -0.003713034 0.049594883
000370 de fc d8 3c 22 e7 ff 3c 6a d4 f0 bc 6c 13 4a 3c
       0.026487764 0.031238142 -0.029398162 0.012333732
000380 a9 4f 2b 3d b0 7a b3 bb 16 82 b1 3c b0 d9 03 bb
       0.041824017 -0.005477272 0.021668475 -0.0020118766
000390 4c 0e 5c bc 8d c3 c4 bc 09 d2 42 3d 60 60 ff bc
       -0.013431143 -0.024019027 0.047563586 -0.031173885
0003a0 19 40 11 3d 03 7e c1 bc 70 99 30 bd 54 30 84 bc
       0.03546152 -0.023619657 -0.04311508 -0.016136326
0003b0 e0 5d 3b bd fa d3 aa bc 75 0f 10 bd fa ba 88 3c
       -0.045743823 -0.020853031 -0.03517099 0.01669072
0003c0 54 f6 67 bc ce 1b d5 3c 07 d4 47 bd 37 29 0a 3d
       -0.01415785 0.026014235 -0.04878619 0.03373071
0003d0 00 6a e0 ba 30 4b 4c 3b 02 b3 ba 3c aa 73 fe bc
       -0.0017121434 0.0031172745 0.022790436 -0.031061012
0003e0 18 38 4c 3c d0 81 9e bc 13 22 9e bc 88 30 25 3c
       0.012464546 -0.019349009 -0.019303357 0.0100823715
0003f0 95 30 2b 3d 05 3c 30 3d 52 f3 88 3c 4a 5e ba 3c
       0.04179438 0.04302599 0.016717587 0.022750039

conv2.bias f4 [32]
000000 c7 cd 38 bd fd ae 07 bd f8 c7 30 3c 1b 71 07 3d
       -0.04511812 -0.033125866 0.010789864 0.03306685
000010 78 69 77 bc 43 aa 11 bd c7 01 e0 bc 80 f6 6f 3b
       -0.015100829 -0.035562765 -0.027344598 0.0036615431
000020 4f 42 38 3d 4f 08 2a 3d 78 51 2b bd 23 ec 9b bc
       0.04498511 0.04151183 -0.04182574 -0.019033497
000030 15 f1 16 bd b6 1d fc 3c 30 7e c4 3b d0 12 be bc
       -0.036851007 0.030775886 0.005996488 -0.02320233
000040 7f f5 20 3d ad 35 b6 bc 18 8a 9c 3b 2d c9 b6 bc
       0.039296623 -0.022242391 0.0047772042 -0.022312725
000050 a0 f0 40 bd 00 aa c2 bc 80 de 2f 3b 18 fb 03 3c
       -0.047104478 -0.023762703 0.0026835501 0.008055471
000060 3f ed 33 bd 00 6b e8 ba 8b 25 20 bd 89 93 0c 3d
       -0.043927427 -0.0017732084 -0.039098304 0.034320388
000070 b2 58 f5 3c 58 4f 0e 3c da 79 c3 bc 0d 5d cb bc
       0.02994952 0.008685909 -0.023861814 -0.024824644

bn2.weight f4 [32]
000000 d8 2f f6 3d 42 4c af 3e 13 55 33 3f 70 4f 63 3f
       0.12020844 0.34237868 0.7005169 0.88793087
000010 c5 48 20 3f d0 25 7d 3d e6 9f d0 3e c7 24 57 3f
       0.6261104 0.06180364 0.40746993 0.8404049
000020 5b 1c 31 3f 80 17 9f 3b d1 33 59 3f 06 88 78 3f
       0.6918389 0.0048550963 0.8484469 0.97082555
000030 2a cb a9 3e f8 00 5d 3f 7a ee 8a 3e 8d 18 76 3f
       0.33162814 0.86329603 0.27135068 0.9613121
000040 1c 96 4b 3e 06 1a ed 3e 9f a1 65 3f 3a 92 a6 3e
       0.19881481 0.46308917 0.8969974 0.32533437
000050 a1 ac 2e 3f 5e 53 71 3f 42 ee 1c 3f 56 20 65 3f
       0.6823216 0.94267833 0.6130105 0.89502466
000060 ed 8e 0b 3f c4 87 b5 3e 68 43 1c 3e 7e 64 94 3e
       0.5451496 0.35455143 0.15260088 0.2898292
000070 08 a0 8b 3d 9a 3b df 3e 35 b3 79 3f 66 07 fd 3e
       0.06817633 0.4360016 0.97539073 0.49419707

bn2.bias f4 [32]
000000 00 00 00 00 00 00 00 00 00 00 00 00 00 00 00 00
       0.0 0.0 0.0 0.0
000010 00 00 00 00 00 00 00 00 00 00 00 00 00 00 00 00
       0.0 0.0 0.0 0.0
000020 00 00 00 00 00 00 00 00 00 00 00 00 00 00 00 00
       0.0 0.0 0.0 0.0
000030 00 00 00 00 00 00 00 00 00 00 00 00 00 00 00 00
       0.0 0.0 0.0 0.0
000040 00 00 00 00 00 00 00 00 00 00 00 00 00 00 00 00
       0.0 0.0 0.0 0.0
000050 00 00 00 00 00 00 00 00 00 00 00 00 00 00 00 00
       0.0 0.0 0.0 0.0
000060 00 00 00 00 00 00 00 00 00 00 00 00 00 00 00 00
       0.0 0.0 0.0 0.0
000070 00 00 00 00 00 00 00 00 00 00 00 00 00 00 00 00
       0.0 0.0 0.0 0.0

bn2.running_mean f4 [32]
000000 68 38 9c bd 8f 9c be 3c d8 c4 4f 3e 69 61 11 3e
       -0.07627946 0.023268012 0.20289934 0.14197315
000010 d5 5b 2d 3d f6 09 98 be 37 66 36 3e 76 b1 34 be
       0.042323906 -0.296951 0.1781243 -0.17645821
000020 75 19 24 be 17 f3 6b bc c6 99 1d be 5a 38 39 bc
       -0.16025336 -0.014401219 -0.15390691 -0.011304939
000030 06 87 a2 bd 9b 10 33 3e c1 71 ee 3d 97 6a 71 3d
       -0.0793591 0.17486803 0.116427906 0.058939543
000040 28 3f 1d be e6 21 1c 3e 21 a6 25 be c8 29 ea 3d
       -0.15356123 0.15247306 -0.16176654 0.114337504
000050 5a 5c bb bc bc 21 96 3d 7a 68 bf bd 67 4d d0 bd
       -0.022871185 0.07330653 -0.09346099 -0.10171013
000060 1b 87 2d be 1d c1 85 bd f0 aa 9d 3d 8f 8d 17 3e
       -0.1694607 -0.06530974 0.07698619 0.14800094
000070 a0 b5 d2 3d 64 32 08 bd ba 6b 97 3c 0b 97 4a 3e
       0.102885485 -0.03325118 0.018483985 0.19784181

bn2.running_var f4 [32]
000000 c6 6f 03 3e d5 cf 4f 3e 3b a9 19 3e a4 97 c6 3d
       0.12835607 0.20294125 0.15005963 0.09696892
000010 ae 23 e6 3d 14 17 b9 3d 76 87 04 3e 0c 30 09 3e
       0.11237274 0.09037605 0.12942299 0.13397235
000020 42 2a 1a 3e ef 88 c5 3d bb ab d0 3d 1c 5b ed 3d
       0.15055183 0.09645259 0.10189005 0.11589643
000030 d3 dc d8 3d 2e e4 03 3e e3 37 d9 3d a0 7b df 3d
       0.10588994 0.12880012 0.10606363 0.109122515
000040 bc b1 c6 3d 03 83 10 3e 94 a8 bb 3d 6a e8 e0 3d
       0.09701869 0.14112477 0.09163013 0.109818295
000050 a4 d6 d6 3d a1 a1 df 3d 36 f0 0e 3e 36 61 d9 3d
       0.10490158 0.109195 0.1395882 0.10614245
000060 6d 03 dc 3d 23 4e e9 3d 45 b0 2f 3e 61 58 d0 3d
       0.10742841 0.113918565 0.17157085 0.10173107
000070 32 d4 ca 3d 2e ad 02 3e a9 51 d0 3d 96 af d5 3d
       0.09903754 0.12761375 0.101718254 0.10433881

conv3.weight f4 [32, 32, 5, 5]
000000 20 43 a1 3a 1c a4 c5 bb 30 1a 3e bc cc 3a 1b 3c
       0.001230333 -0.0060315263 -0.011602923 0.0094744675
000010 b8 a2 b6 bb 6b 9a 0f bd 4a 06 10 bd 28 15 a8 bc
       -0.005573597 -0.035059374 -0.035162248 -0.0205179
000020 9e 80 ed 3c 8c 84 c1 3c 92 60 d2 bc 90 63 87 3b
       0.028991994 0.023622774 -0.025680814 0.004131742
000030 98 0d 8e 3b a2 7e 52 bc 74 0f ce 3c a6 12 53 bc
       0.0043351166 -0.012847574 0.025153853 -0.012882864
000040 40 aa 25 ba da 3f f7 3c 00 e7 66 ba 8a 9c 8b bc
       -0.000631962 0.030181814 -0.00088082254 -0.017042417
000050 3d b8 8d bc 50 7d ef bb 90 75 a4 3b 04 4c 45 3c
       -0.017299766 -0.0073086396 0.0050188974 0.012042049
000060 e9 bc 90 bc 40 ea 75 ba 40 d6 3f 3c 9a d9 fb 3c
       -0.017668204 -0.0009380914 0.011708796 0.030743409
000070 c4 11 55 3c e8 f2 bf 3b 90 fa 15 bb fb 6f 0c bd
       0.013004724 0.005857814 -0.0022884943 -0.03428648
000080 86 a2 d3 3c 3c c2 0a bd 4c bf f6 bb 20 7f c2 ba
       0.025834333 -0.033876643 -0.0075301286 -0.0014838912
000090 60 d9 1e bb d4 5f 1d 3c 8a bf ad 3c 94 73 e0 bb
       -0.0024238452 0.009605367 0.021209497 -0.0068497155
0000a0 ca c7 8b 3c 60 d4 aa ba fc c3 a5 bb f0 77 cb bc
       0.01706304 -0.0013033263 -0.0050587635 -0.024837464
0000b0 90 ab f4 3b eb 3a 0f 3d 32 c7 68 bc 70 33 89 3c
       0.007466741 0.034968298 -0.014207648 0.01674816
0000c0 d8 27 7b bc 8c bd 98 bc 5c 81 72 bc 20 df 89 3a
       -0.015329324 -0.01864507 -0.0148013495 0.0010518767
0000d0 14 f6 b4 bc 14 a4 60 bc 24 c2 71 3c a0 5d 83 3b
       -0.022089995 -0.013710994 0.014755759 0.0040089637
0000e0 a5 02 06 bd 18 49 f2 bc 1a 73 39 bc 46 92 05 bc
       -0.032717366 -0.02957587 -0.011318946 -0.00815255
0000f0 0a 4b 55 bc 30 93 18 bb 00 a2 2a bc 42 15 e1 3c
       -0.013018379 -0.002328109 -0.0104146 0.027475957
000100 e0 10 22 bb 27 45 bc bc 52 64 25 bc 5e ec b3 3c
       -0.0024729297 -0.022982193 -0.010094719 0.021963295
000110 17 12 fc bc 00 10 0a b9 d9 6e 0e 3d d0 05 2e 3c
       -0.030770345 -0.00013166666 0.03477368 0.010621503
000120 00 0d 72 3c e6 dc f7 3c f8 51 dd 3c fc aa 71 bc
       0.014773607 0.0302567 0.027016625 -0.0147502385
000130 cc d6 ab 3c 58 bd 8a 3b 01 14 07 bd 85 eb 82 bc
       0.020976447 0.0042339973 -0.03297806 -0.015981445
000140 88 dc 82 bb 40 23 4d 3a 2a cb a7 3c 2c 02 21 3c
       -0.0039935745 0.0007825382 0.020482618 0.009827178
000150 ea 77 d7 3c a8 28 c8 3c 6c 6d 70 bc e1 0d 0d 3d
       0.026302297 0.024433449 -0.014674526 0.034437064
000160 48 cd 9e 3b a8 e3 5f bc 8f c0 a7 bc bc a2 c2 3c
       0.004846249 -0.013665117 -0.020477561 0.023759238
000170 be 87 9d bc 6a 3b af 3c 78 12 d4 3b 93 35 09 bd
       -0.019229766 0.021390636 0.006471928 -0.033498358
000180 90 79 60 3c e0 42 07 bd a8 f7 5f 3c 88 43 ad 3b
       0.013700858 -0.03302276 0.013669886 0.0052875914
000190 c8 d5 83 3c 83 d9 06 3d 98 26 7a 3c 86 dc e9 3c
       0.01609315 0.03292228 0.0152679905 0.028547537
0001a0 24 16 d6 bc f2 5b e4 3c 04 50 07 bc f4 05 19 3c
       -0.026133604 0.027875874 -0.008258823 0.009339798
0001b0 e0 b5 0e 3b fa 12 47 bc 52 7c c7 3c 88 02 77 3c
       0.0021775886 -0.01215052 0.024351273 0.015076287
0001c0 38 9b ad 3b 00 1d 64 3a ed 52 0e bd c2 18 b1 3c
       0.0052980445 0.0008701831 -0.034747053 0.02161825
0001d0 ac d8 87 3c 3c 53 1e 3c 40 5a 36 ba 80 ad f0 3b
       0.01658281 0.009663399 -0.00069561973 0.0073449016
0001e0 8a 5c f4 3c a4 e8 96 bc b8 fe 3b bc 92 67 a3 bc
       0.029829282 -0.018421479 -0.011474304 -0.019946847
0001f0 6f 7f 0b bd 80 78 33 3c 52 5e a8 3c a8 eb a8 bc
       -0.034057077 0.010954022 0.020552788 -0.020620182
000200 78 30 8d bb e3 8d 00 3d 84 af 0d 3c 64 b0 c6 3c
       -0.0043087564 0.031385314 0.008647803 0.024254031
000210 e0 9a 80 bc a6 cd b2 bc 42 dc a2 bc 00 c5 50 b9
       -0.01569885 -0.021826576 -0.019880418 -0.00019909814
000220 ec 37 88 3c e4 be 2f 3c 5c e1 fc bb 54 5c fe bc
       0.016628228 0.010726664 -0.0077172946 -0.031049885
000230 20 d0 e9 3a a8 14 69 3c 9a e6 f0 bc c2 65 a9 3c
       0.0017838515 0.014226116 -0.029406834 0.020678405
000240 00 a5 3e bb 30 03 f8 3b 9c bc d0 3c a0 ce 8f 3c
       -0.0029090047 0.0075687394 0.025480561 0.017554581
000250 84 c2 b2 3c ae 8f d2 3c f8 2c b6 3b af 9a 86 bc
       0.021821268 0.025703277 0.00555956 -0.01643118
000260 07 1d 0f 3d 7a 2a f2 bc 39 aa 92 bc d4 11 a1 bc
       0.034939792 -0.02956127 -0.017903434 -0.019661821
000270 30 b3 a2 3b 3a d7 98 3c 18 e7 b6 bc 94 62 08 3c
       0.0049652085 0.018657316 -0.022326991 0.008324284
000280 f0 ca c3 bc cc 9d eb bb 60 ad 05 bc 22 08 b7 bc
       -0.02390048 -0.0071904417 -0.008159012 -0.022342745
000290 12 be a2 bc 5c d5 e5 bc 50 b1 2b 3c 54 52 0e bd
       -0.019866023 -0.02805584 0.010479286 -0.034746483
0002a0 40 38 e0 bb f0 8b 30 bb fa 29 57 bc 67 a7 08 bd
       -0.006842643 -0.0026938878 -0.013132567 -0.033362772
0002b0 f0 49 a0 bc c8 2a 3e bc f8 44 28 3c da 9e 3e bc
       -0.019566506 -0.0116068795 0.01027035 -0.011634553
0002c0 4c 64 64 bc 60 fc aa 3c 40 f0 e4 bc 68 52 64 3c
       -0.013939928 0.020872295 -0.027946591 0.013935663
0002d0 e4 1f 5a bc 94 2a a2 bc 99 73 a9 bc 16 d6 fd 3c
       -0.013313267 -0.019795693 -0.020685004 0.030985873
0002e0 36 2f 30 bc f8 28 87 3c 72 d2 df 3c dc 04 21 3c
       -0.010753443 0.016499028 0.027322028 0.009827819
0002f0 0a 11 82 3c fc d4 b3 bc 10 14 e5 bc e0 8c 4b 3b
       0.015877265 -0.021952145 -0.027963668 0.003105931
000300 48 7e b5 bc 64 26 9f bc fc d0 71 3c b6 05 0b bd
       -0.022154942 -0.019427486 0.014759298 -0.033940993
000310 34 2a bd bb 0c 99 8e 3c fc d1 68 3c 4c 14 4e 3c
       -0.0057728533 0.017406963 0.01421022 0.012578081
000320 00 ab b6 ba 8c 77 aa bc 37 e0 d8 bc 90 06 ff 3b
       -0.001393646 -0.020808958 -0.026474101 0.0077827647
000330 d8 01 ce 3c 6e 3d e7 3c 08 4d c9 bb fb c1 0e bd
       0.025147364 0.028227534 -0.006143216 -0.034852963
000340 80 8e 35 3b 87 07 0a 3d d2 a2 00 bd c0 01 27 bb
       0.0027703345 0.033698585 -0.031405278 -0.002548322
000350 10 48 36 3c 8c 70 d7 3c 00 37 25 b9 9c 89 66 bc
       0.0111255795 0.026298784 -0.00015756115 -0.014070895
000360 42 15 f4 3c ed e3 0b bd de f9 a4 3c 48 2a b8 bb
       0.029795293 -0.034152914 0.020138677 -0.0056202747
000370 f8 42 4b bc 88 ca ae bc 5a cb dc 3c 40 87 f5 3a
       -0.012406103 -0.021336809 0.026952434 0.0018732324
000380 3a b8 c4 bc a0 62 81 bc 60 d7 c6 3c 10 0f 62 bb
       -0.024013627 -0.015794098 0.02427262 -0.0034493841
000390 b6 d9 84 3c 24 6b 85 3c ae c2 e5 3c 86 d1 da bc
       0.016217094 0.01628644 0.028046932 -0.026711237
0003a0 73 f5 00 3d be d9 8b 3c 49 da 0d 3d e7 ea b6 bc
       0.03148408 0.017071601 0.034632 -0.022328807
0003b0 24 d2 3c bc 54 6a 65 bc 80 56 49 bc 0a ed a6 bc
       -0.011524711 -0.014002401 -0.01228869 -0.0203767
0003c0 8c 18 57 bc f9 97 0c 3d 90 a3 5f 3c 0e d5 cb 3c
       -0.013128411 0.03432462 0.013649836 0.024881866
0003d0 c0 f6 05 bb b8 38 f3 bb a0 b5 fd 3b 00 44 66 b9
       -0.0020441264 -0.007422533 0.0077425987 -0.00021959841
0003e0 74 e3 a9 bc a8 13 fd bc 0c 2d 58 3c 20 8e 0c bb
       -0.02073834 -0.030893162 0.013194334 -0.0021447018
0003f0 30 7e 1d 3b 0a ca 95 3c 6c c8 83 3c 7a 32 f3 3c
       0.0024031512 0.018284816 0.01608678 0.029687155

conv3.bias f4 [32]
000000 69 f1 df bc d2 fe a4 bc 7a 0d ae 3c 00 2f 85 3b
       -0.027336793 -0.020141039 0.02124666 0.0040644407
000010 7c d3 b1 3c 20 8f 8e 3c 96 4a e9 3c c2 24 98 3c
       0.021707289 0.017402232 0.028477948 0.018572215
000020 4c 22 75 bc c0 fc cb 3b 3e 3e 42 bc 50 f1 a3 3b
       -0.01496179 0.0062251985 -0.01185566 0.005003132
000030 ce bd 80 3c 58 84 4f 3c ae 66 24 bc 5e 0d de bc
       0.015715506 0.012665831 -0.010034246 -0.027105983
000040 f8 f4 db 3b 7c cd db 3c d8 77 db bb b0 fd 83 3b
       0.006712552 0.026831381 -0.006697636 0.0040280446
000050 5c b6 69 3c 78 82 be bb b8 77 10 bc 5c 61 b8 bb
       0.014264669 -0.005813893 -0.008817606 -0.0056268405
000060 8c 43 1f 3c 78 b9 11 3c d0 d3 ed 3b 8e d3 ae 3c
       0.009720694 0.008894317 0.007257916 0.021341112
000070 78 1b 9e 3b 30 3b be 3b ac 38 53 3c e0 e7 98 bb
       0.004825052 0.0058053955 0.01289193 -0.0046663135

bn3.weight f4 [32]
000000 63 ee 33 3f 6e 77 02 3f dc e4 74 3f 80 33 2d 3c
       0.70285624 0.50963485 0.9566171 0.010571361
000010 61 e1 42 3f 78 1f 82 3e fd 94 65 3f 76 bc 2c 3f
       0.7612515 0.25414634 0.89680463 0.6747507
000020 40 b9 c9 3e 30 e8 74 3f 58 97 0f 3e 94 36 d6 3e
       0.39399147 0.9566679 0.14022577 0.41838515
000030 60 97 33 3e 15 b7 31 3f 4d 47 6d 3f 68 a0 b6 3e
       0.17538214 0.69419986 0.9268692 0.35669255
000040 93 57 63 3f 80 f7 87 3d 00 f3 9d 3d 8a 5e 78 3f
       0.888055 0.06639004 0.07712364 0.97019255
000050 ae c2 34 3f 32 48 a2 3e 54 ba 75 3e a6 f5 29 3f
       0.7060956 0.31695706 0.2399686 0.66390455
000060 4c e1 73 3f 90 b5 f5 3e c2 7e 3c 3f b6 5c 1c 3f
       0.9526565 0.47990084 0.7363092 0.61078966
000070 de 6c 6a 3f 3c ed 72 3f 40 8e 8f 3c 1e a4 8c 3e
       0.9157237 0.9489324 0.017523885 0.2746896

bn3.bias f4 [32]
000000 00 00 00 00 00 00 00 00 00 00 00 00 00 00 00 00
       0.0 0.0 0.0 0.0
000010 00 00 00 00 00 00 00 00 00 00 00 00 00 00 00 00
       0.0 0.0 0.0 0.0
000020 00 00 00 00 00 00 00 00 00 00 00 00 00 00 00 00
       0.0 0.0 0.0 0.0
000030 00 00 00 00 00 00 00 00 00 00 00 00 00 00 00 00
       0.0 0.0 0.0 0.0
000040 00 00 00 00 00 00 00 00 00 00 00 00 00 00 00 00
       0.0 0.0 0.0 0.0
000050 00 00 00 00 00 00 00 00 00 00 00 00 00 00 00 00
       0.0 0.0 0.0 0.0
000060 00 00 00 00 00 00 00 00 00 00 00 00 00 00 00 00
       0.0 0.0 0.0 0.0
000070 00 00 00 00 00 00 00 00 00 00 00 00 00 00 00 00
       0.0 0.0 0.0 0.0

bn3.running_mean f4 [32]
000000 3a 4f d2 bd e8 b1 0b bd ca 71 c9 bd 1b 68 b4 3e
       -0.102690175 -0.03410521 -0.09836157 0.35235676
000010 a2 37 a9 bb 91 ee 41 3d 55 22 21 3d b6 08 21 bd
       -0.0051641027 0.047346655 0.039339382 -0.039314948
000020 b9 a7 45 bd 4b c2 0f 3e 5d 72 cb bc 7f 95 99 bd
       -0.048255656 0.1403896 -0.024834806 -0.07499217
000030 47 08 71 bd 4e 44 06 be 6e e3 d0 bd 41 fa d4 bd
       -0.058845785 -0.13111994 -0.10199629 -0.10399295
000040 17 3c 5e bc b4 80 f3 3c 8a 79 2f be 94 b0 f7 3c
       -0.013564131 0.029724456 -0.17136207 0.030235566
000050 6e 98 69 3e 4e 57 9a bc dc 89 9c bd 9c 37 6c bd
       0.22812054 -0.018840458 -0.07643482 -0.05767022
000060 82 3d d2 bc 4a cc 95 bd 6b 38 c3 3d 0c e7 2e be
       -0.025664095 -0.07314356 0.09532245 -0.17080325
000070 ba c1 c4 bd 5d 06 17 3e 9b e7 ea bd d0 45 8f bd
       -0.09607263 0.14748521 -0.114699565 -0.069957376

bn3.running_var f4 [32]
000000 bd 55 2a 3e 22 4b cd 3d ae 8f d3 3d ed c7 2a 3e
       0.16634269 0.10024096 0.10330139 0.16677828
000010 91 c9 c9 3d d7 ed 6b 3e 26 7f 01 3e 21 b4 cd 3d
       0.09852899 0.23039947 0.1264616 0.100441225
000020 ea 76 0d 3e c5 a8 cb 3d 01 5a 08 3e 2b 87 c5 3d
       0.13814893 0.099442996 0.13315584 0.09644922
000030 63 69 c7 3d 43 d2 fd 3d 22 88 fb 3d 31 80 ca 3d
       0.09736898 0.1239362 0.12281825 0.09887732
000040 0b fe c3 3d 5f 63 04 3e 39 78 0d 3e 5b cd 09 3e
       0.09569939 0.12928532 0.13815393 0.13457243
000050 43 82 ca 3d c7 e0 e7 3d 46 23 06 3e 9c dd e0 3d
       0.09888127 0.1132217 0.13099393 0.10979769
000060 04 10 c5 3d 6f 6b bf 3d 82 ff fa 3d bd 60 b8 3d
       0.09622195 0.09346663 0.122557655 0.09002826
000070 3d ae ee 3d bf b8 10 3e 68 28 eb 3d 48 ac d4 3d
       0.11654327 0.14132975 0.11482316 0.103844225

head.weight f4 [4, 800]
000000 d4 fc ac bb 00 0d 93 3a f0 fc da 3c b6 ec 22 bc
       -0.005279163 0.0011219084 0.026731938 -0.009944132
000010 40 4f ca 3a ec da 11 3c 33 ef 8b bc 87 0b 01 3d
       0.0015434995 0.008902293 -0.017081833 0.031505134
000020 d2 5e b7 3c 80 cd 1a 3a e7 2f b3 bc 40 d4 b2 bc
       0.022384081 0.00059052557 -0.021873428 -0.021829724
000030 a3 8b 0f 3d 3c e7 cd 3c 80 2c d4 3a 30 02 21 3b
       0.035045277 0.025134675 0.0016187578 0.0024567954
000040 4c db ce 3c 3c 19 78 bc 00 bc 93 3a c0 7b 90 3a
       0.025251053 -0.015142735 0.0011271238 0.0011023208
000050 14 62 cd 3c 75 1a 09 bd b0 02 ed 3b 1b 91 b0 bc
       0.025071181 -0.033472497 0.0072329864 -0.021553567
000060 4f f9 03 3d f2 8f f3 bc b0 d7 ad bc 21 6b 10 3d
       0.03222018 -0.029731724 -0.021221012 0.035258416
000070 18 f4 e3 bc 2a c0 bc bc 74 61 c3 bb 22 58 50 bc
       -0.027826354 -0.02304085 -0.005962545 -0.012716325
000080 7a 0b 89 bc a0 d0 3a 3b f9 8e 92 bc 69 25 b2 bc
       -0.016729105 0.0028505698 -0.01789044 -0.021746354
000090 7c ac ed bb 27 6b e4 bc fc e6 6f 3c f4 be a7 3c
       -0.0072532278 -0.027883125 0.014642473 0.020476796
0000a0 26 20 69 bc 66 84 fc 3c 4e b9 0c bc 70 60 75 bc
       -0.014228856 0.030824851 -0.008589102 -0.014976606
0000b0 0c 21 cd bb 66 9e bf 3c 20 41 c6 3c 4a 93 e9 3c
       -0.006260043 0.02339096 0.024200976 0.028512616
0000c0 e0 9b d5 3a 00 04 3a bc 64 f1 8e 3c 20 43 06 bb
       0.0016297065 -0.011353493 0.017449088 -0.0020486787
0000d0 d0 5b 95 bb c0 95 4d 3b 08 8a 31 3c f8 05 11 bc
       -0.004558064 0.0031369776 0.010836132 -0.008851521
0000e0 ae 85 cc bc 90 8b d8 3c 9e 2b 07 bc fb eb 02 3d
       -0.024966087 0.026433736 -0.008250145 0.03196333
0000f0 df 95 81 bc 00 00 3a ba 78 81 fa bc 5d a2 0a 3d
       -0.015818534 -0.0007095337 -0.030579314 0.033846248
000100 07 97 91 bc 12 37 28 bc 0a 68 e8 3c d8 49 8d 3b
       -0.01777221 -0.010267036 0.028369922 0.0043117814
000110 ee 9b f9 3c d0 50 d5 3c 96 6c fc 3c 50 85 69 3b
       0.03046986 0.026039511 0.030813497 0.003563244
000120 30 83 57 3b 28 01 0c bc d3 de f3 bc 94 43 94 bb
       0.003288459 -0.008545198 -0.029769337 -0.0045246575
000130 c0 f4 c5 bb 78 cb 71 3c 26 60 91 3c 00 e8 71 3b
       -0.0060411394 0.014757983 0.017746042 0.0036911964
000140 e2 de bc 3c 9e f6 70 bc 30 6c 68 3b 69 9b 0c bd
       0.023055498 -0.014707236 0.0035464875 -0.0343279
000150 b0 b0 39 bb f6 46 e1 3c 95 c8 d6 bc c9 73 84 bc
       -0.0028334074 0.027499657 -0.026218692 -0.016168492
000160 96 c8 25 bc c2 43 23 bc 30 bc df 3b b8 4d 92 3c
       -0.010118624 -0.009964885 0.0068278536 0.017859325
000170 88 cf 8a 3b 5d 24 a1 bc d6 9e f0 3c 02 14 d1 bc
       0.0042361654 -0.01967066 0.029372614 -0.025522236
000180 1c 3c e0 bc d8 1b be bc 62 fc 6c bc e0 6f 58 3c
       -0.027372412 -0.023206636 -0.01446447 0.013210267
000190 40 72 25 bc 2e ce e8 3c 2c 00 62 3c a8 27 ab 3b
       -0.01009804 0.028418627 0.013793986 0.0052232333
0001a0 4a 75 a4 3c fa d6 e9 3c 50 c7 b9 3c f8 4c 2e 3c
       0.020075459 0.028544892 0.022678047 0.010638468
0001b0 91 95 92 bc e8 92 cf 3c 30 0d f6 bc 58 13 2e 3c
       -0.017893584 0.025338605 -0.030035585 0.010624729
0001c0 08 7e 91 bb 84 88 8f bb 25 49 0d 3d 20 79 c5 3a
       -0.004440073 -0.0043802876 0.034493584 0.0015066005
0001d0 2d 14 fe bc 06 a1 a7 bc 00 14 b0 3a b2 ee e6 3c
       -0.03101548 -0.020462524 0.0013433695 0.02818999
0001e0 41 aa d7 bc 80 c9 f9 bb 2c 76 25 bc 72 3e ef 3c
       -0.0263263 -0.0076228976 -0.010098975 0.029204581
0001f0 ab b1 0d bd 4f c3 85 bc c0 0c dd ba 20 7e 03 bd
       -0.034593266 -0.016328482 -0.0016864762 -0.032102704
000200 80 79 f9 39 c6 fe 66 bc d6 e9 93 3c e2 dc 8a bc
       0.00047583506 -0.014098829 0.018055838 -0.016951028
000210 c4 b9 a1 3c a2 fd e7 3c eb dd 06 3d 70 32 de 3c
       0.0197419 0.028319184 0.03292648 0.02712366
000220 72 58 2a bc 72 61 6f bc 9a 19 cd 3c 71 aa 0f bd
       -0.010397064 -0.014610635 0.025036622 -0.035074655
000230 9c bf f5 bc 40 4e e9 3b 60 23 d7 3b b0 f3 30 bb
       -0.029998593 0.007119924 0.0065654963 -0.0027000718
000240 e8 48 96 bb 69 ba b8 bc b6 6d fe bc e8 e8 db 3c
       -0.004586328 -0.022549825 -0.031058174 0.026844457
000250 12 cb e8 bc 4c a8 b1 bb 70 77 ce 3c 3c 40 49 3c
       -0.028417144 -0.005421674 0.025203437 0.012283381
000260 ce 23 98 3c 58 c6 16 bc 40 3a bb 3a 68 5f a1 bb
       0.01857176 -0.009202562 0.0014284328 -0.0049247034
000270 dc c7 c5 bb 62 0e f3 3c 7e ef 07 bd df 98 01 3d
       -0.006035788 0.029669944 -0.033187382 0.03163993
000280 20 51 55 3b 02 53 e3 3c 60 01 ea 3a be 1d 38 bc
       0.0032549575 0.027749542 0.0017853193 -0.01123756
000290 85 e0 05 3d bc 04 41 3c dc 6e b4 bc 69 56 94 bc
       0.03268482 0.011780914 -0.022025518 -0.01810761
0002a0 e6 e9 c6 bc 68 41 61 bc c6 7e bb 3c 93 24 e3 bc
       -0.024281453 -0.013748504 0.022887599 -0.0277274
0002b0 0c ac be 3c c4 cc 71 bc 90 64 6d 3c f0 51 bf 3c
       0.023275398 -0.014758293 0.014489308 0.0233545
0002c0 e8 9e d6 bc cc 5e b6 3c d4 99 76 3c 28 10 f3 3b
       -0.02619882 0.022262 0.015051324 0.0074176975
0002d0 70 7a ed bc b0 9d 2e bb ba 51 e7 3c 83 c8 d6 bc
       -0.028989047 -0.0026644282 0.028237212 -0.026218658
0002e0 bc 5e 26 3c eb cf 09 bd 94 63 f4 bb 8f c5 9e bc
       0.010154422 -0.03364555 -0.0074581597 -0.019381313
0002f0 b3 6d 0b 3d 00 19 eb 3b 20 d5 ed 3a 08 ea 80 bb
       0.034040164 0.007174611 0.0018145181 -0.0039341487
000300 1c c0 c4 bb 68 3b 8a bc d8 e5 1a bc 21 d0 08 3d
       -0.0060043465 -0.01687403 -0.009454213 0.033401612
000310 8d b1 93 bc c9 11 02 bd ec de 0a 3c e0 0c ad 3c
       -0.018028999 -0.031755242 0.008476 0.021124303
000320 7f 34 0a bd 28 34 db bc a8 24 c7 3b 00 34 30 3b
       -0.03374147 -0.026758268 0.006077368 0.0026886463
000330 32 df 86 bc cc 58 32 3c 38 95 f7 bc 80 67 89 b9
       -0.01646385 0.010885429 -0.03022252 -0.0002620779
000340 e6 20 ef 3c a6 d5 fd bc 28 a8 f3 3b bf 4f ca bc
       0.029190492 -0.030985665 0.0074358173 -0.024696229
000350 b8 4f ad bc 3e 9c 8b 3c 00 80 dd 36 66 7f a0 3c
       -0.021156177 0.017042276 6.6012144e-06 0.019591998
000360 f0 06 76 bb f7 70 fe bc 6c c0 d5 bc a7 01 03 bd
       -0.0037540756 -0.031059725 -0.02609273 -0.031983998
000370 c2 b5 ea 3c e1 07 09 bd 04 9e 5a 3c d0 2f ac 3c
       0.028651122 -0.03345478 0.013343338 0.021018893
000380 d8 2e dc 3b 8c 11 d0 bb fa b1 f8 3c 66 c2 da 3c
       0.0067194514 -0.006349748 0.030358303 0.026704025
000390 b0 a2 d5 3b 80 59 cf b9 02 07 e0 3c c8 df fc bc
       0.006519638 -0.000395488 0.027347092 -0.030868426
0003a0 2f e9 b0 bc e4 72 28 3c ba cd f5 bc 9e d2 98 3c
       -0.021595566 0.010281298 -0.030005325 0.018655118
0003b0 34 20 7f bc 0c 2a 9f 3c 76 af fa 3c 6c 21 87 3c
       -0.015571643 0.01942923 0.030601244 0.016495429
0003c0 2e f7 5b bc 9e 32 f5 3c e4 bd f7 bb ae 58 55 bc
       -0.013425631 0.029931363 -0.0075604785 -0.013021631
0003d0 80 da 9b b9 02 0b 0e bd d1 dc 07 3d 00 49 ef 3a
       -0.000297267 -0.034678467 0.03316957 0.0018256009
0003e0 00 79 09 3c 9e 83 97 3c 4d 7b 81 bc 0e 69 d3 bc
       0.008390665 0.018495377 -0.015805865 -0.02580693
0003f0 22 52 95 3c e0 69 c8 ba ca 11 e4 3c 0c e0 1c 3c
       0.01822764 -0.0015290342 0.027840514 0.009574901

head.bias f4 [4]
000000 c0 eb 45 3b 06 44 af bc d2 68 69 bc ee cd b2 bc
       0.0030200332 -0.02139474 -0.0142461825 -0.02182671
