breakout/model/target_net_state_dict.pt (torch_old, 177756 bytes, 20 tensors)

conv1.weight f4 [16, 4, 5, 5]
000000 5f b1 4b bd be 00 c6 bc b7 48 1d bd bd 03 9e 3d
       -0.0497297 -0.024170276 -0.038399424 0.07715557
000010 6a b2 0c bc 0c da 22 bc c1 e9 98 3d 41 50 ac bd
       -0.008587459 -0.009939682 0.0746646 -0.08413745
000020 ec bd 97 bd 76 38 97 3d 34 92 81 3d b6 dc d0 bd
       -0.074092716 0.07383816 0.06326714 -0.10198347
000030 ce 23 93 bd 13 c8 d3 bd dd ae 0e bd 28 ee 81 38
       -0.071845636 -0.103408955 -0.03483473 6.1955594e-05
000040 9d d9 2f 3d dd 67 53 3b b7 cb 74 3d bb ff 4f bc
       0.04293214 0.0032257952 0.05976459 -0.012695248
000050 7e c3 99 3d b0 6b 8d 3d 64 36 e8 bd f6 f7 e5 bd
       0.0750799 0.069053054 -0.11338499 -0.112289354
000060 70 ed cf bc 5c d7 15 3d a9 41 f6 bc 62 15 48 bc
       -0.025381774 0.036582336 -0.030060606 -0.012212129
000070 f0 8e 6e bd 32 b7 31 bd f2 32 21 bd 22 76 ea bb
       -0.058241785 -0.0433876 -0.039355226 -0.007155196
000080 c6 0e 55 3b 69 36 b6 3d 54 57 ab bc 10 8b 2a bc
       0.0032510026 0.08897097 -0.020915665 -0.010409132
000090 f7 22 0e bd 2a aa 92 bd 16 96 8f 3d f0 b2 5d bd
       -0.034701314 -0.071613625 0.070110485 -0.054125726
0000a0 45 87 f4 ba 8c d4 9c bd d9 7c aa 3c 7b 64 88 3d
       -0.0018656036 -0.076577276 0.020811485 0.0665979
0000b0 8d d6 24 3d 97 d7 cf bd f4 3d cc bc 61 15 ea bc
       0.040243674 -0.101485424 -0.024931885 -0.028574647
0000c0 08 09 24 3d 0c ad a6 bc ef c3 96 3c 6f d4 54 bb
       0.040047675 -0.020346187 0.018403975 -0.0032475253
0000d0 3a e8 22 bd 63 31 d1 3d 2d 17 b6 3c 5b 18 13 3c
       -0.03977225 0.10214498 0.022227848 0.008977975
0000e0 39 da a3 bd b0 82 11 3d 34 18 66 bd 4d 6b da 3c
       -0.08000607 0.035525024 -0.056175426 0.026662493
0000f0 f4 aa 4c bd 46 96 9d bd 51 25 9c bc 3e d2 b2 bd
       -0.04996772 -0.07694678 -0.019060763 -0.08731507
000100 32 49 ad bd d2 ef a1 bc f1 47 9d bd 22 a1 85 bd
       -0.084612265 -0.019767676 -0.07679737 -0.06524874
000110 ab 27 ef bd 22 77 c7 bc 0e 0f a5 bd e9 95 50 3d
       -0.11677488 -0.0243488 -0.08059512 0.050924215
000120 6a 53 38 3d 6e 62 80 3d df c1 c7 bd 22 87 8b bd
       0.045001425 0.06268774 -0.09753775 -0.06812884
000130 a5 50 ff bc 25 db b6 3d a5 80 b9 3d 6d 79 ab 3c
       -0.031166384 0.08928517 0.0905774 0.020931924
000140 f6 9a 99 bc 01 6e 50 3d b4 91 91 bd c4 b3 d4 bc
       -0.018750649 0.050886158 -0.07107869 -0.025964625
000150 e8 26 9a 3d 67 07 bb 3d f4 33 c8 bd 08 1b 59 3c
       0.07526952 0.09132271 -0.09775534 0.013251074
000160 1c 28 a8 bd 10 5c 65 3d 08 24 ab 3d 5f 3d aa 3d
       -0.08210775 0.055996 0.08356482 0.08312487
000170 30 90 f5 bd 29 7a bd bd 09 b7 94 3d 33 8e 9b 3d
       -0.11990392 -0.09251816 0.07261474 0.07595482
000180 8d 91 5a 3d b1 de d4 3c 64 32 90 bd 5f 68 9c bd
       0.053361464 0.025985094 -0.07040861 -0.07637095
000190 5e 2d 3f 3c 5b 2c af bd ee b4 52 bd 09 4e b7 bd
       0.011668531 -0.08553382 -0.05144208 -0.08950431
0001a0 b6 1c 58 3c dd f1 50 bd b5 97 b3 bd 03 dd ed bd
       0.013190439 -0.05101191 -0.0876917 -0.1161442
0001b0 5d 50 83 3d e8 77 e9 bb 94 40 4d 3d f2 41 3f 3d
       0.064118125 -0.0071248896 0.050110415 0.04669375
0001c0 db bb 92 bd 6b e7 a2 bd a5 ef c7 38 1c 16 c4 bd
       -0.07164737 -0.07954296 9.533697e-05 -0.095745295
0001d0 61 f8 f9 3c e7 56 ba bd 63 87 d3 3d 97 a0 69 bd
       0.030513944 -0.090986066 0.10328557 -0.057037916
0001e0 69 b5 3c 3d 79 8b 26 bd 86 f8 db 3d 4e a7 8e 3c
       0.046071444 -0.040660355 0.107407615 0.017413761
0001f0 d9 da 00 3e e7 e3 41 3d be 91 c5 bc 07 a2 01 be
       0.12583484 0.047336485 -0.024117347 -0.12659465
000200 45 0a 01 be ae 93 eb bd b7 96 4e bd 1b 7f 1d bd
       -0.12601574 -0.11502777 -0.0504367 -0.038451295
000210 34 c1 d0 bc 4f 69 dc bd a1 78 1e 3d 9c a6 9d 3d
       -0.025482751 -0.107622735 0.03868926 0.07697794
000220 b4 65 1a bd f2 74 d2 3b 93 59 7c 3d 66 f5 7c bd
       -0.037694648 0.0064226324 0.061608862 -0.061757468
000230 07 47 51 bb 62 c1 be 3d b9 9a 0f 3d 1a bf fc bc
       -0.0031933205 0.093142286 0.035059664 -0.030852843
000240 21 b9 06 3b 94 ab b5 3a d3 8c 0a 3e 96 8c 3e 3d
       0.0020557123 0.0013860338 0.13530283 0.046520792
000250 39 f7 d3 3d d5 26 d6 bc 61 55 38 3b ea 60 8f bb
       0.10349888 -0.026141563 0.0028127062 -0.0043755667
000260 1e de 40 3d 18 c2 b1 bd 87 6f db bd dc 69 00 3d
       0.047086827 -0.086795986 -0.107146315 0.031350955
000270 fa af 03 bd 66 ee be bd db 86 a0 3d 96 3d 69 bd
       -0.032150246 -0.09322815 0.07838222 -0.0569435
000280 57 58 a2 3d c8 06 c8 bd ed b9 36 3d 17 b7 64 3d
       0.07927006 -0.097669184 0.044610906 0.05583867
000290 ad 6c 90 3d 3c 86 c2 3c 2e e8 08 bc bf 94 aa bd
       0.07051978 0.023745649 -0.008356137 -0.08329152
0002a0 d4 ee 6d bb 70 9e dd 3c 89 d4 b7 bc 39 b0 07 bd
       -0.0036305683 0.027053088 -0.022440212 -0.033127043
0002b0 b5 e2 74 bd 69 b4 52 3d 52 47 21 bd 93 43 f4 bd
       -0.059786517 0.051441584 -0.039374657 -0.11926951
0002c0 20 ab 77 bc 34 11 8e 3c 9b 34 93 bd bb fb 4d bd
       -0.015116483 0.017342187 -0.07187768 -0.050288897
0002d0 d2 d6 dd bd 12 f3 9f 3b 16 04 59 3c 2f ae 5b bc
       -0.10831989 0.004881271 0.013245603 -0.013408228
0002e0 f3 0e c7 bd 18 0a 17 3d c7 41 2b 3c 29 bd a6 bc
       -0.09719648 0.03687486 0.010452694 -0.02035387
0002f0 da 56 37 bc ff 25 5d bd 40 dc f6 3c f4 f5 9f bd
       -0.011190141 -0.053991314 0.03013432 -0.07810584
000300 f3 df 26 3d ca 9b 5a bd 57 c3 48 3d 07 fb cb 3d
       0.04074092 -0.05337123 0.049014416 0.09959989
000310 7c 86 6e bc 02 fd 85 bd d4 c8 0e 3d 9a cc 04 bc
       -0.014558431 -0.06542398 0.034859493 -0.008105421
000320 39 b1 15 bf 5d d2 86 3f e0 33 a6 3f 7a ae 5b 3f
       -0.58473545 1.0532948 1.2984581 0.85813105
000330 4a 19 8f 3d a8 6b 17 bf 72 94 83 3f 60 0f b9 3f
       0.069872454 -0.59148645 1.0279677 1.4457817
000340 a0 92 56 3f b4 c3 0e 3e 25 96 65 bf c8 e9 7d be
       0.8381748 0.13941842 -0.8968223 -0.24796212
000350 91 e1 f2 be 23 23 f5 bd 2a 9a 67 be 74 6f 96 bd
       -0.4743772 -0.119695924 -0.22617403 -0.07345477
000360 87 c6 7b 3e 48 cb 9b 3d 07 b7 a1 3d b5 fe 8f 3e
       0.24587451 0.07607132 0.07896238 0.28124014
000370 76 93 41 bd b1 25 04 3e 83 07 07 3d 7f 37 58 3b
       -0.04725977 0.12905003 0.032966148 0.0032992063
000380 eb 67 df 3d 67 9a 16 bf 0b 75 8d 3f c8 d0 ac 3f
       0.10908493 -0.5882935 1.1051344 1.3501215
000390 b3 5c 49 3f 6c a7 35 3e 96 2b d9 be 43 bb 98 3f
       0.7865707 0.17739648 -0.42416066 1.1932148
0003a0 d4 7c bf 3f 8f 51 44 3f b3 b5 45 3e 1f b0 72 bf
       1.495997 0.7668695 0.19307594 -0.9479999
0003b0 6e 0d 44 bd d9 22 d8 be ff 18 e0 bd 74 99 9a be
       -0.04786437 -0.42214087 -0.109422676 -0.301952
0003c0 27 13 07 be 6a 67 f3 3d 7b f7 21 be 25 84 5c bd
       -0.131909 0.11884959 -0.15817063 -0.05383696
0003d0 74 b0 c1 3d 49 70 5a be dc 2e 2d 3e 17 aa 0e be
       0.09457484 -0.21331896 0.16912407 -0.13932072
0003e0 f9 e9 9f bd 33 2d 00 be 48 f7 c9 be 20 00 89 3f
       -0.078082986 -0.12517242 -0.39446473 1.0703163
0003f0 e9 ca c1 3f a7 3e 63 3f 80 90 80 3d 86 24 b5 be
       1.5140048 0.88767475 0.06277561 -0.35379428

conv1.bias f4 [16]
000000 ad 69 cf bc 14 ae 12 bd 88 d5 8c bd b7 ad 52 3c
       -0.025318945 -0.035810545 -0.06876665 0.0128588
000010 84 2d b3 bd e2 d3 b3 bc af 81 34 3d c5 07 20 bd
       -0.08748916 -0.02195162 0.04406899 -0.03906991
000020 87 53 96 bd 80 7d a9 3d a3 4c b9 3c f8 8b a2 3c
       -0.0734015 0.0827589 0.022619551 0.019842133
000030 a6 9f 9a bd 80 40 ac bd 52 ed 95 bd b0 a7 a0 be
       -0.07549982 -0.0841074 -0.07320656 -0.31377935

bn1.weight f4 [16]
000000 38 14 e1 3c 07 a2 ce 3c f0 fc 33 3e e7 8b 27 3c
       0.027475461 0.025223745 0.17576957 0.010226226
000010 da de b5 3d 06 47 a0 3e b4 f2 cf 3d 66 31 87 3e
       0.08880396 0.31304187 0.10153714 0.26404876
000020 4c ad 1d 40 1d 8d 12 3e 38 8f 42 3e cd 83 c9 3d
       2.4637022 0.14311643 0.18999946 0.09839592
000030 52 74 fe bb 06 0f 80 3e 43 f7 ae 3d 98 01 43 3f
       -0.0077653313 0.25011462 0.08543255 0.76174307

bn1.bias f4 [16]
000000 8b 67 26 bd 70 2a 1f bd 84 16 c1 be bb 1c dd bc
       -0.04062609 -0.03885883 -0.3771249 -0.026991239
000010 2f be 5c be cb 38 39 bf 56 26 4d be ff 88 0f bf
       -0.21556924 -0.72352284 -0.20034155 -0.56068414
000020 52 fa 80 be 87 6c c5 be 07 4d c5 be 50 85 4d be
       -0.2519098 -0.38559362 -0.3853533 -0.20070386
000030 d3 32 90 bc 40 67 1c bf 90 94 7b be 0c 8f ce 3f
       -0.01760236 -0.61095047 -0.24568391 1.6137404

bn1.running_mean f4 [16]
000000 e3 63 13 be aa 52 3c be c3 fe 62 40 90 e2 08 3e
       -0.14393573 -0.18390909 3.5467994 0.13367677
000010 37 a6 9d 3f 92 be 28 40 05 08 e5 3f ab 3a 47 40
       1.231635 2.6366315 1.7893072 3.1129558
000020 20 ca 37 c0 86 2a 67 3f 93 44 72 40 89 48 89 3f
       -2.8717117 0.9029926 3.7854354 1.0725261
000030 a2 a7 88 40 ca 97 45 40 15 24 14 3f 03 a6 3a 3d
       4.270463 3.0873895 0.57867557 0.045568477

bn1.running_var f4 [16]
000000 d3 35 2a 3d 90 3a 5f 3d 4e 7c 03 42 cf f9 1a 3d
       0.041555237 0.05449921 32.87139 0.037835892
000010 e8 6e 92 40 c1 b6 8f 41 68 99 fc 40 e9 11 d4 41
       4.5760384 17.964235 7.8937263 26.508745
000020 12 89 ac 41 ba 52 eb 3f 44 6b 14 42 2d 72 4d 40
       21.566929 1.8384621 37.10475 3.2100937
000030 b5 e8 50 42 7f ab d7 41 0c d4 a2 3f c5 90 45 40
       52.227253 26.958738 1.2720962 3.086961

conv2.weight f4 [32, 16, 5, 5]
000000 10 bf 35 bc 42 5c 26 3d b9 c0 f2 bb 80 7f 08 bd
       -0.011092916 0.040615328 -0.0074082282 -0.03332472
000010 41 b9 2f 3d 5a a7 14 bb f7 79 0e bd ad 17 aa bc
       0.04290128 -0.0022682757 -0.034784283 -0.020763243
000020 8a 50 4c 3d 17 68 2c 3c 36 2c 34 bc fa 87 38 bc
       0.049881496 0.010522864 -0.010996869 -0.011262888
000030 16 f2 da bc af 53 97 bb 54 c3 15 3d c9 e6 dc bc
       -0.026726764 -0.00461813 0.036563233 -0.026965516
000040 23 17 d2 3c c0 71 0e 3d b2 23 17 bd 3e ee 9a 3b
       0.025645798 0.03477645 -0.036899276 0.0047281077
000050 72 5b 77 bc 2e 0d 15 3c d0 13 1d bc b8 e6 47 bd
       -0.015097486 0.009097381 -0.009587243 -0.048804015
000060 ef 7e 1e bc cf 32 8a bd 44 7c 7c bd 2f 1b c4 3b
       -0.009673818 -0.06747972 -0.061641946 0.005984686
000070 83 44 35 3a 93 84 8b bd d4 06 ee bc 90 f6 6b 3d
       0.0006914811 -0.06812396 -0.02905599 0.057608187
000080 fb 0e bf 3c 54 77 5b 3d 12 78 f6 bc 99 74 b5 3c
       0.023322573 0.053580597 -0.03008655 0.022150325
000090 90 1d 80 3b 98 f6 7b 3c e8 d0 98 bc fc 96 09 3d
       0.003909774 0.015378617 -0.018654302 0.033591256
0000a0 c5 16 1d 3d 2b 49 0a 3d 61 7a 9d 3d b7 2c a8 3b
       0.038351793 0.033761185 0.076893575 0.0051322835
0000b0 7b 82 3f 3d 19 4f d9 3c 81 0e 91 3d 01 af b0 3c
       0.046755295 0.026526975 0.070828445 0.021567823
0000c0 c7 d2 f8 3c f4 4d 0a 3c 2d 3f 2a 3e 3d a3 28 3e
       0.030373944 0.008441437 0.16625662 0.1646852
0000d0 08 cf 23 3e c3 5f 23 3e f6 70 30 3e 5a ce ea 3d
       0.15996945 0.15954499 0.17230591 0.1146514
0000e0 b1 20 3e 3e 97 24 fc 3d 57 8a c1 3d af ee 27 3e
       0.18567158 0.123116665 0.09450214 0.16399644
0000f0 05 d4 0b 3e be c1 40 3d e5 df a3 3d 58 32 74 3d
       0.13655098 0.047059767 0.08001689 0.059618324
000100 4e 3d 94 3d e8 8f 9f 3d d4 9d 9d 3d 60 1b 30 3e
       0.072382554 0.0779112 0.07696119 0.17197943
000110 2d ee e8 3d 60 6d af 3d 8b ec 40 3d e9 4a 4b 3b
       0.113735534 0.085657835 0.047100585 0.0031019992
000120 95 35 e1 3d 1a 91 e9 3d c4 44 0f 3e bd 68 21 3d
       0.10996548 0.11404629 0.13991076 0.039406527
000130 4f de 16 bd ea 1f 90 3c 9b 25 34 3d 87 a8 0a bc
       -0.036833104 0.017593343 0.043981176 -0.008463032
000140 7b b8 19 bc e1 8e 4e 3a d4 09 95 3c 34 39 00 3c
       -0.0093823625 0.0007879567 0.018193163 0.007826138
000150 b5 ae 80 ba f0 fa 05 3c db ca 02 bd 47 39 31 3d
       -0.0009817692 0.008177504 -0.03193174 0.043267515
000160 9d 6a 3b bd 4d f5 24 bd 4d c2 a8 3a de e3 21 bd
       -0.04575597 -0.040273 0.0012875289 -0.03952395
000170 f5 48 26 3d 45 44 0d bc f1 16 9d 3c 6e 90 aa b9
       0.04059692 -0.008622234 0.019175978 -0.00032532535
000180 5a a7 5b 3b 0f e1 0e bd 1e be 9d 3a 5b fc 0a 3c
       0.0033516497 -0.0348826 0.0012034809 0.008483018
000190 59 f6 41 3d 77 19 45 3d 48 93 89 3d 8a 1e c1 3d
       0.047354076 0.04811999 0.06717545 0.09429653
0001a0 1f e2 26 3d c8 87 8d 3d 3e e7 8c 3d a9 92 fb 3d
       0.04074299 0.06910664 0.068800434 0.122838326
0001b0 7f 9a 88 3d 60 c5 c8 3c eb 31 0d bd a0 d7 5b 3a
       0.06670093 0.024508178 -0.034471434 0.00083863176
0001c0 83 6f 95 3c b5 65 13 3c 13 32 25 3d 39 47 31 bd
       0.01824165 0.008996417 0.040330958 -0.043280814
0001d0 8f 67 e0 bc f1 5c 8e 3d 65 25 34 3d e9 3b bb 3c
       -0.02739313 0.06951321 0.043980975 0.022855716
0001e0 00 1f b0 bd bc ca d2 3a be d4 13 bd 80 6c a2 3c
       -0.08599663 0.0016082148 -0.03609156 0.019827127
0001f0 cc 07 42 bd 95 d8 93 3d 18 b3 0e 3e 49 61 ba 3d
       -0.047370717 0.07219044 0.13935506 0.09100587
000200 05 06 4a 3d 56 27 15 3d 9f 17 02 3d 39 9e e0 3d
       0.049322147 0.036414467 0.031760808 0.109676786
000210 da d2 ae 3c d1 53 02 3d e5 ae 47 bc 34 87 ab 3d
       0.021340776 0.031818215 -0.012187694 0.08375397
000220 89 86 33 3d 06 a7 f7 3d 42 59 a0 3d ee a0 a7 3d
       0.043829475 0.12092404 0.078295246 0.08184992
000230 95 2e 41 3e f3 d6 16 3e b2 94 01 3e df 9e 18 3e
       0.18865426 0.14730434 0.12654379 0.14904355
000240 95 d1 1b 3e db 57 c2 bc 6c ed 5a bd 44 8b 98 bd
       0.15216668 -0.023723533 -0.05344908 -0.07448438
000250 79 f7 9b bd d0 cb b6 bc ad eb 0a 3d b6 74 c8 3d
       -0.07615561 -0.022313982 0.033916164 0.09787886
000260 cf fc 80 3d 5e 83 58 3b 1a 81 5c 3d b9 95 11 3d
       0.062982194 0.0033037285 0.05383406 0.035543177
000270 c5 63 3f 3d 2d b2 09 3e 09 5f 9d 3d e4 24 65 3d
       0.046726007 0.13446875 0.07684142 0.055943385
000280 c5 d7 be 3c bd f6 1c 3d 76 4d 42 3d 6e 40 f0 bb
       0.023296246 0.038321245 0.047437154 -0.0073318994
000290 0d 46 58 3d bb b5 75 bd 9b 2b 18 bd 41 29 80 bc
       0.05280118 -0.059987765 -0.03715096 -0.015644671
0002a0 71 d6 13 bc c2 ed 09 bd 9a 0d 37 bd 7d ba 92 3c
       -0.009023295 -0.03367401 -0.044690706 0.01791119
0002b0 64 95 78 3d 99 54 16 bc 62 38 dc 3c 4c 19 35 bc
       0.060689345 -0.009175443 0.026882354 -0.0110533945
0002c0 dc cb e7 3d 4d 64 ab 3d a8 78 9e 3d 40 45 da 3c
       0.1131818 0.0836874 0.07737857 0.02664435
0002d0 b5 11 38 3e da 01 78 3e 39 13 d9 3d 9c c5 f3 3d
       0.17975505 0.24219456 0.105993696 0.11902925
0002e0 d4 ac d4 3d 96 e0 57 3e 97 01 72 3e 0a 25 cd 3d
       0.10384527 0.21081766 0.23633419 0.1001683
0002f0 d9 15 2d 3e bf 3a 66 3e b5 04 0e 3e 9e 71 b5 3d
       0.16902865 0.22483347 0.13868983 0.088595614
000300 0b 63 27 3e b8 e4 aa 3d d6 89 0b 3e 50 37 d2 3b
       0.16346376 0.08344406 0.13626799 0.006415285
000310 6e 87 40 bd 71 16 c2 bb 01 ad 3b bd 2e a8 0a bc
       -0.047004156 -0.0059230854 -0.045819286 -0.008462949
000320 0b d2 e8 bb 0f 98 28 3d a8 7b 48 3c 84 0f 61 3d
       -0.007105117 0.04116064 0.012236513 0.054946437
000330 70 38 95 3c 09 2d c6 3d 59 c2 af 3d 1d 98 f7 3c
       0.018215388 0.096765585 0.08581991 0.0302239
000340 fb 2a 83 3d b6 4e a3 bb 89 10 9d bd 2a 3b 8b bc
       0.06404682 -0.0049837483 -0.076691695 -0.016995985
000350 66 22 9c 3d 17 79 48 bd 02 65 8d 3c f8 c5 b4 bd
       0.076237485 -0.048943605 0.017260078 -0.08826822
000360 b5 6e 8f bd 20 9c 92 bd ff cb f5 bd 8d b5 90 bd
       -0.070035376 -0.07158685 -0.120018 -0.07065878
000370 23 93 97 bd da ff 6e bd eb 9b 16 be 59 f1 a3 bd
       -0.07401111 -0.058349468 -0.14707915 -0.08005018
000380 e2 e5 9a bd 5d 3c d9 3b 4d 1b 5d 3d 5b 81 ed 3c
       -0.07563378 0.0066295103 0.053981114 0.028992346
000390 58 4b 20 3b 6d bc 8e 3c 31 c7 be 3d 02 3a c9 bb
       0.002445897 0.017423833 0.093153365 -0.0061409483
0003a0 de f5 9a 3d 0f 21 ba 3c ac ef 72 bc 1f c0 c1 3d
       0.07566427 0.022720842 -0.01482765 0.09460472
0003b0 c4 c3 a2 3d 5c 37 d3 3d ee a9 81 3d 9c 23 09 3e
       0.079474956 0.10313293 0.0633124 0.1339249
0003c0 43 a1 23 3d 2c de 84 3d b5 1d bf ba 0d bd c5 3d
       0.039948713 0.064876884 -0.0014580997 0.09655199
0003d0 bd 34 68 3d 04 da 99 bd ce d1 6d bc 1f b5 56 bd
       0.05669092 -0.07512286 -0.014515353 -0.052418824
0003e0 66 e4 10 3c 62 ef 19 bd c0 0c f8 3d 1d d3 1b 3e
       0.008843517 -0.03758181 0.12111807 0.15217252
0003f0 c8 0e 2c 3e d4 e6 22 3e 96 62 0a 3e 00 17 02 3e
       0.16802514 0.15908366 0.1351417 0.12704086

conv2.bias f4 [32]
000000 10 80 3a bd 12 da c7 bd 99 dc ce 3b 74 32 08 3d
       -0.045532286 -0.097583905 0.0063129184 0.03325124
000010 e0 d9 28 bc 47 75 13 bd 75 46 c2 bc bc 5c 1b 3c
       -0.010305852 -0.036000516 -0.023715237 0.009482559
000020 76 68 2c 3d cf 0a 2a 3d eb b4 2f bd f1 fc be bb
       0.04209181 0.041514214 -0.042897146 -0.005828493
000030 63 de 20 bd 4a 44 ac 3c cf 56 02 3c d9 ed c6 3c
       -0.039274585 0.021028657 0.007955267 0.024283336
000040 2a 0a 19 3d 2e 51 57 bc da 59 1f 3d 51 a5 f0 bc
       0.03736321 -0.013141913 0.03890405 -0.029375704
000050 c5 5d 30 bd a7 4a 99 bd 7b 7e 9f 3a a6 56 46 bb
       -0.043058176 -0.07484942 0.0012168431 -0.003026405
000060 0a 64 19 bd 12 8c 5e 3d e1 4a 2a bd 64 da 1d 3d
       -0.03744892 0.0543328 -0.041575316 0.03853835
000070 5a a1 eb 3c 94 a8 49 3c d4 66 85 bc 92 02 f8 3c
       0.028763462 0.012308259 -0.016284384 0.030274663

bn2.weight f4 [32]
000000 8a 01 7b bb 9d df 05 40 9b 40 b9 3d a0 f2 c0 3c
       -0.0038300478 2.0917733 0.09045526 0.023553193
000010 73 75 a2 3f 0d 56 c5 3a 14 de a0 3c af 83 1d 3e
       1.2692093 0.0015055552 0.019637145 0.15382265
000020 8f 6b 75 3f 10 1a 3c b9 1b 14 0a 3d 9b 4c 9f 3d
       0.95867246 -0.00017938786 0.03371058 0.07778283
000030 3d f2 00 3d c7 1c 1b 3e 27 79 b1 3c 4c f4 4a 40
       0.031481016 0.15147696 0.021664215 3.1711607
000040 40 1b d7 3c b3 c5 50 3d 58 90 9c 3f 21 b1 da 3d
       0.026258111 0.05096979 1.223155 0.10678316
000050 43 d7 c1 3d bc 62 18 40 7d f7 38 3d a8 ec 9e 3d
       0.09464886 2.3810263 0.0451579 0.07759982
000060 07 c1 b7 3d 41 1b a7 3f b4 e4 71 3c e8 fe b2 3c
       0.08972364 1.3055192 0.014764 0.021850064
000070 df 49 fa 3b 3c 31 d1 3c 13 7e 4e 3e e8 5a 14 40
       0.0076382007 0.025536172 0.20165281 2.3180485

bn2.bias f4 [32]
000000 36 4c 1f be 02 32 23 3f 9d 67 1a bf 30 45 14 bf
       -0.15556416 0.6374818 -0.6031435 -0.5791807
000010 6d 61 b1 3f 19 8f 2b bd d5 2b b6 be b9 eb 23 bf
       1.3857857 -0.041884515 -0.35580316 -0.6403156
000020 15 12 54 bf 07 4f 5e bc 5e c6 4b bf 74 c1 30 bf
       -0.8284009 -0.013568646 -0.7959956 -0.69045186
000030 68 4a 38 be f8 c2 05 bf 32 d1 bd be 20 5a c7 3f
       -0.17997134 -0.52250624 -0.37073666 1.5574379
000040 a2 07 20 be ed 22 38 bf 74 a4 5d bf 44 52 c2 be
       -0.15627912 -0.7192829 -0.8657906 -0.3795339
000050 f2 27 d9 be 35 68 f9 bc af 08 1d bf f1 f9 25 bf
       -0.42413288 -0.030445198 -0.61341375 -0.64834505
000060 f5 8d 06 bf 95 e4 38 3e a4 76 f4 bd 38 b0 b0 be
       -0.5256036 0.18055947 -0.119366914 -0.34509444
000070 99 4b e2 bd ee 13 c3 be 8d 47 4d bf 4d c4 d9 3f
       -0.11049575 -0.38101143 -0.801873 1.7013031

bn2.running_mean f4 [32]
000000 40 9c 81 3f 1f cf 88 40 e5 76 98 c0 11 73 11 40
       1.0125809 4.2752833 -4.7645135 2.272648
000010 be 0c 66 c1 63 c8 d5 3e 0f ab 5d 3f 78 7b f1 c0
       -14.378111 0.41754445 0.8658914 -7.546322
000020 f2 0f d8 40 76 c2 a3 be 85 6f 0c 3f 15 3b 8b 41
       6.7519464 -0.319843 0.54857665 17.403849
000030 d8 b0 cb c0 45 23 9e c1 a8 5a 80 41 bf cb 39 40
       -6.3653374 -19.767221 16.044266 2.9030607
000040 17 4b 5d c1 62 f0 a4 3f 2a 9a 94 c0 5c f5 ea 40
       -13.8308325 1.2885859 -4.643819 7.342451
000050 e5 1c 64 c1 4e d7 78 c1 1a 5c 58 41 da be 41 3f
       -14.257054 -15.552565 13.522486 0.7568184
000060 e3 07 aa c0 c9 5f ce 41 4c 1e c5 3e 86 63 e2 40
       -5.3134627 25.79677 0.38499677 7.074649
000070 3f 6d cd 3f 7e f4 70 40 68 75 a0 c1 47 01 14 c1
       1.6048964 3.7649226 -20.057327 -9.250312

bn2.running_var f4 [32]
000000 81 0e fa 3e f7 1f 33 42 6d da 7f 40 95 18 5e 42
       0.4883919 44.781216 3.9977067 55.524006
000010 0d f4 8d 41 18 96 0f 3e 70 80 29 40 e6 3d 02 40
       17.744165 0.140221 2.6484642 2.035028
000020 f3 41 d5 42 e2 19 4e 3b 59 6e cc 42 64 77 b8 42
       106.62881 0.0031448533 102.21552 92.233185
000030 91 56 cb 3f ec 37 d4 42 d5 c1 35 41 a1 b8 23 42
       1.5885793 106.10922 11.359822 40.9303
000040 43 aa b7 40 4b 8b 13 41 db 8e 8b 41 47 fa 6d 42
       5.739534 9.221507 17.444754 59.49441
000050 29 f9 86 40 4e 27 19 42 04 ac 69 40 9a fa 3c 3f
       4.217915 38.288383 3.651124 0.7381989
000060 41 4c 5e 3f 2f 8a 61 42 b2 ff eb 3e e6 0d 5c 41
       0.86835104 56.384945 0.46093518 13.753393
000070 ad 0b 0d 40 1d 85 51 40 ba fc 86 42 66 d8 f5 40
       2.2038376 3.2737496 67.49361 7.682666

conv3.weight f4 [32, 32, 5, 5]
000000 f0 1e c8 3a 84 cc 03 bb 25 46 13 bc 4a e5 2e 3c
       0.0015268009 -0.0020110914 -0.008988892 0.010674784
000010 33 87 4b bc 1d 01 83 bd c4 60 82 bd b4 62 65 bd
       -0.012422371 -0.06396697 -0.06366113 -0.056002334
000020 48 e7 ef bb dc 56 4d bc 6a 94 5c bd 86 60 cb bc
       -0.007321272 -0.012532916 -0.053852476 -0.0248263
000030 d9 dc 03 bd 7d 15 4a bd 44 db 10 bc 51 4b 12 bd
       -0.03219304 -0.0493369 -0.0088413395 -0.03571636
000040 6a 27 ce bc 93 4f 27 3c a2 10 ba bc 65 82 1c bd
       -0.025165278 0.010211843 -0.02271301 -0.03821029
000050 70 b0 2e bd 1d 8f 02 bd 2d c6 ce bc 2b 42 2a bc
       -0.042648733 -0.031874765 -0.025240982 -0.010391752
000060 be 1f 38 bd 3a ff e6 be 83 b3 04 bf 6e 0c 07 bf
       -0.044952147 -0.45116597 -0.51836413 -0.5275334
000070 28 f9 f9 be 52 27 01 bf 01 68 72 be 07 71 01 be
       -0.48822904 -0.50450623 -0.23672487 -0.12640773
000080 21 76 02 be ac 2d ad 3e 4b ff e5 bc 70 93 a8 be
       -0.12740375 0.33823907 -0.028075835 -0.32924986
000090 40 e0 df be 47 75 b2 be f5 a2 bf be 4c bc 31 bf
       -0.43725777 -0.348551 -0.37429014 -0.69427943
0000a0 71 85 db be 31 74 f8 be 1a 37 60 3b ca 45 3b be
       -0.42875245 -0.48526147 0.003421253 -0.18288341
0000b0 e9 32 ac bc 17 ca 0d 3f 54 38 f8 bd e8 f2 e4 be
       -0.02102037 0.5538649 -0.12120119 -0.44716573
0000c0 4c 8c bf be 8d 6b 8c be 00 0b 9e bd c0 fc 91 bd
       -0.37411726 -0.27425805 -0.07716942 -0.07128286
0000d0 8f af be bd b6 04 6e bd 01 aa 82 bc b1 17 ab bd
       -0.09310829 -0.05810996 -0.015950205 -0.08354128
0000e0 94 d3 f7 bd b4 6b ea bd 54 9f c3 bd d3 64 ba bd
       -0.12100902 -0.11446324 -0.09551874 -0.09101262
0000f0 89 66 b1 bd a4 15 81 bd e6 87 87 bd 10 75 13 bd
       -0.08662135 -0.06302956 -0.066177174 -0.03600031
000100 38 c8 96 bd 65 7d ae bc b7 92 73 3b e7 b2 a4 3c
       -0.073624074 -0.021300027 0.0037166306 0.020104839
000110 af 72 df bc 16 92 c9 bb b2 8a 28 3d 6a 87 e0 3c
       -0.027276365 -0.006151448 0.041147895 0.02740832
000120 39 c8 50 3c 1e 1b f7 3b 13 8c 35 3c e0 43 03 be
       0.012743049 0.0075410744 0.01108076 -0.12818861
000130 56 69 c3 bd 1a 0a ac bd 33 fd 09 be cf c4 ef bd
       -0.095415756 -0.08400364 -0.13475494 -0.1170746
000140 d6 b1 1e be ac 4f 1f be 98 4b 03 be b1 e5 17 be
       -0.15497527 -0.15557736 -0.12821805 -0.14833714
000150 d0 6a fc bd 5f 65 1e be 23 a1 46 be 59 fc 0a be
       -0.1232506 -0.15468358 -0.19397406 -0.13572825
000160 57 82 24 be a3 d6 42 be 66 24 1e bd ce 60 72 bc
       -0.16065346 -0.1902719 -0.03860893 -0.014793588
000170 78 0d 54 bd af 00 8e bc 8e ba b7 bc 3a 46 53 bd
       -0.051770657 -0.01733431 -0.022427823 -0.051580645
000180 38 f8 89 bb 98 8a 4d bd 1f 63 a1 bb 62 99 00 bc
       -0.004210498 -0.050181 -0.0049251462 -0.007849069
000190 72 6e 8a 3e 5d 53 a6 3e 83 22 8a 3e 6d 7e 7a 3e
       0.27037388 0.32485476 0.26979455 0.2446229
0001a0 75 4a 49 3e 86 44 24 bf 8a a6 a7 be 43 9c c2 be
       0.1965731 -0.6416706 -0.32744247 -0.38009843
0001b0 d5 08 eb be 8c af 0c bf fb 9a 99 bd 2f 25 4e be
       -0.45905176 -0.54955363 -0.07500263 -0.20131372
0001c0 64 68 ea bd f9 8f 12 be fd ad 94 be 87 69 15 3e
       -0.11445692 -0.14312734 -0.29038993 0.14591037
0001d0 1d 40 39 3e e1 5b b3 be 04 8d f5 be 0f e2 56 3e
       0.18090864 -0.35031036 -0.4795915 0.20984672
0001e0 bf db 6d be 8e 4f ec be df 0c 12 bf 28 49 5a bf
       -0.23228358 -0.46154445 -0.5705089 -0.8526788
0001f0 3a 4a 16 bf f0 b2 ea 3b 67 b6 89 3c 2c ed c2 bc
       -0.5870701 0.0071624443 0.016810609 -0.023794733
000200 ff 00 38 bc 00 42 00 3d d4 24 c8 3b 4b 59 98 3c
       -0.011230706 0.031312943 0.006107906 0.018597266
000210 5d 9b f2 bc 68 59 e2 bc 43 b6 9d bc 62 74 a6 3c
       -0.029615099 -0.027630523 -0.019251948 0.020319168
000220 c9 b2 b9 3c 6b fc 66 3c 87 f0 a8 3b 3e b7 64 bc
       0.02266826 0.014098267 0.005155626 -0.013959704
000230 0d 29 bc 3c 6a 4b f8 3c 15 74 ee bb 4e 5e 2f 3d
       0.022968793 0.030309398 -0.0072770217 0.042814545
000240 8e ea 14 3b fa 68 e0 3b b0 51 11 3d 4a d3 ea 3c
       0.0022722813 0.0068484517 0.035478294 0.028665204
000250 7a fd e0 3c 35 b9 f6 3c bd 17 58 3c 63 e1 b7 bc
       0.027464617 0.03011761 0.013189253 -0.02244634
000260 1c 9b 70 3d a5 2d b7 3b 5d 6c 9f 3c 02 a7 1b bd
       0.058741674 0.005590158 0.019460851 -0.038001068
000270 d4 23 59 bc 6a ff a8 3b 08 c1 0c bd f0 73 98 bb
       -0.013253171 0.005157401 -0.034363776 -0.0046524927
000280 fb b6 12 bd f5 66 af bc 02 03 fc bc c3 06 43 bd
       -0.035819035 -0.021411398 -0.030763153 -0.04761387
000290 61 f5 35 bd 66 bc d1 bc 24 87 b6 3b cb 23 15 bd
       -0.044423465 -0.02560253 0.0055703092 -0.036411088
0002a0 1e e2 80 bc 29 5c 6a bc ab 11 96 bb 78 96 ca bc
       -0.015732821 -0.014304199 -0.004579743 -0.024729952
0002b0 c1 32 ae bc 29 54 19 bd cc b3 df bb e7 7b 32 bd
       -0.021264436 -0.037433777 -0.0068268534 -0.043575194
0002c0 d0 90 8a bd 48 92 84 bc cc a2 59 bd dd 6a 2c 3c
       -0.06765902 -0.016183034 -0.05313377 0.010523525
0002d0 8c 73 0d be bb a9 1c be be 17 18 be c2 41 d1 bd
       -0.13813609 -0.15299122 -0.14852807 -0.102176204
0002e0 85 06 12 be 2c 60 aa bd 60 7e a3 bd d6 4e ca bd
       -0.142603 -0.083191246 -0.079830885 -0.09878318
0002f0 ba d5 af bd 90 5b 01 be 34 36 95 bd 22 29 21 bd
       -0.08585687 -0.12632585 -0.07285729 -0.039345868
000300 c0 f9 89 bd b0 bf 93 bd db d0 19 bd b5 c5 30 bd
       -0.06737089 -0.07214296 -0.037552696 -0.043157298
000310 32 a0 9d bc 7f 0e 11 3c d2 60 2a 3b 79 d4 c4 bb
       -0.019241426 0.008853554 0.002599765 -0.006006774
000320 62 78 cb 3d fb 15 06 be a2 36 56 be c2 5d cb bd
       0.099350706 -0.13094322 -0.20919278 -0.09929992
000330 06 89 54 bd bb 55 81 3e b9 a1 e6 be 5c eb 51 be
       -0.05188849 0.2526072 -0.4504526 -0.20499939
000340 40 bc fe bd a3 75 e6 3b e6 c5 4a 3e 51 a1 2c 3e
       -0.124382496 0.0070330664 0.19802055 0.16858412
000350 a0 06 53 3e 0c 4d 9e 3e 10 c2 7b be 2c b9 04 bf
       0.20607996 0.30918157 -0.24585748 -0.5184505
000360 af 4f 62 3c 0b c8 10 3f 48 56 d1 3d 64 8a b1 be
       0.013812943 0.5655524 0.10221535 -0.34675896
000370 f4 16 30 be 66 d3 19 be 80 7c 4d 3e e9 a8 c9 bd
       -0.17196256 -0.15022048 0.20067024 -0.0984667
000380 7b 53 d9 be ed 66 13 bd 66 d1 16 3c 82 82 6e bc
       -0.42446503 -0.03598683 0.009205198 -0.014557483
000390 31 94 89 3b 1b 15 45 bb 05 47 85 3c d1 2c 2e bd
       0.004198574 -0.0030072394 0.016269216 -0.04252321
0003a0 ad f3 9b 3c 19 f6 66 3c 82 e5 97 3c b3 15 b4 3b
       0.019037092 0.01409676 0.018542055 0.005495751
0003b0 88 0d 5f 3c 1a d6 57 3c 75 e4 77 3b 70 21 87 bb
       0.013614066 0.013173604 0.003782538 -0.004123859
0003c0 3b a4 12 bd f7 90 78 3c ee 45 ff bb 9b 01 b2 ba
       -0.035801154 0.015171281 -0.0077903187 -0.0013580801
0003d0 74 74 aa bc 29 86 d3 bc bd 3b ae bb 4d d0 9b bc
       -0.020807482 -0.025820808 -0.00531718 -0.019020224
0003e0 0b 78 ce bc 6e 57 1a bd a0 1c f8 bd 1b 7e 59 bd
       -0.025203725 -0.037681036 -0.12114835 -0.05309878
0003f0 83 4c e7 bd 69 35 07 bd 03 91 b6 bd 1d 01 f4 bd
       -0.1129389 -0.03300992 -0.089143775 -0.11914275

conv3.bias f4 [32]
000000 02 5f 08 bd 09 d6 b4 bc e7 55 f6 3c 89 4a 83 3b
       -0.03329373 -0.022074716 0.030070258 0.004006688
000010 42 36 4e 3d 6e e0 b2 3c d3 3a e3 3c 47 18 1a 3c
       0.050344713 0.021835532 0.02773801 0.009405202
000020 b7 5b 95 bc 8d 61 79 bb 23 fa 44 bc 8e d7 0f 3c
       -0.01823221 -0.003805253 -0.012022528 0.00877942
000030 79 92 94 3c 5f 98 1a 3c ce c6 ce bc 49 52 04 bd
       0.01813625 0.009435742 -0.025241282 -0.032305036
000040 ae 91 50 ba c7 7e dc 3c a2 8b c7 bb a8 5b 04 bc
       -0.0007956278 0.02691592 -0.0060896436 -0.008078493
000050 e9 72 8e 3b e9 04 89 3b 5d fd 0d bc be c5 a6 bb
       0.0043471945 0.0041814935 -0.008666364 -0.0050894907
000060 e5 80 62 3b 94 1c 21 3c 9d ba b4 bb c9 6d 9f 3c
       0.003456169 0.009833474 -0.00551541 0.01946153
000070 74 87 56 b9 1d 46 d4 bb 54 62 53 3c e2 b3 d1 bb
       -0.0002045909 -0.0064780847 0.012901861 -0.0063996175

bn3.weight f4 [32]
000000 8f cb b8 3d 31 7a 5d 3d 92 1d 7f 3e f3 67 01 3c
       0.09023201 0.05407161 0.24913624 0.007898319
000010 2e 66 25 3f 39 c5 8c 3b df cb ad 3e 5b 1e 3c 3e
       0.6460904 0.0042959717 0.33944604 0.18370955
000020 26 52 86 3d a7 43 67 3e 46 63 0d 3c 3d 98 50 3d
       0.06558637 0.22584401 0.008629626 0.050926436
000030 d3 65 2b bc f5 63 88 3e 6c 4c aa 3e 76 12 f0 3d
       -0.0104612885 0.2663876 0.3326143 0.11722271
000040 9e 3d 44 3e 62 7d c0 bb 12 c3 4e b9 6c c1 55 3e
       0.1916413 -0.005874322 -0.0001971836 0.20874566
000050 b2 95 bb 3d 6e db 4d 3d 3d 55 63 bc 7f b3 c2 3d
       0.091594115 0.050258093 -0.013875303 0.095068924
000060 26 79 89 3e 08 62 83 3d e1 b0 b8 3d 3a 75 d3 3d
       0.2685024 0.06415182 0.09018112 0.103250936
000070 02 77 43 3e ce 87 08 3e a0 09 95 ba 14 71 c8 3c
       0.19088367 0.13333055 -0.0011370666 0.024467982

bn3.bias f4 [32]
000000 aa 34 26 bf 8a 15 d7 be 99 a3 2e bf 30 5f a5 bd
       -0.6492411 -0.4200862 -0.6821838 -0.08074796
000010 7b 4f 30 bf 14 48 7e be 82 49 0f bf 43 d5 c7 be
       -0.6887128 -0.24832183 -0.5597154 -0.39029893
000020 15 68 96 be 58 43 2a bf 4b 3b ff bd 66 03 9d be
       -0.29376283 -0.6650901 -0.12462481 -0.30666655
000030 2b 85 1d be 41 d8 02 bf 67 40 14 bf 5f f0 7a be
       -0.15382831 -0.5111123 -0.5791077 -0.24505757
000040 19 e1 24 bf bd 89 8c bd 68 e8 3b be 0e a1 29 bf
       -0.6440597 -0.06862209 -0.18350375 -0.66261375
000050 e7 ce f6 be 41 ad 5f be a3 c1 48 be 80 ae 0b bf
       -0.4820473 -0.21843435 -0.19605117 -0.5456314
000060 bd 83 24 bf cf 4e c2 be 92 76 1a bf 7c 96 f1 be
       -0.64263517 -0.3795075 -0.60337174 -0.47185123
000070 64 c2 38 bf c7 a2 72 bf 0e f5 9b bd d3 89 63 be
       -0.72171617 -0.9477963 -0.076151 -0.22220545

bn3.running_mean f4 [32]
000000 00 c9 9f c1 28 45 1a 40 7c f5 09 c1 de 3b 88 40
       -19.973145 2.410471 -8.622433 4.257308
000010 b0 2d 2a 42 34 98 57 3f e9 43 8e bf 9a 01 a3 c0
       42.544617 0.8421662 -1.1114475 -5.0939455
000020 4d b8 1b c1 a0 b7 20 c1 6d 6b 1e c0 49 fa 59 41
       -9.732495 -10.04483 -2.4753067 13.623605
000030 f0 32 17 c0 46 c3 70 c0 ba 07 b5 c0 90 50 9d bb
       -2.362484 -3.7619185 -5.657193 -0.0048008636
000040 a7 d4 10 42 fb a7 da be d5 aa 58 40 79 ec e4 bf
       36.20767 -0.42706284 3.3854268 -1.7884666
000050 3a f1 c6 3f f4 15 ac bd 5e 6c 07 be dc a8 84 40
       1.5542367 -0.08402625 -0.13224933 4.1456127
000060 99 39 b8 c0 6d 5e 58 c0 17 5d 84 c0 59 78 e1 c0
       -5.757031 -3.3807633 -4.1363635 -7.045941
000070 82 7e b3 3d 85 aa 01 41 2c a3 81 c0 db dd 67 c0
       0.08764364 8.104131 -4.0511684 -3.622916

bn3.running_var f4 [32]
000000 f1 bd 06 43 15 ef 41 40 d5 c5 5b 42 9c c1 df 40
       134.74196 3.0302174 54.943195 6.992384
000010 ae 16 dc 44 a9 6c b7 41 8d ec e5 42 b9 10 d7 41
       1760.7087 22.928057 114.96201 26.883165
000020 96 15 84 42 08 85 1b 42 57 13 8d 41 95 d0 d3 42
       66.04216 38.879913 17.634443 105.90739
000030 5d 6f 95 3f bb 9c bc 41 66 4e 82 41 0e d6 5c 40
       1.167461 23.576529 16.28828 3.4505649
000040 74 e5 e4 44 40 13 9e 3e c3 04 05 41 b6 f3 4f 41
       1831.1704 0.30874062 8.313663 12.997
000050 8e 92 ad 41 b6 44 01 41 58 70 a5 3f 49 99 ae 42
       21.69656 8.079275 1.292491 87.299385
000060 74 03 75 42 8c 19 05 42 a1 87 85 42 d9 0c 81 42
       61.253372 33.27495 66.7649 64.52509
000070 d0 44 4f 41 7c 81 d8 43 50 ac 83 3f 7a 8a c0 3f
       12.9543 433.0116 1.0286961 1.504226

head.weight f4 [4, 800]
000000 07 ba 00 3d 58 c2 7e 3e 66 c1 e0 3c 40 7f 08 3f
       0.03142741 0.24878824 0.02743597 0.5331917
000010 f8 80 bb bd 2c 8a 09 bc 68 b8 05 3b 04 a3 27 3e
       -0.09155458 -0.008394759 0.0020404104 0.1637078
000020 d3 12 fd 3d 2b 18 dd bd 29 b7 2e bd b2 90 f1 bc
       0.12357106 -0.10795625 -0.042655144 -0.029487941
000030 f9 f0 28 bd ae 83 50 bd 2a 21 6b bd 29 ad a9 bd
       -0.041245434 -0.05090683 -0.057404675 -0.08284981
000040 0f a2 80 bd e2 b5 3e bc 2c e0 35 be df 03 8c bd
       -0.0628091 -0.011640044 -0.17761296 -0.06836676
000050 0c 3b c8 bd 05 ab 66 bd 93 ad db bc 18 d3 90 3d
       -0.09776887 -0.05631544 -0.026816165 0.07071513
000060 0e 2c 7a bd f6 3f 81 3b 5e 4a 9c 3c 31 1e 12 3d
       -0.06107717 0.0039443923 0.01907843 0.035673324
000070 80 f5 ee bc 9a 72 c9 bc 3a 37 74 39 de 9f d9 bb
       -0.029169798 -0.02459078 0.00023290227 -0.006641372
000080 80 e3 37 bc 7d 25 23 3c 4b 65 33 bc 17 56 3b bd
       -0.011223674 0.009957668 -0.010949443 -0.0457364
000090 44 d3 fe bc e3 4f 4b bd f4 61 0c bc 77 b4 6d bb
       -0.031106599 -0.049636733 -0.008568276 -0.0036270896
0000a0 8b ea 0e bd 06 64 20 3c 6c fc 03 bd 39 5e 18 bd
       -0.034891646 0.009789472 -0.03222315 -0.037199233
0000b0 b8 c1 df bc 0f 75 16 3b 7d 2d 19 3b eb 35 98 3b
       -0.027314052 0.0022957956 0.002337306 0.0046450994
0000c0 37 1c 94 bc c4 08 05 bd 85 4b cd 3c 50 1b 73 bc
       -0.01807986 -0.032479063 0.025060425 -0.014838055
0000d0 f4 53 73 bc b4 15 24 bc c2 b3 de ba 98 77 c1 3c
       -0.014851559 -0.01001494 -0.0016990828 0.023616597
0000e0 84 6f 08 3c 8f a0 32 3d 43 52 89 3c 40 3e 75 3d
       0.008327369 0.04361015 0.016762858 0.05987382
0000f0 69 a7 4e bd 5a 26 bd bd 12 11 04 be d6 f7 1e bd
       -0.050452624 -0.092358306 -0.12897137 -0.038810574
000100 52 d4 f1 bd 9e 81 65 bd 71 ae 89 3d 10 54 41 bc
       -0.11808075 -0.056031816 0.06722725 -0.011799827
000110 d8 e5 3a 3d 70 05 e5 3c c5 f4 14 3d d4 1e 58 3b
       0.045629352 0.027956694 0.036366243 0.003297736
000120 fa 3c 4d 3b 70 df 9f 3c 50 16 f7 bc 90 23 ed bc
       0.0031316862 0.019515723 -0.030162007 -0.028947622
000130 0c 04 c8 bc 7e 6a 3a bd ab b2 d2 bc 75 83 bd bc
       -0.024415992 -0.045511715 -0.025719961 -0.023133973
000140 14 e4 07 bc e6 e2 34 bd 63 0f b4 bc 43 51 6f bd
       -0.008294124 -0.0441617 -0.021979993 -0.058427107
000150 b7 d2 3c bc 8a ce 29 bd d6 0d a9 bd dd 9b 35 bd
       -0.011524848 -0.041456737 -0.08254592 -0.044338096
000160 dd b5 8e bd 6e 28 58 bd 7d 4a 3f bd 37 13 32 bd
       -0.069682814 -0.05277293 -0.046701897 -0.043475356
000170 9b 2b 8b bd a7 19 cb bd d3 78 2f bd d5 e9 97 bd
       -0.067954265 -0.09917002 -0.042839836 -0.07417647
000180 97 2e 9c bd 22 6c 98 bd b3 24 8a bd 21 fe 40 bd
       -0.07626074 -0.074425 -0.06745281 -0.047117356
000190 fa e5 ac 3b db 85 91 3e a4 d1 42 bf 33 ed 20 3f
       0.005276439 0.28422436 -0.76101136 0.6286194
0001a0 54 38 0b be 6e b3 1f be 8b 60 68 be d8 68 10 bb
       -0.13595706 -0.1559579 -0.22693078 -0.0022035148
0001b0 59 5b 2b bd e4 a5 0d 3d ab 95 27 3f b5 16 1e bf
       -0.041835163 0.034582034 0.6546275 -0.617534
0001c0 94 01 c3 be 11 25 b0 be 56 62 38 bf 4b a5 e4 3d
       -0.38087142 -0.3440328 -0.7202505 0.1116434
0001d0 4a 9f 0d be ad 01 09 be 4a 27 c7 3c bd 40 0b 3d
       -0.13830295 -0.13379546 0.024310727 0.033997286
0001e0 64 fe ba bd 00 10 a5 3c b2 38 33 be 8a 66 00 be
       -0.091305524 0.020149231 -0.17502096 -0.12539116
0001f0 82 36 7c 3d 53 9c 3d bb 77 68 f8 bc fc 62 ae bc
       0.06157542 -0.0028932288 -0.03032325 -0.021287434
000200 fb 2a 9d bd 3b 88 0f bd a6 bd c7 bb 0b 93 c2 bd
       -0.076742135 -0.03504203 -0.006095606 -0.095007025
000210 6a 40 5a bd c0 35 48 bc b4 6b b2 bc e5 15 aa 3c
       -0.053284086 -0.012219846 -0.021779872 0.020762393
000220 c3 56 87 bc cd e6 bc bc 27 cc 9a 3c e3 5f 25 bd
       -0.016520863 -0.023059273 0.018896176 -0.040374648
000230 44 76 b4 bc 14 2e 8b 3c 89 9c 81 3c 13 ab 1a 3c
       -0.02202905 0.016989745 0.015821712 0.009440201
000240 8d 89 3a 3c 4e c5 17 bc 11 9d a4 bc 87 35 30 3d
       0.011385334 -0.00926335 -0.020094426 0.043019798
000250 13 ea 9e bc 37 49 04 3c 88 06 7d 3c 79 6c 0b 3b
       -0.019398725 0.008074096 0.015443452 0.0021274372
000260 b6 be fb 3b fa 03 a3 bc af 4b 19 bc db 64 0c bd
       0.0076826466 -0.019899357 -0.009356423 -0.03427587
000270 99 fa 0f bd 7f 14 29 3b c3 8f 79 bd 96 ce 09 3b
       -0.035151098 0.002579957 -0.060928117 0.0021027676
000280 7a 5f 7e bd e7 2a c2 bd 6c 42 dc bd 88 8b 3a 3c
       -0.062102772 -0.09480839 -0.107548565 0.011385806
000290 75 c2 dd bc c7 07 91 bd 58 96 01 bd 98 ba b2 bc
       -0.027070263 -0.070815615 -0.03163752 -0.02181749
0002a0 a5 ed b9 bc e5 d1 04 bc 25 b4 31 bd dc b8 5b bd
       -0.022696326 -0.008106683 -0.04338469 -0.053643093
0002b0 d3 41 e5 3c 60 a7 a2 bc fe 5f 59 3c ef 7e c5 3c
       0.027985489 -0.019855201 0.013267515 0.024108378
0002c0 3f 55 0f bd 6d c0 81 3c b7 5c 1c 3c 48 03 c0 ba
       -0.034993406 0.015838826 0.009543589 -0.0014649415
0002d0 0e aa 24 bc da 53 94 3c 2a 51 63 3d 31 4b 0d 3c
       -0.01005031 0.01810639 0.055497326 0.008623884
0002e0 1f 9f 70 3d b9 0b 04 bd b4 f2 e8 bb 85 88 50 bd
       0.0587455 -0.032237742 -0.0071090106 -0.050911445
0002f0 e4 94 b6 38 c4 e2 d3 3b 68 26 d8 bb bf a9 81 bd
       8.706169e-05 0.0064662416 -0.0065963753 -0.063312046
000300 0a 16 16 bd 42 43 bd bc 30 ab a4 3c 4e 61 b0 3c
       -0.03664211 -0.02310336 0.02010116 0.021530773
000310 dc 9e f4 bc c5 c3 21 bd 9b a5 d5 ba 3a fb 82 3c
       -0.029860906 -0.03949334 -0.0016299965 0.015988935
000320 32 42 a0 3c 60 e5 3b bd 35 2c 13 be 59 45 5a bd
       0.019562814 -0.045873046 -0.14372332 -0.05328879
000330 cd 2e 8b 3d a0 f0 6e 3c d4 6d 6d bd 22 42 00 bd
       0.06796036 0.014583737 -0.05796607 -0.03131307
000340 1b ff 08 ba ca d8 58 bd 9f 40 14 3e 90 81 cf bd
       -0.0005226002 -0.05294112 0.14477776 -0.10132134
000350 39 21 a6 3b 83 00 28 3e 7a 93 61 3e e1 1c cb bc
       0.0050698784 0.16406445 0.22028914 -0.024794044
000360 13 89 0f 3b 36 1b 56 bd 38 60 04 be 1e c8 7c bb
       0.002190177 -0.052272044 -0.1292733 -0.0038571428
000370 88 7d e4 39 c5 50 a8 bd e6 12 a3 3b 78 98 58 bc
       0.00043581077 -0.082185306 0.004976618 -0.013219945
000380 b3 d7 88 bb 53 0c 5f bd 0b 63 03 be ea 3b 12 be
       -0.004176104 -0.054455113 -0.1283075 -0.14280668
000390 8e 51 08 be 0f 71 04 bd 66 d8 29 3d d2 b3 03 bd
       -0.1331236 -0.032334384 0.04146614 -0.032153912
0003a0 f4 cf 64 3d 8f b0 b8 3d 85 55 59 3d 7c a1 3a 3c
       0.055862382 0.09018051 0.053060073 0.01139104
0003b0 73 ea 8b bc b0 d1 50 3c 20 19 e0 3c 69 4f 3e 3c
       -0.017079568 0.012745306 0.02735573 0.011615613
0003c0 2c dc 7f bc 77 a1 dd 3c 75 fa 2c bc 5c 0b 88 bc
       -0.015616458 0.027054531 -0.0105577605 -0.01660698
0003d0 06 14 2c bb f4 30 ca bc f9 a5 ed 3c 8b fd d4 ba
       -0.0026257052 -0.024681546 0.029009806 -0.0016249878
0003e0 05 40 1e 3c 20 ee 8c 3c e7 d2 aa ba 99 f5 90 bc
       0.009658818 0.01720339 -0.0013032824 -0.017695235
0003f0 e0 c9 e7 3c 94 5a 22 3c 74 ea 11 3d 95 d7 4e bd
       0.028294504 0.009909291 0.035623983 -0.050498564

head.bias f4 [4]
000000 c9 14 e7 bf 22 59 e7 bf c5 7a e6 bf 1a 7b e7 bf
       -1.8053218 -1.8074076 -1.8006216 -1.8084443
