breakout/model/target_net_state_dict.pt (torch_old, 375362 bytes, 6 tensors)

conv1.weight f4 [32, 4, 8, 8]
0	0xbc0c8f3a	-0.00857907
1	0xbd181b1c	-0.03713523
2	0x3abefe36	0.001457161
3	0xbcacaa16	-0.021077197
4	0xba50c12e	-0.00079633563
5	0x3c5dc1bf	0.013534962
6	0x3d6a5c2a	0.0572168
7	0x3bb69ea8	0.0055731125
8	0xbd0ce223	-0.03439535
9	0xbc2df807	-0.010618216
10	0xbd95ea68	-0.073201
11	0x3cee5c60	0.029096782
12	0xbd45f9bc	-0.04833387
13	0x3c846afb	0.016164294
14	0xbd9652ef	-0.07340037
15	0x3c70437e	0.014664529
16	0xbd16e320	-0.036837697
17	0x3d146579	0.036229584
18	0xbb357a58	-0.002769133
19	0x3d4b8d50	0.049695313
20	0x3d97ea5b	0.07417747
21	0xbdac9b5f	-0.08428072
22	0xbc8ef8f2	-0.01745269
23	0xbce3cab0	-0.02780661
24	0x3be5df6f	0.0070151608
25	0x3c873dc2	0.01650894
26	0xbd339934	-0.043847278
27	0xbcc7ef6e	-0.024406161
28	0x3be42f57	0.006963651
29	0x3d1f4ac2	0.038889654
30	0x3c13a72e	0.009012027
31	0x3ce0e462	0.027452651
32	0x3c80e089	0.015732067
33	0x3ca20650	0.0197784
34	0xbc3ac283	-0.011398914
35	0xbd42dbf4	-0.047573045
36	0x3d97253c	0.07380149
37	0xbdb63c0e	-0.08898173
38	0xbcea2597	-0.028582377
39	0xbd2c8513	-0.042119097
40	0x3a3dc5ce	0.0007239253
41	0x3d96d344	0.073645145
42	0x3c82aa8c	0.015950464
43	0xbd64f8db	-0.05590139
44	0x3c6ac12f	0.014328285
45	0x3cecfe5f	0.028929887
46	0x3c770e3f	0.01507908
47	0xbc3013de	-0.010746924
48	0x3d46c67a	0.048529126
49	0xbc8bcaf4	-0.017064549
50	0xb9d54290	-0.0004067612
51	0xbd8c0adb	-0.06838008
52	0xbd1e3c83	-0.038631927
53	0x3d93d4c0	0.07218313
54	0xbaa7c42d	-0.0012799554
55	0xbc71ba9a	-0.014753962
56	0x3d127d04	0.035763755
57	0xbc900662	-0.017581169
58	0x3c5ec728	0.013597287
59	0x3d018bab	0.03162734
60	0xbc8a61c6	-0.016892325
61	0xbd425d93	-0.04745252
62	0xbd5b5277	-0.05354544
63	0xbc96bf1e	-0.018401679
64	0x3d5f2b37	0.054484572
65	0xbc89d269	-0.016823964
66	0x3d04302b	0.0322725
67	0xbc29574a	-0.010335753
68	0x3c38a3af	0.011269494
69	0x3d41cc18	0.04731378
70	0x3c8dfae8	0.017331555
71	0x3d9e9f66	0.077452466
72	0xbd880de8	-0.066432774
73	0xbd828ca0	-0.06374478
74	0x3cd4e834	0.02598963
75	0xbd8a5ac2	-0.06755592
76	0xb997936e	-0.00028910808
77	0xbc34a267	-0.011025048
78	0xbd910472	-0.07080926
79	0x3d4d3037	0.05009481
80	0xbc738c4f	-0.014864995
81	0xbcda17ca	-0.026622672
82	0x3b7f87d0	0.0038990863
83	0xbc4fbc30	-0.012679145
84	0x3c89923c	0.016793363
85	0x3d851023	0.064972185
86	0x3d0e3e22	0.034727223
87	0x3ca5cb5c	0.02023857
88	0xbdab3a10	-0.08360684
89	0x3c6cc172	0.014450418
90	0x3b26dda2	0.0025461693
91	0xbc511218	-0.012760662
92	0xbceaa9d6	-0.028645437
93	0xbd18f792	-0.037345476
94	0x38d57acc	0.00010179504
95	0xbac9f113	-0.0015406929
96	0xbcd6bc92	-0.026212964
97	0x3d1abf6c	0.03778021
98	0x3c8f5d81	0.01750064
99	0xbd9c9c5b	-0.0764701
100	0x3bcd243e	0.006260424
101	0x3d66802c	0.056274578
102	0x3cb1bb9f	0.02169591
103	0xbc3a4588	-0.011369117
104	0x3c36d55f	0.01115927
105	0x3ba3491e	0.0049830815
106	0xba869603	-0.0010268096
107	0xbcb31490	-0.02186039
108	0xbbe18a1e	-0.00688292
109	0xbd10a611	-0.035314623
110	0xbd460b30	-0.048350513
111	0x3c2dafb2	0.010600971
112	0xbd0d49c7	-0.034494188
113	0x3cd04e8f	0.025428085
114	0xbc2dc1ff	-0.010605334
115	0xbd9388ea	-0.07203849
116	0xbd23f482	-0.040028103
117	0x3b002170	0.001955118
118	0x3d1bdef0	0.038054407
119	0xbbb480be	-0.0055085113
120	0xbd009096	-0.031387888
121	0x3d5f9fab	0.05459563
122	0x3d06566b	0.03279726
123	0x3d859ace	0.06523667
124	0xbcea12e6	-0.028573465
125	0x3d9ff72c	0.07810816
126	0xbd4dcbf8	-0.050243348
127	0xbd3715a4	-0.044698372
128	0xbbb8d8e7	-0.005641091
129	0xbdb04d26	-0.08608465
130	0x3d5970ce	0.053086095
131	0x3d3ed6a6	0.046591423
132	0x3d751778	0.059836835
133	0x3cd537eb	0.02602764
134	0xbc3db8ee	-0.011579735
135	0xbc2ae81f	-0.010431319
136	0xbda32852	-0.07966675
137	0xbd009e62	-0.031401046
138	0xbd01cdfc	-0.031690583
139	0x3c7a8d84	0.015292529
140	0x3cb600d2	0.022217188
141	0x3c154c11	0.009112374
142	0x3c6192d8	0.01376792
143	0x3d373c23	0.044735085
144	0xbc12785b	-0.008939828
145	0x3d45600f	0.04818731
146	0x3d80231a	0.06256695
147	0xbce00dde	-0.027350362
148	0xbd1788db	-0.03699575
149	0xbc10dc7c	-0.00884163
150	0xbc328d52	-0.010897951
151	0x3d80e40a	0.06293495
152	0xbd1d0b9f	-0.03834116
153	0x3cb2a2f4	0.021806218
154	0x3d8dfc2d	0.06932864
155	0x3d32c096	0.043640696
156	0xbd2f7afc	-0.042841896
157	0x3dbd0fa4	0.09231499
158	0x3bbea4fc	0.0058180075
159	0xbd99c01e	-0.075073466
160	0x3c6b3510	0.014355913
161	0xbb2524c4	-0.0025198916
162	0xbd777ad2	-0.060419865
163	0x3b4663d7	0.0030271912
164	0xbc5418cb	-0.012945364
165	0x3cbfbbb3	0.023404932
166	0x3c03c2b6	0.008042028
167	0xbd8213bb	-0.063514195
168	0xbdce81b2	-0.10083331
169	0x3bd923ae	0.006626568
170	0xbb079d5f	-0.0020693166
171	0xbbb9e777	-0.0056733447
172	0xbcb60056	-0.022216957
173	0x3cd0cdd0	0.025488764
174	0x3caf4984	0.02139736
175	0x3db22cd4	0.086999565
176	0x3d56dee4	0.05245866
177	0xbda091b8	-0.07840294
178	0x3cf7a340	0.03022921
179	0xbd21480c	-0.03937535
180	0xbcb297af	-0.021800844
181	0xbbf4b8f0	-0.0074683353
182	0xbd04cdc4	-0.032422796
183	0x3d40765f	0.046987887
184	0xbd3bb08e	-0.045822673
185	0x3dc6ebfc	0.09712979
186	0xbc86fde2	-0.016478483
187	0x3d665110	0.05622965
188	0x3c7161e4	0.014732812
189	0x3ce35ec8	0.027755156
190	0xbafe9ff0	-0.0019426327
191	0x3c873376	0.01650403
192	0x3bf04ef7	0.007333632
193	0xbd17229f	-0.03689825
194	0xbb95ad70	-0.0045677945
195	0x3c9aca6a	0.018895347
196	0x3b674f22	0.003529497
197	0x3d2d3b43	0.042292845
198	0x3dcaacd0	0.098962426
199	0x3d103062	0.03520239
200	0x3d55fb3f	0.05224156
201	0x3cf06d28	0.029348925
202	0x3d36d137	0.044633117
203	0xbce820df	-0.028335987
204	0xbd8296c6	-0.06376414
205	0x3c09fede	0.0084225815
206	0x3c47af4f	0.012187793
207	0xbcb0b458	-0.02157037
208	0x3bb987d8	0.005661946
209	0xbd15138c	-0.036395594
210	0x3cc2153c	0.023691766
211	0x3bb718da	0.0055876793
212	0x3d6fbc94	0.05852945
213	0xbca6bc72	-0.02035353
214	0x3d5b47c8	0.053535253
215	0xbc09cae7	-0.008410192
216	0x3d9a0735	0.07520906
217	0xbcee954e	-0.029123928
218	0x3d4e201e	0.050323598
219	0x3c53cd53	0.012927371
220	0x3d06d985	0.032922287
221	0xbd7ca1ee	-0.061677866
222	0xbd5da45a	-0.054111816
223	0x3d5d04aa	0.053959526
224	0xbc09c034	-0.008407641
225	0x3c841968	0.016125396
226	0x3b1c0250	0.002380509
227	0x3c947092	0.018120084
228	0x3ca19b51	0.019727381
229	0xbd690dd3	-0.05689795
230	0x3d91b1a8	0.07113963
231	0x3c7f3da8	0.015578665
232	0x3c92b668	0.017909244
233	0xbabff9cb	-0.0014646588
234	0xba94e8f4	-0.0011360929
235	0xbc541a96	-0.012945792
236	0x3d92a733	0.07160797
237	0x3d056215	0.03256424
238	0xbbbfec37	-0.0058570164
239	0xbd03faa8	-0.032221466
240	0xbb8d144c	-0.004305398
241	0x3ba8ce3f	0.0051515396
242	0xbb9a27f8	-0.0047044717
243	0xbc5ba95a	-0.013407076
244	0x3d069a6e	0.03286212
245	0xbd5240aa	-0.0513312
246	0x3d9b078e	0.075698
247	0x3c326eef	0.010890706
248	0x3cb58dcc	0.02216234
249	0xbc596e62	-0.013270946
250	0x3d33d5be	0.043905012
251	0x3d8d2204	0.068912536
252	0x3b7e7dba	0.0038832263
253	0xbd2a27bd	-0.041541804
254	0xbd3cef4a	-0.04612664
255	0xbd4db160	-0.050217986

conv2.weight f4 [64, 32, 4, 4]
0	0x3cbb4b4b	0.02286305
1	0x3de038cd	0.10948334
2	0x3a2b6635	0.00065383624
3	0x3d07428c	0.03302245
4	0xbd8be3e4	-0.06830576
5	0xbd26ea1d	-0.04075061
6	0xbda89eb2	-0.08233394
7	0xbd30dbb1	-0.043178264
8	0x3d9c5325	0.07633046
9	0xbd4f06f5	-0.050543744
10	0x3c64cbdf	0.013964622
11	0xbc1b9633	-0.0094962595
12	0xbcc24de2	-0.023718778
13	0xbd36a9c4	-0.044595495
14	0x3d3c4fce	0.045974545
15	0x3d1803cb	0.037112992
16	0x3b33ba51	0.0027424286
17	0xbdec9c44	-0.11553243
18	0x3a4496fc	0.0007499305
19	0x3c63ee58	0.013911806
20	0xbd4d5b39	-0.050135825
21	0x3d3833de	0.04497134
22	0x3d01c13f	0.031678434
23	0x3cc66f95	0.024223128
24	0x3d1764ac	0.036961243
25	0xbcb861f9	-0.022507655
26	0xbd1820f0	-0.037140787
27	0x3d918dad	0.07107101
28	0xbd849b69	-0.06474955
29	0x3cec4a3e	0.028843995
30	0x3da5beb3	0.080930136
31	0xbd49d031	-0.049270812
32	0x3d9f3aab	0.07774862
33	0xbca812dd	-0.020516807
34	0x3d4a0676	0.049322568
35	0x3d33d139	0.043900702
36	0xbc73aa41	-0.014872135
37	0xbcfcddd4	-0.030867495
38	0xbba3fa07	-0.005004171
39	0x3da1d878	0.07902616
40	0x3ccb718b	0.024834415
41	0x3c9b9287	0.018990768
42	0xbb7ba024	-0.0038395012
43	0xbbafbb48	-0.005362902
44	0x3d97f5b4	0.07419911
45	0x3d2b7291	0.041857306
46	0x3cd22fb7	0.025657518
47	0x3ca295a2	0.019846741
48	0xbd894ded	-0.06704316
49	0x3d3e6f67	0.04649296
50	0x3c6b85e9	0.014375188
51	0x3c06a2f6	0.008217564
52	0xbc1f5948	-0.009725876
53	0x3d075960	0.03304422
54	0xbd65e4a3	-0.056126248
55	0x3d14f475	0.036365945
56	0xbd9566bc	-0.07294986
57	0xbcdc77d0	-0.0269126
58	0x3d97476d	0.0738667
59	0xbd0ada21	-0.03389943
60	0xbc2870d4	-0.010280807
61	0xbe05e6c4	-0.13076311
62	0x3d142dd1	0.036176506
63	0x3d29dff5	0.041473348
64	0x3d52f1e5	0.05150022
65	0xbba49f1f	-0.0050238515
66	0x3cda8b8e	0.026677873
67	0x3d6f4344	0.05841376
68	0xbbe86801	-0.0070924764
69	0x3c924385	0.017854461
70	0xbc4ccbf4	-0.012499798
71	0x3d176af7	0.036967244
72	0xbe1cab0f	-0.15299629
73	0x3d4e71cf	0.050401505
74	0x3d613578	0.054982632
75	0x3c3aee6f	0.011409386
76	0x3d5915f8	0.052999467
77	0xbcd6fbe7	-0.026243163
78	0xbd2d8bbd	-0.042369593
79	0xbd01c3d6	-0.031680904
80	0xbcd975e8	-0.02654548
81	0x3d403582	0.04692603
82	0xbccb1cef	-0.02479407
83	0x3d0bbd91	0.03411633
84	0x3d7c8c2f	0.061657127
85	0x3dc3af53	0.09554925
86	0x3d33dc3d	0.043911207
87	0xbd83d15e	-0.06436418
88	0xbd142b20	-0.03617394
89	0x3d66bd4a	0.056332864
90	0x3d06201e	0.032745473
91	0xbbccb382	-0.006246985
92	0xbd4dfb9c	-0.05028878
93	0xbcf28af3	-0.029607272
94	0x3c574a77	0.013140312
95	0xbcc34e1e	-0.02384096
96	0xbd8ce20d	-0.06879053
97	0xbd57ea80	-0.05271387
98	0xbd68bb50	-0.05681926
99	0xbd289d25	-0.04116549
100	0x3a82db14	0.0009983503
101	0xbd9305c0	-0.07178831
102	0xbd1ff31e	-0.039050214
103	0xbd6c3c5f	-0.05767476
104	0xbc4cfbfd	-0.012511251
105	0xbba8c590	-0.0051505044
106	0xbcd83ec8	-0.026397124
107	0x3cdbd516	0.026835006
108	0x3d8a81c1	0.0676303
109	0xbc5ab65b	-0.013349141
110	0x3dcaa0d7	0.09893959
111	0xbda54d7b	-0.08071419
112	0xbd0b09e7	-0.03394499
113	0x3c852261	0.016251745
114	0xbcdb6088	-0.026779428
115	0xbd016b42	-0.03159643
116	0x3d319973	0.04335923
117	0xbc87edd1	-0.016592892
118	0xbd217338	-0.03941652
119	0x3deb0698	0.11475867
120	0x3cd11291	0.025521548
121	0xbcfe4160	-0.031037033
122	0xba7a932f	-0.0009558675
123	0xbb5f4cd4	-0.0034072893
124	0xbcc736ae	-0.024318065
125	0x3d8e31ef	0.06943118
126	0x3d26e5f2	0.040746637
127	0x3dbffabb	0.09373995
128	0x3d3135c3	0.04326416
129	0x3de79c10	0.113090634
130	0xbaa921c5	-0.0012903741
131	0xbde22566	-0.110422894
132	0x3cd46412	0.025926623
133	0xbd0bb0a2	-0.034103997
134	0x3cd0b039	0.025474655
135	0x3d129772	0.03578896
136	0xbcab6d20	-0.020926058
137	0x3d2247f8	0.039619416
138	0xbcf93b42	-0.030423764
139	0xbcc04296	-0.02346925
140	0xbd875a6d	-0.06609044
141	0xbc9d51b0	-0.01920399
142	0xbd5f8e17	-0.054578867
143	0xbc15b0c0	-0.009136379
144	0x3ca6dc5f	0.020368753
145	0xbd522da6	-0.051313065
146	0xbd705b0f	-0.05868059
147	0xbbd67acd	-0.0065454007
148	0xbc337f8b	-0.010955702
149	0xbdcad1ab	-0.09903272
150	0xbb8c7dbd	-0.00428745
151	0xbd563914	-0.052300528
152	0xbd9ba877	-0.076004915
153	0x3c98013f	0.018555282
154	0x3d947092	0.072480336
155	0x3de54556	0.111948654
156	0xbd685c32	-0.05672855
157	0xbd976115	-0.07391564
158	0x3d92b6c7	0.07163768
159	0x3c8ea98e	0.017414834
160	0x3cc931a4	0.024559803
161	0xbd1545d4	-0.036443546
162	0xbda1582d	-0.07878146
163	0x3ac8e102	0.0015325847
164	0x3b2611c6	0.0025340184
165	0x3d6ff511	0.058583323
166	0xbb6698e2	-0.003518634
167	0x3d4e56e5	0.050375838
168	0xbc1f3b49	-0.0097187245
169	0xbdf1bb6a	-0.118033245
170	0xbcbe3897	-0.023220344
171	0x3c331a3f	0.0109315505
172	0xbcc0ebb8	-0.0235499
173	0x3c33e67b	0.010980244
174	0xbbe67c03	-0.0070338263
175	0x3dca7150	0.09884894
176	0x3da7b6cb	0.08189162
177	0xbd9fc42b	-0.07801088
178	0x3cb62a49	0.02223696
179	0x3d5daeb3	0.054121684
180	0x3d329255	0.043596584
181	0x3cd5bbb4	0.02609048
182	0xbd963dba	-0.07335992
183	0x3d99d4ad	0.07511268
184	0x3d2738e2	0.040825732
185	0xbcab93fb	-0.020944586
186	0x3bc0ef74	0.00588792
187	0xbbd568df	-0.0065127457
188	0xbca7b307	-0.02047111
189	0x3c256854	0.010095675
190	0xbd911f4f	-0.0708605
191	0x3d0f7c3f	0.0350306
192	0x3d0b4f10	0.034010947
193	0x3d6f7272	0.058458753
194	0xbcb43be2	-0.02200121
195	0x3d9ec392	0.07752146
196	0x3c978adf	0.018498836
197	0x3daf9b4d	0.08574543
198	0xbbe96dc4	-0.007123681
199	0x3c6ff017	0.014644644
200	0x3d580c12	0.052745886
201	0xbd6d6727	-0.057959702
202	0xbced1832	-0.028942201
203	0xbcac430d	-0.021028066
204	0x3da3a1ef	0.07989871
205	0x3d5e55dc	0.0542811
206	0xbd3ef211	-0.04661757
207	0x3c9adebc	0.018905036
208	0x3d2ea755	0.04264005
209	0x3d4e6c17	0.05039605
210	0xbd416948	-0.047219545
211	0xbd8a970c	-0.06767091
212	0x3d1728b1	0.03690404
213	0x3d4bf025	0.049789567
214	0x3a74683e	0.00093233946
215	0x3d24dd31	0.040250007
216	0xbc620ccf	-0.013796999
217	0xbd55b935	-0.05217858
218	0x3b5916ed	0.0033125237
219	0xbca5c3b4	-0.02023492
220	0x3ca614f3	0.020273661
221	0xbcf37ed6	-0.029723566
222	0x3cc39198	0.023873135
223	0x3cf5c890	0.030002862
224	0x3d5e4f26	0.0542747
225	0x3dd4c0ad	0.103883125
226	0x3da8b0df	0.082368605
227	0x3d821f11	0.06353582
228	0xbd8e4c88	-0.06948191
229	0xbd2f2ddf	-0.042768355
230	0xbd8f3a6d	-0.06993566
231	0x3c83b96e	0.01607963
232	0x3c97091e	0.018436965
233	0x3d077bfc	0.033077225
234	0x3bdcf625	0.00674321
235	0x3b2515d9	0.0025190024
236	0xbbd959b0	-0.006633006
237	0xbc3ff9f0	-0.011717305
238	0xbbdecb2a	-0.0067991214
239	0xbbc01644	-0.0058620293
240	0xbce26de3	-0.027640289
241	0x3d6048a6	0.054756783
242	0xbcd7a88f	-0.026325492
243	0xbab4daab	-0.0013798078
244	0x3c9e5565	0.019327829
245	0xbc01ef4d	-0.007930589
246	0x3c8fa0e7	0.017532779
247	0x3d255bd5	0.04037078
248	0xbb4509a9	-0.0030065572
249	0x3cc26a3b	0.023732295
250	0xbd331524	-0.043721333
251	0x3da82a6f	0.082112186
252	0x3ca114de	0.01966327
253	0xbbf16b7c	-0.0073675495
254	0x3de67fda	0.112548545
255	0xbbb56141	-0.005535275

conv3.weight f4 [64, 64, 3, 3]
0	0xbd49179d	-0.049094785
1	0xbd73e2e2	-0.059542544
2	0xbd0ada22	-0.033899434
3	0xbd596daf	-0.053083118
4	0x3d0642cb	0.032778542
5	0xbd4869a2	-0.048928864
6	0xbd883027	-0.06649809
7	0x3deb7c8c	0.11498365
8	0x3cc5aead	0.024131143
9	0x3ddc3436	0.10752146
10	0x3d2b6e7f	0.041853424
11	0x3db958d8	0.09050149
12	0x3d0c4bef	0.034252103
13	0xbb64280b	-0.0034813907
14	0x3c442ed5	0.011974056
15	0x3d16e349	0.03683785
16	0xbd5a7db1	-0.053342525
17	0x3d12fdd7	0.03588661
18	0x3e2d0028	0.16894591
19	0x3d8a12f2	0.06741895
20	0x3cbecd10	0.02329114
21	0x3c53cb54	0.012926895
22	0x3c149c1b	0.009070422
23	0x3d1b97ef	0.037986692
24	0x3da6cf5d	0.0814502
25	0x3d796f74	0.060897306
26	0x3d030699	0.031988714
27	0x3c873480	0.016504526
28	0x3b3c0ef9	0.0028695448
29	0x3d0fb14f	0.035081204
30	0xbd26e774	-0.040748075
31	0xbdd670a7	-0.104707055
32	0xbdb54c30	-0.08852422
33	0x3ca82bfe	0.02052879
34	0xbd053967	-0.032525446
35	0x3d4579c2	0.04821182
36	0xbd04f4db	-0.032460075
37	0xbbac34c2	-0.0052553127
38	0x3d7323b0	0.059360206
39	0x3e0896b2	0.13338736
40	0x3c4f82bc	0.012665447
41	0xbd0707e8	-0.032966524
42	0xbc0b1ce7	-0.008490778
43	0xbd806af0	-0.06270397
44	0xbd99d685	-0.075116195
45	0x3d9a2473	0.075264834
46	0xbd23acfa	-0.039959885
47	0xbe0c7a4f	-0.13718532
48	0x3e1c1081	0.1524067
49	0x3de37912	0.11107077
50	0xbd1d07e9	-0.03833762
51	0xbdb41e08	-0.087947905
52	0xbceeaeaf	-0.02913603
53	0xbcf66fba	-0.030082572
54	0x3d55d54c	0.05220537
55	0x3dcd7320	0.10031724
56	0xbd4f5c74	-0.05062528
57	0xbd0df0fa	-0.03465364
58	0x3dc72003	0.097229026
59	0x3d56dcc5	0.052456636
60	0x3c84cf89	0.016212242
61	0xbc7f66f8	-0.0155885145
62	0xbddf6857	-0.10908573
63	0x3dca3ff3	0.098754786
64	0x3cb4a3aa	0.022050697
65	0xbdad07f4	-0.084487826
66	0xbc8e98d4	-0.017406859
67	0xbc05181b	-0.008123423
68	0x3d6f48fd	0.058419216
69	0xbd8998c7	-0.06718593
70	0x3d809610	0.06278622
71	0x3e1e93be	0.15486047
72	0x3d11bf96	0.0355831
73	0x3c876253	0.016526377
74	0x3da79be0	0.08184028
75	0x3d8a658c	0.0675765
76	0xbca467ea	-0.020069081
77	0xbd884f14	-0.06655708
78	0xbd9d72a0	-0.076878786
79	0xbd547208	-0.05186656
80	0xbcd2f86b	-0.02575322
81	0xbc4d5c7c	-0.012534257
82	0x3b99032a	0.0046695666
83	0x3c601afa	0.013678307
84	0xbb9f16a6	-0.004854995
85	0xbd184674	-0.037176564
86	0xbdfc4d4d	-0.123194315
87	0x3d4c863a	0.049932696
88	0x3c810870	0.015751094
89	0x3dde9a7b	0.108693086
90	0x3dc2255e	0.094797835
91	0xbd5bde7d	-0.05367898
92	0xbc2710b0	-0.01019685
93	0xbd2c2c12	-0.042034216
94	0xbd7fc4a1	-0.06244338
95	0xbd4f833b	-0.05066226
96	0x3c317851	0.010831908
97	0x3bd35049	0.0064487797
98	0xbd112073	-0.035431337
99	0xbd1cf496	-0.038319193
100	0xbdeea6d4	-0.11652914
101	0xbd68c2d9	-0.056826446
102	0xbde97831	-0.11399878
103	0xbd1e0eb6	-0.03858825
104	0x3cfb9f32	0.030715559
105	0x3d011c2c	0.031521007
106	0xbd101840	-0.035179377
107	0xbc063ff5	-0.0081939595
108	0x3d7f0815	0.062263567
109	0x3c55a8c8	0.013040729
110	0xbcc5b2b6	-0.024133068
111	0xbda0dd72	-0.07854737
112	0x3c11ffd8	0.008911096
113	0x3d05979f	0.0326153
114	0xbd5a1f65	-0.053252596
115	0x3e271ce9	0.16319622
116	0xbd89f9ed	-0.06737123
117	0x3cc3b830	0.023891538
118	0x3b83bbd0	0.0040201917
119	0x3d47175b	0.048606258
120	0x3d3bb669	0.045828257
121	0xbd766b60	-0.060160995
122	0x3d8f8de4	0.07009485
123	0xbdfa16c2	-0.12211372
124	0x3da94306	0.08264737
125	0xbd395785	-0.04524948
126	0x3cf05bc2	0.029340629
127	0xbd8994f2	-0.06717862
128	0xbcd56f7b	-0.026054135
129	0x3b840161	0.0040284847
130	0x3dadafe7	0.08480816
131	0xbcf242a8	-0.0295728
132	0x3d342443	0.043979894
133	0x3d7c70f1	0.061631147
134	0x3d8617ba	0.06547494
135	0x3d61b2e5	0.055102248
136	0xbc992234	-0.018693067
137	0x3cc049cd	0.023472691
138	0x3ca32f01	0.019919874
139	0xbcb2098a	-0.021733064
140	0xbdccee2c	-0.10006365
141	0xbd335069	-0.043777857
142	0x3c2e77da	0.010648692
143	0x3ce7ae7d	0.028281445
144	0xbd907064	-0.07052687
145	0x3dd702fd	0.10498617
146	0xbcb1e8bb	-0.02171742
147	0x3baa5cf5	0.0051990696
148	0xbd983d00	-0.0743351
149	0xbd9c0617	-0.07618349
150	0x3e12da40	0.14341068
151	0xbd6b58f6	-0.057457887
152	0xbd358c3e	-0.0443232
153	0x3ccadfe4	0.024764962
154	0xbca3c078	-0.019989237
155	0xbc50cc44	-0.012744013
156	0x3d92c483	0.07166388
157	0x3d922785	0.07136444
158	0xbd0e1b9d	-0.034694303
159	0xbda5cba3	-0.08095481
160	0x3dad18a9	0.08451969
161	0x3d007a61	0.03136671
162	0x3c05f18f	0.008175268
163	0x3d2fe063	0.0429386
164	0x3c093c72	0.008376228
165	0xbc13bf1f	-0.009017735
166	0xbde4539d	-0.111487605
167	0xbd07953f	-0.033101317
168	0x3cd77a3f	0.026303409
169	0x3ccaa380	0.024736166
170	0xbd084a48	-0.033273965
171	0xbad58037	-0.0016288821
172	0xbad16d47	-0.0015978002
173	0x3cd2f1f8	0.025750145
174	0x3d663315	0.05620106
175	0x3c942a4d	0.018086577
176	0xbd96924d	-0.073521234
177	0x3c5876c2	0.013211908
178	0x3d970069	0.07373125
179	0xbd088163	-0.033326518
180	0x39f4fa91	0.00046725993
181	0x3bf54ae4	0.0074857343
182	0x3dadc9b9	0.08485741
183	0x3db00e03	0.085964225
184	0xbdb90608	-0.090343535
185	0xbd02ff0b	-0.03198151
186	0x3d57d776	0.052695714
187	0x3bfa530e	0.0076392954
188	0x3cabc581	0.0209682
189	0xbe18bd82	-0.14916041
190	0x3c097af4	0.008391131
191	0xbb92bed1	-0.0044783135
192	0xbc6a4ec9	-0.01430101
193	0xbc66d161	-0.014088006
194	0xbdaf3fb3	-0.085570715
195	0x3ca9df3d	0.020736331
196	0xbd7f4ad7	-0.062327232
197	0xbd232537	-0.039830413
198	0x3c4be588	0.012444861
199	0x3946eb7f	0.0001897048
200	0x3cb19bdc	0.021680765
201	0xbadfe84b	-0.0017082779
202	0x3cbdc3d7	0.023164673
203	0x3da3c13e	0.079958424
204	0xbd48dd6f	-0.0490393
205	0x3c410de7	0.0117831
206	0x3b94106e	0.00451856
207	0x3e3cf6a3	0.1845346
208	0xbd36f752	-0.044669457
209	0x3be135da	0.0068728747
210	0xbb4f7b6d	-0.003165926
211	0xbd70dfe6	-0.058807276
212	0x3d207864	0.039177313
213	0xbd496bfb	-0.049175244
214	0xbc6ebf7a	-0.014572019
215	0x3d921eaf	0.07134759
216	0x3c7d2d6c	0.015452724
217	0xbd7d5c4c	-0.0618556
218	0x3d03027c	0.03198479
219	0xbcd86cfc	-0.026419155
220	0x3dcb023f	0.09912538
221	0xbd915113	-0.07095542
222	0xbb6141e4	-0.003437155
223	0xbada6002	-0.0016660693
224	0xbd12739b	-0.03575478
225	0xbb67b333	-0.0035354614
226	0x3ca7ef32	0.0204998
227	0x3c1e8aea	0.009676674
228	0xbdc696f8	-0.09696764
229	0xbd6ecdea	-0.058301844
230	0x3adb6ad5	0.0016740212
231	0x3cabd84c	0.020977162
232	0x3d8d9587	0.06913286
233	0xbd80cb4b	-0.06288775
234	0xbc4997d4	-0.012304265
235	0xbca38d47	-0.019964827
236	0xbd6c231c	-0.05765067
237	0xbcdf4987	-0.02725674
238	0xbde96b95	-0.11397473
239	0xbb6dce1d	-0.0036286183
240	0x3bf02b31	0.0073293676
241	0x3c272e9f	0.010203986
242	0x3d0ec7fe	0.034858696
243	0x3da20c40	0.07912493
244	0x3d5f3909	0.054497752
245	0xbd82980d	-0.06376658
246	0x3da2dd91	0.07952417
247	0xbd45df16	-0.048308454
248	0xbc93e242	-0.018052224
249	0xbd23303f	-0.039840933
250	0x3d4bdb71	0.049769823
251	0x3c474387	0.012162096
252	0x3ceb6df9	0.028738962
253	0xbd3086b1	-0.0430972
254	0xbd1fc035	-0.039001662
255	0xbdb7d934	-0.08976975

value.weight f4 [1, 3136]
0	0x3c24548e	0.010029925
1	0x3c425a0c	0.011862289
2	0xbba90fee	-0.0051593697
3	0xbc68f7aa	-0.014219204
4	0xbb3c821c	-0.0028764075
5	0x3c0661f2	0.008202063
6	0xbba51f66	-0.0050391434
7	0x3b98b238	0.004659917
8	0xbc8ecd07	-0.017431749
9	0x3bcd0c9c	0.0062576067
10	0x3be2d3c4	0.006922217
11	0x3c513476	0.012768855
12	0xbb5c06f8	-0.003357349
13	0x3ae5a530	0.0017520543
14	0x3bbdcf58	0.0057925396
15	0x3b010980	0.00196895
16	0x3c1adcdc	0.009452071
17	0xbbd1e378	-0.00640529
18	0x3aa82910	0.001282962
19	0x3c61df4a	0.013786146
20	0x3c5cb7de	0.013471572
21	0x3acc2ba0	0.0015576966
22	0x3b613750	0.0034365244
23	0xbaab8550	-0.0013085995
24	0x3c5fc132	0.013656901
25	0xbac54b30	-0.0015052315
26	0x3c5bfb52	0.013426619
27	0x3b7e72e0	0.0038825795
28	0xbc8be40c	-0.017076515
29	0xbc40bb1c	-0.01176336
30	0x3c5d5c6e	0.0135108065
31	0x3be904bc	0.00711116
32	0x3a8d2560	0.0010768585
33	0xbbf9561c	-0.007609142
34	0x3be6c7e4	0.007042872
35	0x3c15efaa	0.009151379
36	0x3ae30b70	0.0017322134
37	0x3c5ecf66	0.013599252
38	0x3c164aca	0.009173105
39	0x3aaf1e60	0.0013360493
40	0xbb9ee7d2	-0.0048494125
41	0x39f03140	0.0004581306
42	0x3c64a416	0.013955137
43	0xbc913eb5	-0.017730096
44	0xbc686e65	-0.014186476
45	0x3be10590	0.006867118
46	0x3c18231a	0.009285713
47	0xbc349cd0	-0.011023715
48	0xbc87b2f0	-0.016564816
49	0xbc6e5593	-0.01454677
50	0xbc45aff5	-0.012065877
51	0x3c2c605a	0.010521019
52	0xbae01cb0	-0.0017098393
53	0xbc634e43	-0.0138736395
54	0x3a4f30a0	0.0007903669
55	0x3c8a892d	0.016911114
56	0x3abb6d60	0.0014299564
57	0xbc555cec	-0.013022643
58	0x3bcf6ff0	0.0063304827
59	0x3be9c484	0.007134022
60	0xbc27c3ac	-0.010239523
61	0x3b905688	0.0044048466
62	0xbb8daeb2	-0.004323804
63	0xbc16f2f7	-0.009213201
64	0x3c7a1002	0.015262606
65	0x3b4ec470	0.0031550191
66	0xbc585a28	-0.013205089
67	0xbba826c6	-0.0051315753
68	0xbc3b42c0	-0.011429489
69	0xbc01b503	-0.007916692
70	0x3c867987	0.01641537
71	0xbc44cd80	-0.012011886
72	0x3c3e32b8	0.011608772
73	0xbbc402d2	-0.0059817815
74	0x386a8c00	5.5920333e-05
75	0x3c2a50da	0.010395253
76	0x3bbe3d00	0.0058056116
77	0x3bd389f0	0.0064556524
78	0xbbaef48a	-0.00533921
79	0x3bd59fa4	0.006519275
80	0x3bb70b28	0.0055860467
81	0xbc165270	-0.009174928
82	0x3c06471e	0.008195667
83	0x3b8e2dd8	0.004338961
84	0xbc82269a	-0.015887547
85	0xbc15eaee	-0.00915025
86	0xbc79955a	-0.015233362
87	0xbc3455bc	-0.011006769
88	0x3b8bca74	0.0042660777
89	0x3c394886	0.011308795
90	0xbb0725a8	-0.002062181
91	0xbb4de248	-0.0031415392
92	0x39b29ec0	0.00034069084
93	0x3c23003c	0.009948786
94	0xbc8ac8cc	-0.01694145
95	0x3c1235fc	0.008924004
96	0x3b9ccf9c	0.004785491
97	0x3baa7a30	0.005202554
98	0x3c48773a	0.012235457
99	0x39d9a780	0.00041514263
100	0x3a71bfa0	0.0009221975
101	0x3c63a52e	0.013894362
102	0xbc44086a	-0.011964897
103	0x3bb21f84	0.005435886
104	0x3ab0d790	0.0013491977
105	0x3bfe99d8	0.0077698044
106	0xbc6fb301	-0.01463008
107	0xba187300	-0.0005815476
108	0x3be2a704	0.0069168825
109	0x3a84e970	0.001014037
110	0x3bddd814	0.0067701433
111	0x3aa8b370	0.0012870859
112	0x3c3a5618	0.011373065
113	0x3ba2fc84	0.00497395
114	0x3c72d7a6	0.014821922
115	0x3b7fb868	0.0039019827
116	0x3c18753e	0.0093052965
117	0xbc2a39ba	-0.01038974
118	0x3be3f000	0.0069561005
119	0x3c49f1f2	0.012325751
120	0xbc8b0643	-0.01697076
121	0x3bf8bf60	0.007591173
122	0xbb3de0dc	-0.0028973138
123	0x3c1cb34e	0.009564234
124	0xba5d88a0	-0.00084508397
125	0x3c17efba	0.009273464
126	0xbc6fd68e	-0.014638556
127	0x3c68384a	0.014173577
128	0x3c0bada2	0.008525284
129	0x3c345362	0.011006208
130	0xbbb79ee6	-0.005603659
131	0xbc4b6eaa	-0.012416521
132	0x3c7bed02	0.015376331
133	0x3c40a7fa	0.011758799
134	0x3bfad000	0.00765419
135	0x3c238982	0.009981515
136	0x3bf749e8	0.007546652
137	0xbc79e4a8	-0.01525227
138	0x3ae49a90	0.0017441083
139	0xbc043045	-0.008068149
140	0xbc63d448	-0.013905592
141	0x3c07fd88	0.008300193
142	0x3c39187c	0.011297341
143	0x3c38683c	0.01125532
144	0xbbfb89d4	-0.0076763425
145	0x3ba32ac0	0.0049794614
146	0x3c031d4a	0.0080025885
147	0x3be92f78	0.0071162544
148	0xbbeb534e	-0.0071815616
149	0xbb66899c	-0.0035177236
150	0xbc326f9e	-0.010890869
151	0x3c676742	0.01412374
152	0xbc8badec	-0.017050706
153	0xbbbe0e92	-0.0058000768
154	0x3c219bce	0.009863807
155	0xbc87f0de	-0.016594347
156	0xbc47912a	-0.012180606
157	0xbbb54d5c	-0.0055329036
158	0xba8ac220	-0.0010586418
159	0xb99f6f80	-0.00030409917
160	0x3c6ed9f2	0.014578329
161	0xbc338a6e	-0.010958297
162	0x3c735b26	0.014853274
163	0xbc4d75a3	-0.012540254
164	0x3c4cd2be	0.012501417
165	0xbc7004de	-0.014649598
166	0x3ba71350	0.005098738
167	0xbc288575	-0.010285725
168	0x3c1fd0d2	0.0097543765
169	0xbaf82f80	-0.0018935055
170	0x3a443da0	0.00074859895
171	0x398f3680	0.0002731569
172	0xbc689a33	-0.01419692
173	0x3b3f0728	0.0029148553
174	0xbab04a10	-0.0013449807
175	0xba12bd40	-0.00055976585
176	0xbc80f683	-0.015742546
177	0xbc28593c	-0.010275181
178	0xbc142c3e	-0.009043751
179	0x3c0dea1c	0.008661773
180	0x3c40c352	0.011765318
181	0xbc8ad676	-0.016947966
182	0x3c5c40fa	0.013443226
183	0xbaa416f0	-0.0012519043
184	0x3b47c740	0.0030483752
185	0xbc53551c	-0.01289871
186	0x3c4a1418	0.012333892
187	0xbc88938c	-0.016671918
188	0x3c84a03f	0.016189693
189	0x3c462fee	0.012096388
190	0x3b2f8ab0	0.0026785545
191	0xbc6632e1	-0.014050216
192	0x3c8dbf6b	0.01730319
193	0xbad37f20	-0.0016135909
194	0xbc6ac18e	-0.014328374
195	0x3c1abb28	0.009444036
196	0x3adc8400	0.0016824007
197	0x3bf18c34	0.00737145
198	0x3a7c52a0	0.0009625349
199	0x3c23d742	0.010000052
200	0xbc8ef5fa	-0.017451275
201	0x3bce2b94	0.006291816
202	0x3bd38f74	0.00645631
203	0xb9ef0b80	-0.000455942
204	0xb9dcf5c0	-0.00042144768
205	0x3ba18ad4	0.0049298797
206	0xbc2a337a	-0.0103882495
207	0x3b9e66f8	0.004834052
208	0xbc39f1e3	-0.011349174
209	0x3c819f6d	0.01582309
210	0x3b316958	0.0027070846
211	0x3c6e7522	0.014554294
212	0x3b693c28	0.0035588834
213	0xb9bc55c0	-0.00035922043
214	0x38f79d00	0.00011807121
215	0xbc191c65	-0.009345149
216	0xbc6ee1fc	-0.014580246
217	0xbc8260cf	-0.015915303
218	0x3a53a240	0.00080731884
219	0x3bc4b674	0.0060031954
220	0x3b972310	0.004612334
221	0x3bb83e44	0.005622657
222	0x3be86484	0.0070920605
223	0xbc187a63	-0.009306523
224	0x3c0ab0ea	0.008465031
225	0xbc881fae	-0.016616669
226	0xbc464b5a	-0.012102926
227	0x3bc81e20	0.006107107
228	0x3bee36f8	0.0072697364
229	0xbb1cc5b8	-0.002392156
230	0x3b6a0d80	0.0035713613
231	0x3c86cd41	0.016455295
232	0xbbbd4480	-0.005775988
233	0x3b5e8470	0.003395345
234	0xbc16af4c	-0.0091970675
235	0xbbc309b2	-0.0059520835
236	0xbc4dd3ec	-0.012562733
237	0xbc139bac	-0.009009283
238	0xbc87d852	-0.016582642
239	0xbb0edec8	-0.0021800268
240	0xbc23ad9c	-0.009990122
241	0xbc3889ee	-0.011263354
242	0xbbe2c060	-0.0069199055
243	0xbc00198a	-0.007818589
244	0x3b5cd4f8	0.0033696275
245	0x3bec3728	0.0072087236
246	0x3c818f8f	0.015815524
247	0xbc72a6d5	-0.014810284
248	0x3c24e10e	0.010063423
249	0xbb00f4d8	-0.0019677188
250	0xbc092345	-0.008370225
251	0x3b1ae768	0.0023636464
252	0x3c68ea2e	0.014215989
253	0x3c31f77e	0.010862229
254	0xbb988186	-0.0046541123
255	0x3c88fd4b	0.016722342

advantage.weight f4 [4, 3136]
0	0xbb1b151c	-0.0023663705
1	0x3baf0aa4	0.0053418446
2	0xba4099a0	-0.00073471107
3	0x3b8b175c	0.004244728
4	0x3b8f0f7c	0.0043658596
5	0x3b896da8	0.0041939802
6	0x3c6e7642	0.014554562
7	0x3b0e4b68	0.0021712426
8	0xbc2dd33e	-0.010609446
9	0x3c23478a	0.009965787
10	0x3c2d909a	0.010593558
11	0xb8e52600	-0.00010926649
12	0xbc8355a3	-0.016032046
13	0x3b55d0b0	0.0032625608
14	0x39974ec0	0.00028859638
15	0xbc48cf10	-0.012256399
16	0xbc486dc5	-0.012233202
17	0x3c5fd032	0.0136604775
18	0x3bdcbbf8	0.006736275
19	0xbc00a4de	-0.007851807
20	0xbbf60274	-0.0075076167
21	0x3c35b29a	0.011089945
22	0xbc58f06a	-0.013240913
23	0xbc8349f3	-0.016026473
24	0x3c5ab992	0.0133499075
25	0xbc8ac5b8	-0.016939983
26	0x3a157e40	0.00057027116
27	0x3a8fdef0	0.0010976475
28	0xbc56e110	-0.0131151825
29	0xbbc91086	-0.006136003
30	0xbc02c8e5	-0.007982467
31	0x3b284ef0	0.0025681816
32	0x3c4fd88c	0.012685906
33	0xbc70acae	-0.014689608
34	0x39d690c0	0.00040925108
35	0xbc8ce018	-0.0171967
36	0x3c103224	0.008801017
37	0x3c5b7d8e	0.013396634
38	0x3c48da86	0.012259131
39	0xbbdda806	-0.0067644147
40	0x3c1a541a	0.009419465
41	0x3c121764	0.00891671
42	0x3c6e089a	0.014528418
43	0x3c5c49a6	0.0134452935
44	0xbba83e32	-0.0051343674
45	0x3bc40f1c	0.0059832465
46	0xbc6c1893	-0.014410156
47	0xbba94400	-0.005165577
48	0x3c1955e2	0.009358855
49	0x3b30a2f0	0.0026952587
50	0x3c4d2af0	0.012522444
51	0x3b19d1e8	0.002347106
52	0x3b9ac3bc	0.0047230404
53	0x3c76c2b6	0.015061071
54	0x3c7cf36a	0.015438894
55	0x39b83b80	0.00035139546
56	0x3c20f2de	0.009823529
57	0xbc71b76a	-0.014753202
58	0x3c8253b5	0.015909055
59	0xbc25d9be	-0.010122715
60	0xbc007a57	-0.007841668
61	0x3b06bc78	0.0020559113
62	0xbc82d937	-0.015972717
63	0x3bbcc438	0.005760696
64	0xbc1c0ee3	-0.009525034
65	0x3b94ccfc	0.0045410376
66	0xbbccd32a	-0.0062507587
67	0xba48f820	-0.0007666368
68	0x3a937260	0.0011249296
69	0xbbf5639c	-0.007488681
70	0x3b92e418	0.0044827573
71	0xba5df200	-0.0008466542
72	0x3c079e74	0.008277524
73	0xbb461130	-0.0030222647
74	0xbc80583c	-0.015667073
75	0xbbdc706a	-0.006727268
76	0xbc4b276a	-0.012399534
77	0x3981cd40	0.0002475772
78	0xbb830a20	-0.0039990097
79	0x3c25df36	0.010124018
80	0x3c03b174	0.008037914
81	0x3c1b694e	0.009485556
82	0xbc36aeee	-0.011150105
83	0x3b85bcd0	0.004081346
84	0x3bcb53dc	0.006205065
85	0x3ba5a25c	0.005054755
86	0x3b218c50	0.0024650283
87	0xbb75d51c	-0.0037511056
88	0x3becf404	0.0072312374
89	0x3bd73534	0.0065676216
90	0x3c053804	0.008131031
91	0x3c5721fa	0.013130659
92	0xbc815f03	-0.015792375
93	0x3c3c8a16	0.011507532
94	0xba3bd9c0	-0.0007165931
95	0x3c914401	0.017732622
96	0xbc7067be	-0.014673172
97	0xbbde68ee	-0.006787411
98	0x3a23ef00	0.00062535703
99	0x3a0bbd40	0.00053306296
100	0xbc0feda3	-0.008784684
101	0xbc670bda	-0.014101947
102	0xbc906cdf	-0.017630039
103	0xbc31aefe	-0.010844944
104	0xbc8073b6	-0.015680175
105	0xbb84f97c	-0.004058061
106	0x3b4d49b0	0.0031324439
107	0x3c0c3f28	0.0085599795
108	0x3c5d1a52	0.013495045
109	0x3c8854ab	0.016641935
110	0x3c777d66	0.015105581
111	0x3b85d9e8	0.0040848143
112	0xbc1ffa43	-0.009764257
113	0xbc165d6c	-0.009177547
114	0xbc5d415c	-0.013504352
115	0x3be3daa8	0.006953556
116	0xbc0eaba0	-0.008707911
117	0xbb9a3ec6	-0.00470719
118	0x3ba5c8e4	0.0050593484
119	0x3b97cbdc	0.004632456
120	0x3c920023	0.01782233
121	0x3c3798be	0.01120585
122	0xbc65a051	-0.014015273
123	0x3b98717c	0.0046522003
124	0x3ba54ff0	0.0050449297
125	0x3c603562	0.013684602
126	0xbb6071f8	-0.0034247618
127	0x3b6e9780	0.003640622
128	0x3bdaa8a4	0.0066729356
129	0x3baab510	0.0052095726
130	0xb980a440	-0.00024536438
131	0xbae39900	-0.0017364323
132	0xbbd52a0e	-0.0065052575
133	0x3c7ea6c6	0.015542692
134	0xbc5b0c95	-0.013369699
135	0x38844f00	6.3089654e-05
136	0x3ab26410	0.0013610143
137	0xb9bcd780	-0.00036018714
138	0xbbbc17c6	-0.0057401387
139	0xbc82cb68	-0.015966132
140	0x3c8e15e3	0.01734442
141	0xbc372d2e	-0.011180205
142	0xbc9052da	-0.017617632
143	0xbc0629d3	-0.008188683
144	0x3bb99ae0	0.0056642145
145	0xbbcad86e	-0.006190351
146	0xbc0b50f0	-0.008503184
147	0x3c4d99c6	0.0125488695
148	0x3c8a88c7	0.016910924
149	0xbc866945	-0.016407618
150	0x3c6de576	0.01452004
151	0xbc2c594a	-0.010519335
152	0x3c8e6a31	0.01738462
153	0xbb8ef5f8	-0.004362818
154	0x3bf9be14	0.007621536
155	0x3ba25414	0.0049538705
156	0x3a0a06c0	0.0005265288
157	0x3b592378	0.0033132713
158	0xbc323f5c	-0.010879364
159	0xbc7e5d43	-0.015525165
160	0x3c0a4080	0.00843823
161	0x3c411efe	0.011787174
162	0x3c8b7c79	0.017027127
163	0x3b960088	0.0045777
164	0xbc792253	-0.015205937
165	0xbc8948e3	-0.016758388
166	0x3c3a091c	0.011354711
167	0x3c00e7b2	0.0078677405
168	0xbc195b2a	-0.009360114
169	0x3c68263e	0.014169274
170	0xba1219a0	-0.00055732764
171	0x3c4e6ed0	0.012599662
172	0xbbb4720e	-0.0055067604
173	0x3c6c59d2	0.014425712
174	0x3c4b4960	0.012407631
175	0xb8f2e300	-0.00011581741
176	0xbb9f9cea	-0.0048710005
177	0x3ac8de50	0.0015325043
178	0x3c5e678e	0.013574494
179	0xbc24d210	-0.010059848
180	0xbc10649c	-0.00881305
181	0xb9a01080	-0.00030529872
182	0xba5bb8a0	-0.0008381698
183	0xbbcfda20	-0.006343141
184	0x3ad3fa70	0.0016172659
185	0xba8f6d30	-0.0010942575
186	0x3c671e1e	0.014106302
187	0xbc1974fc	-0.00936627
188	0x3b718fa8	0.0036859307
189	0x3c91b9cb	0.017788788
190	0x3b0b2468	0.0021231417
191	0xbc0f282e	-0.008737607
192	0xbc13a875	-0.009012331
193	0xbc8d3322	-0.017236296
194	0xbb6e42e4	-0.0036355788
195	0xba64d200	-0.0008728802
196	0xbc180ae7	-0.009279943
197	0xbb3a4230	-0.0028420798
198	0xbc4eb0a8	-0.01261536
199	0xbc8314ba	-0.016001094
200	0xbc32107a	-0.010868186
201	0xbc33c0bc	-0.010971244
202	0xba868190	-0.0010262001
203	0xbbd5e318	-0.006527316
204	0xbc1ac077	-0.009445301
205	0xbc8a6703	-0.016894823
206	0xbc32fda0	-0.010924727
207	0xbc0bb523	-0.008527073
208	0xbb88546a	-0.0041604536
209	0xbc69f04a	-0.014278481
210	0xbc860062	-0.016357604
211	0xbc682933	-0.014169979
212	0xba505820	-0.0007947702
213	0x3b3b7ef8	0.0028609615
214	0x3bbc19e0	0.005740389
215	0x3b6c5570	0.0036061667
216	0x3c36ad80	0.011149764
217	0x3c224fb6	0.0099067
218	0xbb116738	-0.0022186767
219	0xbc2f861a	-0.010713125
220	0xbbbf2cae	-0.0058341837
221	0x3b4f8820	0.003166683
222	0xbbccabea	-0.0062460797
223	0xbc5a9d43	-0.013343158
224	0xbc08ce67	-0.008349991
225	0x3bdebc68	0.006797362
226	0xbc2055c5	-0.009786074
227	0xbc28d89a	-0.010305548
228	0xbbe58c9c	-0.0070052873
229	0xbc73c2c3	-0.014877978
230	0x3825d200	3.9534643e-05
231	0xbc68832c	-0.01419143
232	0xbc6e09b5	-0.0145286815
233	0xbc126eb3	-0.008937526
234	0x3b79bd30	0.003810715
235	0xbc75d4a1	-0.015004308
236	0xbaafbdd0	-0.0013408009
237	0x3bc6cbe4	0.006066786
238	0x3bf102a0	0.0073550493
239	0x3c223280	0.009899735
240	0x3c3f431e	0.011673717
241	0xbc048b0e	-0.008089794
242	0xbbe5f226	-0.0070173917
243	0xbac7b7f0	-0.0015237313
244	0xbaecce00	-0.0018066764
245	0xbc696671	-0.014245615
246	0xbc320533	-0.010865497
247	0xbc2f972c	-0.0107171945
248	0x3c9012db	0.017587116
249	0x392e8100	0.0001664199
250	0xbc76a208	-0.01505328
251	0x3b2ea100	0.0026646256
252	0xba0df7a0	-0.0005415622
253	0xbb892120	-0.004184857
254	0x3c76a91e	0.015054969
255	0x3b381c40	0.002809301

advantage.bias f4 [4]
0	0xbbe9d8aa	-0.007136424
1	0xbc81aefd	-0.015830511
2	0xbc1fceac	-0.009753864
3	0xbbd8b04e	-0.006612814
