breakout/model/target_net_state_dict.pt (torch_old, 375362 bytes, 6 tensors)

conv1.weight f4 [32, 4, 8, 8]
00000000: 275b a63b 728a a73c 06a2 b4bb 7cbf 05bb
00000010: c66c e3bc 1f11 21bd 92eb e53c d642 5a3d
00000020: 281c 8abc 8a75 583d c0ba 21bc f057 493d
00000030: bae7 fcbc beaf 57bb 8e7a 0bbd 5613 d43c
00000040: 3373 343c 840c e039 91b9 0d3d 06c7 54bc
00000050: ddac 91bc d9e5 903b 78b3 22bd 84e9 febb
00000060: 5d9f a23c ac66 83bc 9d56 5cbd 5111 4dbb
00000070: 97ac 9abc 3bbf 14bd af5d 42bd 9e31 e33c
00000080: 328b 98bc 2638 c8bc 5410 20bd 03b4 003d
00000090: 47cf e43c d3ff 7a3c cf50 413d 53c5 403d
000000a0: fd4b 21bc 8b5a a43c 05ad 403d 58cb 0f3d
000000b0: 8519 a83d 8fb1 bf3d 46bf c53c f3c3 0c3d
000000c0: 4f96 04bd 1696 d73b fa04 2b3c e279 54bd
000000d0: 0ccc 3d3b f98e 9f3b 35a4 ecbc 6f6e cb3c
000000e0: dc36 393c 41ad 51bd 4dfe 4e3d 32a0 8d3d
000000f0: aa79 4c3c 8583 b73d a525 86bc b247 463d
00000100: 7664 56bd d32a e7bc 92a4 5c3b 0cea 7b3c
00000110: 9cb6 2e3d 3fd8 5c3d a889 d43c 74ab 903a
00000120: a1d9 883d 84ca 2ebd e9e2 f03c 1edb bb3d
00000130: 03ae 863d ba65 c23c eefb 993c 21e9 db3c
00000140: db62 003a 51e9 37bd 32b7 373d 6328 a2bc
00000150: d102 feba 3bb7 183c d9e1 2bbc 4317 1bbd
00000160: 2df1 21bc e446 8dbd 9c4a df3c 9ada 073a
00000170: 8ffb 363c 0dc5 bd3d 4cf5 d33c fa0a 3cbd
00000180: af26 4c3c 51ec 303d 41b4 7f3c 4f47 83bd
00000190: bddb 0f3c 4513 033d 3656 7e3d c563 473d
000001a0: 1e5f b0bc 6668 2cbc f0e2 403b f6a6 3a3c
000001b0: ea83 9cbc 939c 0a3c b155 a63c e441 20bd
000001c0: bdb2 5e3d 7888 62bd 6b72 133b c3a9 bfbc
000001d0: 49b4 d13d d2ed 0cbd 724a 073d 31f2 313d
000001e0: 2380 6ebd e7d6 f7bc 08c8 09bd 39b9 0dbd
000001f0: 8cc6 e63d b01b 803d f84f 21bd d592 d7bb
00000200: 65a8 083d d638 f03b d861 cb3d 30fa c2bd
00000210: 8a84 6c3c 6ee8 02bd 85b1 ffbb d071 f63c
00000220: 08ff 05bd 1eac 1d3c 1a7d 17bc 45bb e8bb
00000230: 682b 1abe 45c9 ac3b 169e 76bd b809 b7bc
00000240: ba35 db3b 1d7a 0fbd d6d0 a5bd 4793 a0bd
00000250: b9ff bb3c 1f63 0abd 5de8 703b be72 b13a
00000260: 089c 8f3c c677 ad3d c772 03bd e9ef 343d
00000270: 4b3c 46bc f56d ec3a b8ff 7f3d a0dc 8b3c
00000280: 2602 e23d a0ca f0bb 11f5 fbbb c9f8 8fbc
00000290: f3ba 3abd 995c a3bd a850 c7bc 9095 17bd
000002a0: 094d 013d a154 3fbd 905a 88bd 1761 b2bc
000002b0: c89c a13c 594c 983c f248 3fbd ae35 2c3d
000002c0: 4379 983c a65e 943d d1ca 283d b3d6 19bd
000002d0: ff6a a7bd 7ed4 ba3c c82d ab3c 444e 153d
000002e0: 9e3f 003b 09ff 20bc b951 73bc dd81 3c3b
000002f0: eafb bbbd ae29 143c 4843 123d b8c6 c8bd
00000300: d560 2b3d 3652 1a3b c67f 2c3c 2536 0ebd
00000310: 1f90 1c3d 2430 d7bb 2d79 053c bde0 1ebc
00000320: 5338 d63c 2cfa 553c 6a1f 3c3d fb86 973d
00000330: bc31 423d 742d 0dbd 30fb 1b3d 59b4 81bc
00000340: 622a 10bd 2856 f9bc f769 35bd f74b 5abd
00000350: ce71 ed3b 5725 4d3d bfb5 473d c841 813d
00000360: 606b 6d3c 17b4 983c cace 92bd ef90 5038
00000370: 2180 fcbb 727b 013c 205f 97bc 4f80 d0bc
00000380: 8baa 3d3c 9188 8c3d 3abc c8bc 3b48 023d
00000390: 14a8 253a bcb2 823c 9a69 153d 8224 89bb
000003a0: 6866 98bc a40a 29bd 57b8 28bd f415 8f3b
000003b0: 8490 18bc 7067 033c f521 09bc 5b1a b73c
000003c0: 6696 393c 0717 3b3c b8d7 edbb a795 8bbc
000003d0: 881a 01bd 08be 3b3d b997 40bd c3ca 8a3c
000003e0: e989 18bd 043c 2f3d 4cc6 04bd 5222 9cbd
000003f0: bd4b b13d f004 f5bb 65f1 36bd 7669 923d
0.005076784 0.020451758 -0.0055124788 -0.0020408323 -0.027761828 -0.03932297 0.02806643 0.053286396
-0.01685913 0.05284647 -0.009871185 0.04915613 -0.030872215 -0.0032911147 -0.034052424 0.025888126
0.011013794 0.00042733934 0.034600798 -0.012986904 -0.017782623 0.004421931 -0.039721936 -0.007779302
0.019851381 -0.016040169 -0.05379354 -0.003129084 -0.018881125 -0.036315184 -0.047452625 0.02773362
-0.018621061 -0.024440836 -0.03907807 0.031421673 0.027930869 0.015319782 0.047196206 0.047063183
-0.009844777 0.020062706 0.047040004 0.035106033 0.082079925 0.093600385 0.024139058 0.03436656
-0.032369908 0.006579171 0.010438198 -0.05187405 0.0028960733 0.0048693386 -0.028886894 0.024832932
0.011304583 -0.05119062 0.05053549 0.069153205 0.012480179 0.08960632 -0.016375372 0.048408218
-0.0523419 -0.028218662 0.0033667427 0.015375625 0.04265462 0.053917166 0.025944546 0.0011037425
0.066821344 -0.042673603 0.029405074 0.09172653 0.06576159 0.023730148 0.018796887 0.026844563
0.0004897543 -0.044900242 0.044852443 -0.019794649 -0.0019379501 0.009321029 -0.010490858 -0.03786398
-0.009884161 -0.06898287 0.027257256 0.00051824155 0.011168375 0.092661 0.025873803 -0.045908906
0.012460395 0.04319412 0.015606941 -0.064100854 0.008780417 0.0320008 0.062093936 0.048679132
-0.02152973 -0.010522937 0.002943214 0.011392346 -0.01910587 0.008460182 0.020304533 -0.03912534
0.054369677 -0.055305928 0.0022498618 -0.023396378 0.10239465 -0.03440649 0.03302998 0.043443862
-0.05822767 -0.03025384 -0.03363803 -0.03460047 0.112683386 0.06255281 -0.039382905 -0.006578783
0.03336372 0.007330994 0.099307716 -0.09520376 0.014435897 -0.031959943 -0.0078031444 0.030083567
-0.03271392 0.0096235555 -0.009246135 -0.0071024024 -0.1505562 0.0052730166 -0.060209356 -0.022343501
0.0066897543 -0.035028566 -0.08096473 -0.07840591 0.022949087 -0.033785935 0.0036759593 0.0013538224
0.017530456 0.084701106 -0.032091882 0.04417411 -0.012099336 0.0018038141 0.06249973 0.017072976
0.11035566 -0.0073483735 -0.0076891263 -0.017574685 -0.045588445 -0.07976646 -0.024330452 -0.03700787
0.031567607 -0.046711568 -0.066578984 -0.021774812 0.01972808 0.018591093 -0.046700425 0.04204338
0.01861251 0.07244615 0.041209046 -0.03755827 -0.08174705 0.022806402 0.020895854 0.036451593
0.0019569169 -0.00982643 -0.014851027 0.0028763928 -0.09178908 0.00904314 0.035708696 -0.098035276
0.041840393 0.0023547537 0.01052851 -0.034719605 0.038223382 -0.006567018 0.008146566 -0.0096971365
0.026149904 0.013060134 0.045928396 0.07398792 0.04741071 -0.034467176 0.038081348 -0.015833067
-0.03519667 -0.03043659 -0.04429051 -0.053295102 0.0072462326 0.05008444 0.04875731 0.06311375
0.014490932 0.018640561 -0.07168348 4.9726044e-05 -0.007705704 0.007902967 -0.018477976 -0.025451807
0.011576305 0.068619855 -0.024503816 0.031807166 0.0006319296 0.015954368 0.036477663 -0.0041852603
-0.018603519 -0.041269913 -0.041191425 0.0043666307 -0.009311799 0.008020267 -0.008369912 0.022351434
0.011327362 0.011419064 -0.0072583817 -0.017039133 -0.031519443 0.045835525 -0.047019694 0.016942387
-0.037240896 0.042781845 -0.032415673 -0.076237336 0.08657024 -0.0074773952 -0.044663806 0.07149021

conv2.weight f4 [64, 32, 4, 4]
00000000: e7f5 123c 7fdc c8bd 210e 053c 06cc d8bd
00000010: 9232 eebc 827e 883b 54b1 893d aea5 a33a
00000020: f70b d83d ffd7 cbbc e20c 2cbd 2057 a2bd
00000030: ba01 28bc a05a 493d 8e96 a53c 579d cd3c
00000040: 24b6 bbbc 9d0e 883c fc82 133c ef63 783d
00000050: a246 3d3d a9bf b33d d9f5 16bc e629 d2bc
00000060: 19db ad3d bf47 9d3c 8a81 3ebd 6c88 52bd
00000070: 885d 773d 6694 623d ab9d 40bd 6330 9c3d
00000080: fe38 7f3d e4ae fc3c 60ac 60bc 331b 8ebd
00000090: de8e de3d d397 02bd a08b 193e b295 a9bd
000000a0: b5e2 55bd cce3 f63b df23 50bb 0978 8d3d
000000b0: f971 ffb8 500a 3bbd 273a eabb b759 263d
000000c0: a1e7 22bc 668d b43d 1d66 42bd 7b9c 30bc
000000d0: 1833 1c3d ced7 683d d8b4 813c b8f3 b23d
000000e0: 3988 a93d 6233 84bd b638 3d3c 6238 4bbc
000000f0: 690a 3dbd 339c 8f3b 0085 59bd df20 3d3d
00000100: 7d0b ecbc 0c95 843b 6e6d e33c 32a7 473d
00000110: 0a79 a13d 085f cebd 9713 4e3c 2502 2ebd
00000120: 4925 43bd c70c 883c 7833 983d 1043 b2bd
00000130: 1e88 b03d 78bb dd3c 0fd9 ba3d ac50 413d
00000140: 12be ad3c 0eb1 bcbd 01cc dc3d b5c6 813d
00000150: 2e9d 1d3c 1bad 673d e77d 933c 2608 bc3c
00000160: 4565 e7bd 491e af3d a180 c7bc 192a 9b3c
00000170: 9ab3 673d 7421 6e39 bd33 5c3c 793a 263d
00000180: fd6c 553d 736f 3e3a ea9e 803d fb71 f63b
00000190: d66c b13c 90c3 74bd 6c96 883c 6a81 003e
000001a0: a6da 123d 4f3f 533d 73d4 9e3c cdff 143c
000001b0: e77e fd3b 3a27 573c 3803 65bd b481 b73c
000001c0: ae41 8abc ce9c 113d 7145 1f3d 1b4e 28bd
000001d0: ed8e 2cbd 8a83 303d bc2a b33c 09ed c03b
000001e0: 045b 213d ed78 c23d 6f3a 37bc 98e3 a7bc
000001f0: 67f1 803d f1ba 4d3d c195 73bd 3b00 9fbd
00000200: 2ecf 693d e7d9 573d d5c0 703c a814 82bc
00000210: 5d86 6abc 49f3 083b 6722 113d 9108 93bd
00000220: bdcc 633d 2334 28bd 4d00 70bc 72d8 b6bc
00000230: 4b24 063d 190b 10bd e12d f1bd 3f70 da3c
00000240: b81f c83c 4e14 9abd a448 64bd e733 c9bd
00000250: 979b babc d168 ec3d 6890 3d3c 77f9 253d
00000260: 35e1 2dbd 8cb9 773a b829 333d a60a 3dbc
00000270: 87fc 02bd 8413 883d 539a abbc 7aed c7bc
00000280: 3d6a 833d 53b3 5bbb c0df 7dbd 26d1 903c
00000290: d549 2e3d ad10 16bc 3222 f4bc c9e4 c43c
000002a0: b2af 913d 4d83 89bd c968 1a3d 1cf7 69bc
000002b0: 6cf9 dc39 f2e1 643c 8f12 cebd 5470 f0bc
000002c0: 8acb 1d3d 2d57 9fbc f5da c13a bf95 2abd
000002d0: 17a3 3c3e 5b94 1ebc dfb9 093d d109 133b
000002e0: 83ae a33d cbcc a23d b0ca e7bc 34aa 32bd
000002f0: c597 9a3c 255d 37bb 3cb0 53bd e864 8f3d
00000300: 1214 503d 9667 46bc ac5d 093d 1d50 013b
00000310: e870 02bc 3727 7c3d d3e9 f83c 58ec 13bc
00000320: 8697 403d f84a 6cbc 05dd 0ebd f481 97bb
00000330: bf77 dcbc 9c42 04be 66ab 15bd b760 c6bc
00000340: 7c1a f83c 3b36 94bd 1127 79bc 3148 b2bc
00000350: d417 fb3d 2510 7d3c fc99 44bd 513a 513d
00000360: 2d10 51bd 20a9 63bd 7b25 11bb c73a 88bd
00000370: 814d 443d 5c5d c4bd 2f46 bd3d 9a1b 61bd
00000380: 8cf9 3f3d ee39 183d 00d1 0cbb d458 683d
00000390: 45a5 a0bb 74a6 713d 8185 783d 479c 12bd
000003a0: a1e6 7c3d f876 8cbd e16a 14bd 6214 e8bc
000003b0: 52d9 01bd 93d2 f73d 8758 8abd ae3e bb3d
000003c0: 38a7 e6bb f083 f03c 16f9 a4bc 0627 013d
000003d0: e346 963c 2343 febd a243 e73d 3bc6 4f3b
000003e0: e61a c63d 4e4d 063d 9159 21bd bc34 013d
000003f0: 9d87 a1bc 2d1b eeba 5a6e 443d 1a81 eebd
0.0089697605 -0.09807681 0.008121044 -0.105857894 -0.029076848 0.0041654715 0.06723276 0.001248529
0.10549157 -0.024883268 -0.042004474 -0.07926774 -0.010254318 0.049158692 0.020213392 0.02509944
-0.022914 0.01660853 0.009003397 0.06064218 0.04620994 0.08776791 -0.009213888 -0.025654744
0.08489055 0.01919925 -0.046510257 -0.051399633 0.060391933 0.055317305 -0.047025364 0.076264165
0.06231021 0.030845113 -0.013712972 -0.069387816 0.108670935 -0.031883072 0.14994669 -0.08280505
-0.052218158 0.0075344797 -0.0031759662 0.069076605 -0.000121805766 -0.04566413 -0.0071480456 0.040612902
-0.00994292 0.08816032 -0.047460664 -0.010779495 0.038134664 0.056846432 0.015833303 0.08737892
0.082779355 -0.06455113 0.0115491655 -0.012403579 -0.046152506 0.004382634 -0.053105354 0.046173926
-0.028814072 0.004046088 0.027762141 0.048743434 0.078844145 -0.100767195 0.012577913 -0.042482514
-0.04764298 0.016607655 0.07431692 -0.087041974 0.08619712 0.027066931 0.09123432 0.047196075
0.021208797 -0.09213458 0.10781098 0.063367285 0.009619994 0.05656157 0.01800437 0.022953104
-0.112986125 0.08550698 -0.024353327 0.018940972 0.056567766 0.00022709911 0.01344007 0.040583108
0.052105892 0.0007264532 0.062803105 0.0075209117 0.021658342 -0.059756815 0.01667329 0.12549368
0.03585305 0.051574048 0.019388413 0.009094191 0.007736075 0.013131911 -0.055911273 0.022400714
-0.016877022 0.03554993 0.038884584 -0.041090112 -0.042128492 0.043094195 0.021870963 0.005887632
0.03939344 0.09495721 -0.011183365 -0.020494267 0.06296044 0.05022711 -0.05946899 -0.07763716
0.057082348 0.052698042 0.014694412 -0.01587899 -0.014314261 0.0020896962 0.0354332 -0.07179368
0.055615176 -0.041065346 -0.014648509 -0.022320006 0.032749455 -0.035166834 -0.11776329 0.026664851
0.024429187 -0.07523404 -0.055733338 -0.09824353 -0.02277927 0.1154343 0.011570074 0.04052111
-0.042451102 0.0009449951 0.043740958 -0.011538183 -0.03197911 0.06644347 -0.020947611 -0.02440523
0.06416748 -0.0033523634 -0.061980963 0.017677855 0.04255088 -0.009159249 -0.029801462 0.024034875
0.07113589 -0.06714497 0.037697587 -0.014280107 0.00042147504 0.013969885 -0.100621335 -0.029350437
0.038524188 -0.019450748 0.0014789986 -0.041646715 0.18421589 -0.009678925 0.033624526 0.002243627
0.0799227 0.079492174 -0.028294891 -0.04361935 0.018871197 -0.0027979102 -0.051681742 0.07001668
0.05080039 -0.012109658 0.033536598 0.001973159 -0.007961489 0.061560836 0.030384934 -0.009028517
0.047019504 -0.014422171 -0.03487875 -0.004623646 -0.026912568 -0.12916034 -0.03654041 -0.02421604
0.030286066 -0.07236906 -0.015207068 -0.02176294 0.12260404 0.015445744 -0.047998413 0.051081005
-0.051040817 -0.055581212 -0.0022147584 -0.06651836 0.047925476 -0.095881194 0.09241902 -0.054957964
0.046868846 0.03716462 -0.0021486878 0.056725338 -0.004902514 0.058996633 0.060674194 -0.03579357
0.061743382 -0.06858629 -0.03623474 -0.028330032 -0.031701393 0.12100711 -0.067551665 0.091428146
-0.007038977 0.029359788 -0.020138305 0.031531356 0.018344348 -0.12415149 0.11292197 0.0031703848
0.09673099 0.032788567 -0.039392058 0.031544432 -0.019717986 -0.0018166058 0.047956802 -0.11645718

conv3.weight f4 [64, 64, 3, 3]
00000000: d283 71bd 1cae 093d a33c 493d 4325 13be
00000010: 68b8 b5bb 1edd 053c a401 1cbe ba85 50bd
00000020: d155 aebb 09d1 e93c 6994 dcbc 2476 50bd
00000030: 7532 94bd 1705 c4bc 7421 1d3d ec67 9a3b
00000040: 0aa5 7bbd e0ed abbd 0d9f 313d f419 9e3c
00000050: e638 bb3b d003 ab3d 39f5 663d a6b2 093b
00000060: 8159 063c 51bb 96bc 87ac 45bc 7437 10ba
00000070: 1ca8 583d a77e 03bb fbed 4e3c 7e47 d6bc
00000080: 7585 c23c 39d4 d33d 2e6f a3bc 72b8 753d
00000090: 6337 603a 6d65 9d3c 1d92 243c 68eb 4cbd
000000a0: 6858 63bb b078 1bbd 6708 b43c 55f3 0dbd
000000b0: c6b0 5bbc 9841 f2bc 99dc 863d 4464 d0bd
000000c0: a434 e6bd 3a3e 073e e7eb c6bc d543 a33b
000000d0: 57ca 563c db7d 2b3d 160f 46bd 1629 48bd
000000e0: 2285 a5bd 38a4 9ebd a0db 833d 1113 46bd
000000f0: f802 703d d311 283d 8c6c 723d 5edf b5bd
00000100: 3bf5 1a3d 7625 e53c 5ddb 313d a7d0 b13c
00000110: db9b 823c 200b aa3d e581 343d 83a8 953d
00000120: dada b83d a878 913c 16a6 673d 6217 a0bc
00000130: e689 67bc 6768 0f3a d39d 89bd 62d4 99bc
00000140: 9cdb 5b3d b04e ee3c c583 953b 3abc d3bc
00000150: 27ad 993d 4489 823d 5efd 5cbd 6773 32be
00000160: a058 81bd ffd4 993c 966a 47bd 186b 233c
00000170: bec8 89bd 8707 833d 78e5 063c 4907 8e3c
00000180: ac66 66bd 06fb c83d b4af 1b3d 79f1 a43c
00000190: b98d 903d 5cca 82bc a8a4 cc3d 152b f53d
000001a0: f81c f63c 13f0 9f3c 1ebd f13c b717 b13d
000001b0: bc82 efbd 8bd0 473d e7a4 8d3d bd6f a7bd
000001c0: 505e c43c 7f28 bfbc 0093 0b3d 9e57 223d
000001d0: 6665 b33b cab7 5fbd 559e 35bb f154 8639
000001e0: 356d 2fbd 024f 17bd c240 1fbd 2b1f a33b
000001f0: e6d7 913d b07e 82bd 1c1f e2bc 3e0c 05bc
00000200: 6a36 0dbd d0f9 833d db7b 77bc 644e 8bbd
00000210: d974 34bd 34b3 a53d 01dc 84bc ded0 62bd
00000220: eb2a bdbd 4f3f f1bc 530a 34bc 9ef8 333e
00000230: 3f24 883d 60e7 a63d be39 433c dc0a 81bd
00000240: 15eb b0bd edab b6bc 8775 993d de6a 47bd
00000250: fa25 4cbd c77a a1bc 478a 94bc 409f c3bd
00000260: f5f5 9ebc 9137 e2bd 0c1a 1ebd a3ed a8bd
00000270: e960 7dbc 5e3d 953c 3309 44bd ed99 26bc
00000280: 4215 c0bc ba5d 83bd e417 db3c 7394 a03d
00000290: cb23 19bd 0763 43bd 76f0 be3b 6951 d13c
000002a0: 7d7c 7a3d 3029 8c3c 1211 5cbd 9184 f53d
000002b0: 6e79 203c 2baa 723b a256 15bd 61db c9b9
000002c0: ad64 d0bc b3e8 e43c aa59 97bd 6ca6 b1bd
000002d0: d137 b53d 8ec5 d43d 5e2d c43d 8515 1cbd
000002e0: da07 5c3b 74e4 42bd ac73 583c e491 fdbd
000002f0: 4a67 9c3d ab5b d73c 216c 063d 1232 a3bc
00000300: 60cf 403d 5dc6 9abc 041c 07bd caeb 17be
00000310: 561f 6a3d 2cc2 0dbd 65e9 d6bc b1b4 f2bb
00000320: 2321 3d3d 0b61 bdbd 01a7 5cbd cad2 da3c
00000330: 8bee 693d 2136 60bd 3cba 1bbe 7ffe f6bc
00000340: f690 38bd 9a29 853d 6b4a 65bd fdec ef3c
00000350: 1bf9 913c eea4 003d ad05 253d f9ac c5bd
00000360: f65f ac3c dfb7 9bbd e672 7bbd 0d6c b43b
00000370: 2b29 be3c 51c2 d7bc 7cb6 a1bd 76e5 ac3c
00000380: 024d 673c 5879 22bd f4de 683d d1dd f0bc
00000390: 2254 b43c 53f5 67bd 7e25 d43a 4b5d f2bc
000003a0: 8cd0 70bc 69e7 a13d 033e 9e3c 7c9d 57bd
000003b0: 59ce 63bd 75a3 3f3d 3f54 c0bc 5361 b5bc
000003c0: b586 fd3b 6b10 8cbd c209 043d bfab d33b
000003d0: a7ee 29bd 5753 d13b 81d0 593c 011d 693d
000003e0: 7630 71bd fd02 473d 0784 b2bd a7c5 42bd
000003f0: d7a8 52bc 8caf b83d 7eb8 363c 468d d73c
-0.058963604 0.03361331 0.049130093 -0.14369683 -0.0055456646 0.008170394 -0.15235001 -0.05090878
-0.0053202887 0.028542059 -0.026926236 -0.050893918 -0.072361864 -0.023928208 0.03836198 0.0047120955
-0.06143669 -0.083949804 0.043364573 0.019299485 0.00571357 0.083503366 0.056386206 0.0021011024
0.00820005 -0.018399866 -0.0120650595 -0.0005501427 0.052894697 -0.0020064504 0.012629981 -0.026157137
0.023745278 0.10343213 -0.019950476 0.059990354 0.0008553175 0.019213403 0.010044602 -0.05002919
-0.0034690145 -0.037956893 0.021976663 -0.034655888 -0.013408845 -0.029572293 0.065850444 -0.10175374
-0.11240509 0.13207331 -0.024282409 0.0049824514 0.013109765 0.041868072 -0.04835423 -0.048867308
-0.08082034 -0.07746166 0.064383745 -0.048358027 0.05859658 0.041032623 0.05918555 -0.088804945
0.037831526 0.027971964 0.04342209 0.021705939 0.015943458 0.08302903 0.04406919 0.07307532
0.090261176 0.017757729 0.056554876 -0.0195424 -0.014131999 0.0005470574 -0.06719556 -0.01877803
0.053676233 0.029090255 0.0045628273 -0.02584659 0.07503729 0.063738376 -0.053952567 -0.17426835
-0.06315732 0.018778322 -0.048685633 0.009974264 -0.06727742 0.0639792 0.008233421 0.017337458
-0.05625026 0.09813504 0.03800936 0.020134674 0.070582815 -0.015965633 0.09992343 0.11971108
0.03004311 0.019523656 0.029509123 0.08647101 -0.116948575 0.048782866 0.06916218 -0.08175609
0.023970753 -0.02333474 0.034075737 0.03963434 0.005474734 -0.054618634 -0.0027712781 0.00025621758
-0.042828757 -0.036940582 -0.038880117 0.0049780807 0.071212575 -0.0637182 -0.027602725 -0.008120595
-0.03447572 0.06444132 -0.015105213 -0.06802061 -0.044056747 0.08090821 -0.016218187 -0.055374973
-0.092367016 -0.029449133 -0.01098879 0.17575309 0.066475384 0.081496 0.011915622 -0.063008994
-0.08638588 -0.022298777 0.0749312 -0.0486859 -0.049840905 -0.019711865 -0.018132342 -0.09551859
-0.01940439 -0.11045755 -0.03859906 -0.082484506 -0.015465 0.018217739 -0.047860336 -0.010168535
-0.023447637 -0.06414361 0.02674479 0.078408144 -0.03738765 -0.04770186 0.005827005 0.025551515
0.061153878 0.017109483 -0.053727217 0.11988176 0.009794576 0.0037027698 -0.036459573 -0.00038501158
-0.025438631 0.02794299 -0.07390149 -0.086743206 0.08848537 0.10389243 0.095789656 -0.03810646
0.0033574016 -0.04758115 0.013211172 -0.12381342 0.07636888 0.026288828 0.032817964 -0.019921336
0.04707277 -0.018893415 -0.032985702 -0.1483604 0.05715879 -0.034609005 -0.026234338 -0.007406794
0.04617418 -0.09247025 -0.053870205 0.02671184 0.057112258 -0.05473912 -0.15207762 -0.03015065
-0.04506012 0.065020755 -0.055979174 0.02928781 0.017818978 0.03140729 0.040288616 -0.096521325
0.021041851 -0.0760343 -0.061388873 0.0055060447 0.02321299 -0.026337774 -0.07896134 0.02110551
0.014117481 -0.039666504 0.05685325 -0.029402645 0.022012774 -0.056630444 0.001618549 -0.029585501
-0.014698159 0.07905466 0.019316679 -0.052640423 -0.05561671 0.046786744 -0.023477672 -0.022141134
0.0077370056 -0.06839069 0.03223587 0.0064596827 -0.041487362 0.0063881087 0.01329434 0.056912426
-0.058884107 0.048586834 -0.087165885 -0.047551777 -0.012857637 0.09017858 0.011152385 0.026312482

value.weight f4 [1, 3136]
00000000: f623 9f3c 9b21 45bc 3fa0 8e3b c8e8 5f3c
00000010: 4a76 f4bb 6cfa 51bc fc1d d0bb 079a 55bc
00000020: 637a ecbb fdb6 873c 9178 69bc bc81 64bc
00000030: c389 d4bb 1c22 4fbc 2fa7 943c a7ec 33bc
00000040: e64d f83b 6412 97bc ec76 1fbc e9ce 2a3b
00000050: ad54 a13a 1578 023d 8a18 323d 09af b03b
00000060: f61a 083c 9e08 363d 7e27 353d 5534 0d3c
00000070: 5f6d d13b cd9c 9a3c 15c6 b93c fda9 cbbc
00000080: 3d2f 0bbd 8580 c43b c673 523b 605d 8cbb
00000090: 178a 86bc 2106 873c 15b3 f0bb 4f41 02bc
000000a0: a647 75bc 44ce 1cbc 13d1 e0bc 7ba6 963c
000000b0: c904 dcbc 62b9 4ebc 3140 b43b e9d3 43bc
000000c0: 41bc 22bc d5fe fbba 29b3 403c 39e2 a1bb
000000d0: cb04 323c 9016 523c 8d7b 2cbc ec85 a13c
000000e0: 8fde 813b 2412 b2bc 00a8 23bc a6e2 a1bb
000000f0: 869b c8bb f86e b03c c035 a3bb 4c1c 48bc
00000100: e617 403c 6d3d 68bc c48e 023c 4ec0 473c
00000110: d5af 26bb b09f 32bc cbcc cc3c 6317 10bc
00000120: 25d2 14bc b803 18bd 094a 193c 01fb 05bd
00000130: d2ca 093d 4026 2abc 8a87 f23b c6d7 903c
00000140: 250d 8ebc d116 93bb 09f1 6bb9 9e32 fb3c
00000150: 1429 f9bb 7b03 3b3c 2a1d 713c 727f 60bc
00000160: 1576 573b 7ff4 8e3b a88f 533c 1076 95bc
00000170: 7a28 c13c d4e5 153a 4e10 2fbc 0a98 00bc
00000180: 3442 3d3c 4038 1cbd 3525 763b f0a8 9fbc
00000190: f464 3d3b d178 893a 6749 57bc d316 2d3b
000001a0: e2a6 473c 901b 893c 318d bc3c 545a 833c
000001b0: a373 233c 25a9 e53c 81b0 453d da89 003d
000001c0: db3f de3c 0149 013b ea98 9f3c 6678 983b
000001d0: 0ebd b53c f419 893c b992 8ebc b967 1ebd
000001e0: b15a cebb 5ace b8bc d02d ccbc 7b2a dabc
000001f0: 652f 03bd 9397 5dbc 48f3 983a 82e1 7a3c
00000200: 180f e53b 5ea6 063c 3bb7 cb3c 2569 01bb
00000210: c214 96ba dae4 eb3b 037a 6d3c 8bdf 3b3c
00000220: d9a2 183c 5776 d3bb c9e3 b738 3d0c 6e3c
00000230: 9fda ae3c e58d 233c 6550 973c 0c9b ac3b
00000240: b60d 57bc 9753 b83c a059 b93b 38c3 8ebb
00000250: 97d5 3ebc 1853 c6bc b589 aa3b 4f67 613c
00000260: f650 253c b6d4 37bc e554 2b3c 976d 84bc
00000270: 2359 5e3c 8f15 24bb 85ac 7c3c 2e55 f2bb
00000280: d19e 2d3b 341f 01bc a997 dc3c 0f94 18bc
00000290: 861f 513c 7366 043c 7366 873c 5af0 d1bc
000002a0: 3909 7d3d 10c1 443d d6c1 1b3d 2898 fabc
000002b0: f75e 0d3d 730e 303d 5fd0 1e3d 6002 cfbb
000002c0: 8bd6 8fbc 1da4 8bbc dc4e 65bc fae2 dcbb
000002d0: c830 f5bc 9871 b1bc 4548 d9bb eceb adbc
000002e0: d069 0f3b dcf7 14bc 6d17 993b 1c57 9fbc
000002f0: 7d2a dcbc 68cb cabb 77a5 97bc fabf 7ab9
00000300: ea09 603c 22f2 d1bb ae5d 5b3c 32f3 073d
00000310: 3670 d7bc 3ad3 013d f7de 593c 4891 393c
00000320: ec83 7ebc 81b1 01bb bf91 a93b 6e41 86bc
00000330: 41e0 303c 2fb6 1c3b 5809 3439 8683 94bc
00000340: f405 f8bb 03b5 5cbc a010 e83c 9473 043d
00000350: 62eb 5bbc da7d cf3b 57cc b43c 89ed 95bb
00000360: 08ae 9fbc e6f8 6f3d efb0 c03c 3a0d 66bd
00000370: 50a2 573c 3b6d 1abc 5992 2c3d 9a05 0f3d
00000380: a472 103c 004d 0bbc 679d 86bc 4af0 2b3c
00000390: c5c8 b73b c8c6 523c d246 49bc bb57 eabb
000003a0: bb22 a7bc 4d49 bfbb cc2c 803c d510 0d3a
000003b0: df06 1c3c 589e 7fbc 8c66 7dbc 8621 f8bb
000003c0: 004b 0fbc 7291 7bba 4885 973b f3ab 4fba
000003d0: 16b8 6bbb 1a23 88bb 2924 2f3b 7c9c 98bc
000003e0: 8c2c 7abc 03f8 ac3c 6ba2 ad3a f702 f2ba
000003f0: 5b3a 73bc 5477 2a3c d62a 533c 8fa5 a8bc
0.019426327 -0.012031938 0.004352599 0.013666339 -0.00746039 -0.012816053 -0.0063512307 -0.013037211
-0.007216738 0.016566748 -0.014249937 -0.013946947 -0.006486149 -0.01264241 0.018146126 -0.010981715
0.0075776456 -0.018441387 -0.009732943 0.002606327 0.001230856 0.0318528 0.043480434 0.0053919596
0.008307209 0.04444181 0.044227116 0.008618434 0.006391212 0.018873597 0.02267746 -0.02486133
-0.033980597 0.005996766 0.0032112463 -0.004283592 -0.016423268 0.016482415 -0.007345567 -0.007950141
-0.014970696 -0.009570662 -0.027443444 0.018389931 -0.02685775 -0.012617441 0.0055008163 -0.011952379
-0.009932579 -0.0019225726 0.011761465 -0.004940298 0.010865401 0.012822762 -0.010527504 0.01971718
0.0039632986 -0.021737166 -0.009988785 -0.0049403487 -0.0061220555 0.021537289 -0.0049807727 -0.012213778
0.011724448 -0.014174801 0.007968608 0.012191845 -0.0025434394 -0.01090233 0.024999997 -0.008794638
-0.0090833055 -0.03711292 0.00935603 -0.03271008 0.03364069 -0.010385096 0.0074014114 0.017681014
-0.017340252 -0.004488804 -0.00022501139 0.030663785 -0.007603774 0.011414404 0.014716426 -0.01370226
0.003287678 0.0043626423 0.012912668 -0.018244773 0.023578871 0.0005718146 -0.01068504 -0.007848749
0.011551429 -0.03813958 0.0037558798 -0.019489735 0.0028899284 0.0010488277 -0.013140059 0.002641131
0.012185784 0.016736776 0.023016544 0.016034283 0.0099763 0.028034756 0.04826403 0.031381465
0.027130058 0.0019727352 0.019482095 0.0046530245 0.022184875 0.016736008 -0.017403947 -0.038673136
-0.0062974324 -0.022559334 -0.024924189 -0.026631584 -0.03202762 -0.013524908 0.0011669183 0.015312554
0.0069903247 0.008218376 0.024867645 -0.001974651 -0.0011450278 0.007198912 0.014494422 0.011466871
0.00931617 -0.006453316 8.768548e-05 0.014529285 0.021344481 0.009982561 0.018470952 0.0052675065
-0.013125828 0.022500796 0.005656436 -0.004356768 -0.0116476035 -0.024209544 0.0052044042 0.013757541
0.010090103 -0.011220148 0.010457252 -0.016165538 0.013571057 -0.0025037264 0.015421991 -0.007395408
0.0026492367 -0.007880975 0.026927786 -0.009312644 0.012763863 0.008081066 0.016528344 -0.025627304
0.061776374 0.04803568 0.038026653 -0.030590132 0.034514394 0.04298253 0.038772937 -0.006317422
-0.017558357 -0.017046029 -0.013995852 -0.006740925 -0.029930487 -0.021660611 -0.0066309297 -0.02123066
0.0021883138 -0.009092297 0.004671982 -0.019450717 -0.026875729 -0.0061887987 -0.018511517 -0.00023913375
0.013674239 -0.0064070383 0.013389034 0.033190913 -0.026298624 0.031695582 0.013297788 0.011326142
-0.015534382 -0.0019789638 0.005174845 -0.016388621 0.010795654 0.00239123 0.00017169619 -0.018129122
-0.007569069 -0.013470891 0.02832824 0.032336786 -0.013422819 0.0063321413 0.022070093 -0.0045754355
-0.019492164 0.058586977 0.023521869 -0.056164958 0.013161257 -0.009425457 0.042131756 0.03491745
0.008816395 -0.008502245 -0.016432477 0.010494301 0.0056086504 0.012864776 -0.012284951 -0.0071515716
-0.020402303 -0.0058375956 0.01564636 0.00053812313 0.009523123 -0.015601717 -0.015466344 -0.0075723557
-0.008745909 -0.0009596563 0.0046240427 -0.0007922046 -0.0035967878 -0.004154575 0.0026724434 -0.018629305
-0.01526941 0.021114355 0.0013247257 -0.0018464018 -0.014845456 0.010404427 0.012888631 -0.020586757

advantage.weight f4 [4, 3136]
00000000: d7bc 8ab9 454b 57bb d73c 30bc 059c 0b3c
00000010: ea34 863c 20d6 70bc 6401 3abb 3372 90bc
00000020: 2e98 d03b 1f81 bbbb 4dcd 83bc b9e9 55bb
00000030: 2861 13b9 6a4c 98bc b856 323c bf42 c8bb
00000040: ea0a d1bb ae8f 3abc 6368 ad39 fd34 7fbc
00000050: aaf3 43b9 cc68 113d 0429 6b3c f667 98bc
00000060: fb93 663c 867b 133d 7798 503c da34 27ba
00000070: 1861 73bc a70b 953b 6c76 653c e54a 94bc
00000080: 2ce2 d7bc 4ba7 10bc a64f 8abc 3172 4db9
00000090: 02b8 debb 1bd6 ccbb a54d 463c 85fb 1d3c
000000a0: fb55 66bc e043 aebc 4892 fdbc 465c 233c
000000b0: e87e dbba 5ebd b73a b327 a23c b758 93bb
000000c0: 8032 a03b 084f 52bc d45a 433c 93ed 92bc
000000d0: 47d0 293a 7d9c 7b3c 4723 4e3c 4a29 8b3c
000000e0: 1caa 3d3c 30d4 f3bb fa0e 2b3c 6c12 b63b
000000f0: 1005 22bc f0cc 3039 21d9 00bc b0a8 943a
00000100: 5ca5 9a3b d5d5 023c 3085 c13b db73 85bc
00000110: 3cab d1bb 5a62 39bc b1c6 64bc d25e 723c
00000120: 69cf d9bc 56fc 9ebb d2ba a8bc e55b d03c
00000130: 1d27 b9bb b6d6 3a3c 816f 6dbc f870 a8bb
00000140: 9278 843c 1321 05bc 69e0 29bc 95d2 f43c
00000150: 5882 52bc 9c50 82ba 25d5 4dbc 0a30 3f3c
00000160: 6b3c 263c 27d1 cc3c 9e33 58bc fa84 3fbc
00000170: 35f6 8f3c f308 3aba a2d3 cabb f643 f4bb
00000180: 920a 673c e580 d0bc 83ee f03b a7c2 51bc
00000190: 7510 c7bb 7ecf 50bb 7aa5 813b 21b9 8ebb
000001a0: 5cc5 8cba 514b 12bc 7dcb a63c d411 213c
000001b0: dc7a 5abc 1dd6 8aba b043 9d3c d019 c73c
000001c0: eea3 093c 0f39 9dbb 29bf aa3c 8658 1b3c
000001d0: 7602 6c3b 3407 6c3c e890 45bc d0ee f2bc
000001e0: 2eba b0bb 5cbb 96bc ab5d 72bc c500 3bbc
000001f0: 3e57 a1bc de1d bd3b c97f 49bc c5ee ee3a
00000200: a20a babb 21e0 3a3c 5012 913b 3cc1 05bb
00000210: ace7 8d3c 738d ffbb f63f 913c ffad 61bc
00000220: a454 18bc 2c12 a6bc 8bb2 593c b3d1 a33c
00000230: f8aa efbb cae9 7a3c 7324 1abc 520e 023c
00000240: 705c 893c 77d9 903a d344 5b3c d253 49bb
00000250: d624 993b 2e1e a3bb 6a2c efbb 1d09 58b8
00000260: 4b52 3fbb 2920 bcbb 229b 183a c061 3f3c
00000270: 142d 2b3c c8c6 80bc 3faf 2b3c 8cf6 66bc
00000280: 0df0 0bbb 80d1 a6bc cdcf 56bb 27d3 93bb
00000290: d0e3 3ebc 55a1 03bc 2ae6 8f3c 6bd7 a7bc
000002a0: 8cc2 0a3d e3ba 1ebb 5a92 01bc 9cb1 9fbc
000002b0: 6219 8cbc 0068 cf3c 343f a53c 1f41 7b3b
000002c0: 2773 3ebb e7ac 9f3a 45bc faba a2af 63bc
000002d0: 7b68 bcbc 2436 6dbc a54a 203c 7b12 babc
000002e0: 7bdc ffbb 7fb8 863c b660 e4bb 1753 e3ba
000002f0: 7044 053c ff9c c5bc ac73 353c 9b1a 01bc
00000300: 7c4e a5bc 1ac4 c5bc a70f 6abc 6bfc 163c
00000310: 49fc 8ebc 4128 da3c 069b 4cbc 5296 f7bb
00000320: 6d60 92bb bfb3 643b 7592 f0bb d6d6 00bc
00000330: 5d56 54bc ed4f 5739 43ac d1bc 29b9 e83b
00000340: 3ecf 0ebb c64e eabb 7851 dd3c b8bc 763c
00000350: 33b9 e6bb 8bc7 453c 2a02 b13c 5b63 283c
00000360: 1da9 3abc e7fa ee3c 16c1 203d f03c 0dbd
00000370: 70ff 833c 0d8f 30bc e1df 833c dccc 163a
00000380: a54e a5bc c38a a53b 08c1 4e3b 55fd 9d3a
00000390: c72b 1a3c f20d 063c dcba 233c b587 10bc
000003a0: 5c10 d63b e08c 773c 8f9d d4bb f046 8c3c
000003b0: c3e8 b4bb e7e0 3939 19e6 1ebd a556 b6bb
000003c0: 313f 65bc 52e6 a539 f37c a7bc 3fcd cab8
000003d0: b794 833c 63fc e8ba 922d 86bc 6d4c a0bb
000003e0: cb8a 0d3c ac9c 22bb 9334 96bb 5578 e23b
000003f0: f7ff 233c 14f4 62bc c90f 963c c3e4 9abc
-0.00026462108 -0.003285126 -0.010756693 0.008521085 0.016382653 -0.014699489 -0.0028382177 -0.01763258
0.0063657975 -0.0057221795 -0.016089106 -0.003264053 -0.00014055206 -0.018591125 0.010884933 -0.0061114724
-0.006379475 -0.011386795 0.00033074906 -0.015576598 -0.00018687421 0.035500333 0.014353041 -0.01860426
0.014073367 0.036006473 0.012731663 -0.000637842 -0.014854692 0.004548508 0.014005285 -0.018102119
-0.026352964 -0.008828948 -0.016883682 -0.00019592863 -0.006796838 -0.0062511093 0.012103473 0.009642486
-0.014058585 -0.0212726 -0.030953541 0.00997073 -0.0016746195 0.0014018228 0.01979432 -0.0044966596
0.0048888326 -0.012836225 0.011923511 -0.01793555 0.0006477874 0.015357134 0.012581653 0.016987462
0.011576202 -0.007441066 0.010440582 0.0055563953 -0.009888902 0.00016861013 -0.007864268 0.0011341777
0.0047194194 0.007985552 0.0059057698 -0.016290596 -0.0063985866 -0.011314953 -0.013963387 0.014793115
-0.026588159 -0.004851858 -0.020596895 0.025434444 -0.0056504146 0.01140373 -0.014491917 -0.00514042
0.016170774 -0.008125561 -0.010368445 0.02988557 -0.012848459 -0.0009942236 -0.012563025 0.011669168
0.010146241 0.025002075 -0.0131959 -0.011689419 0.017573455 -0.00070966705 -0.0061897794 -0.0074543906
0.014101641 -0.025452087 0.0073526516 -0.012802756 -0.00607496 -0.0031861956 0.003956494 -0.004355565
-0.001073997 -0.00892909 0.020360703 0.009830911 -0.013334956 -0.0010592375 0.019197315 0.0243043
0.0084009 -0.0047980617 0.020843105 0.009481555 0.003601221 0.014406014 -0.012058474 -0.02965489
-0.005393288 -0.018399887 -0.01479284 -0.011413758 -0.01969492 0.0057713827 -0.012298533 0.0018229118
-0.005677537 0.011405976 0.004427232 -0.0020409366 0.017322384 -0.0077988445 0.017730694 -0.013774394
-0.009297524 -0.020272337 0.013287197 0.019997453 -0.0073140822 0.015314529 -0.009408104 0.007937985
0.01676771 0.0011051138 0.013383108 -0.0030720127 0.0046735806 -0.004977963 -0.0072989957 -5.15069e-05
-0.0029193338 -0.0057411385 0.00058214564 0.01168102 0.010447759 -0.015719786 0.010478794 -0.014096867
-0.0021352798 -0.02036357 -0.0032777668 -0.0045112553 -0.011650994 -0.00803407 0.017565805 -0.020488461
0.03387694 -0.002422028 -0.007908428 -0.01949387 -0.017101947 0.025318146 0.02017174 0.0038338376
-0.0029060335 0.0012182266 -0.0019129595 -0.013896855 -0.022999039 -0.01447824 0.009783422 -0.02271389
-0.0078082657 0.016445396 -0.0069695367 -0.0017343488 0.008133993 -0.024122713 0.011074942 -0.007879878
-0.020179026 -0.02414136 -0.014285958 0.009215455 -0.017454283 0.026630523 -0.012488132 -0.0075557614
-0.0044670613 0.0034897176 -0.007341678 -0.007863721 -0.012960044 0.00020533772 -0.025594836 0.007102151
-0.0021791006 -0.007150504 0.027016386 0.0150596425 -0.0070411204 0.0120715005 0.021607477 0.010277594
-0.011392859 0.029172374 0.03924664 -0.034481943 0.016113013 -0.010776293 0.016097965 0.00057525723
-0.020179102 0.005051942 0.003154816 0.0012053648 0.009409851 0.008182036 0.009993281 -0.008821418
0.006532712 0.015109271 -0.006488509 0.01712367 -0.0055209114 0.00017726758 -0.038793657 -0.005564528
-0.013992117 0.00031642854 -0.020445323 -9.670341e-05 0.016062124 -0.0017775412 -0.016379151 -0.004891923
0.008639048 -0.0024812622 -0.004583904 0.0069113174 0.010009757 -0.013852138 0.018318074 -0.01890791

advantage.bias f4 [4]
00000000: 72d3 f93b 221e 71bb 71fe 7f3c ab12 943c
0.007624083 -0.0036791642 0.015624628 0.018075308
