breakout/model/target_net_state_dict.pt (torch_old, 177756 bytes, 20 tensors)

conv1.weight f4 [16, 4, 5, 5]
0.045051895 -0.057571877 -0.09158392 0.038519718 -0.050704874 0.02166976 -0.03634809 -0.03297206
-0.089957 -0.066063315 -0.001604043 0.009238265 -0.043524362 0.026412927 0.076813124 -0.05619452
-0.0013208836 0.009073734 0.031505845 0.075511284 0.06436802 -0.034715116 0.09669813 0.078070186
0.034017704 0.0879358 -0.08605214 -0.074541405 0.038182504 0.024410427 0.08076707 -0.025110878
0.07553125 -0.0982564 0.06441488 -0.028471373 -0.021332905 -0.06853168 -0.00023254007 0.09150643
-0.06104032 0.020192042 -0.038556527 -0.049620986 -0.061992656 0.050057106 0.065603234 0.07755726
0.04332844 0.056115277 0.008852795 0.006905094 0.09868259 0.049436055 0.034687646 0.07222731
-0.051514138 0.07239983 0.0694103 -0.025610767 0.098925374 -0.07021326 -0.069648325 0.02637557
0.028344207 -0.023172475 0.03711564 0.044671036 0.097921364 -0.043169666 0.08446003 0.09212107
0.04783804 0.07218432 -0.07078405 0.0065710545 -0.036346614 0.018232428 0.07163977 -0.07478221
0.029281013 0.021709725 0.08424275 -0.015629962 -0.06812619 0.07198163 0.0085292235 -0.049676575
0.088657446 -0.07724911 0.054631986 -0.07506295 -0.044279516 -0.07927569 0.06455619 -0.06866492
0.0402653 0.0052381605 0.02256994 -0.06497392 0.09837329 0.024041459 -0.052867413 -0.04705893
-0.05744468 0.010814056 -0.08866938 0.019769624 0.017997123 -0.08501124 0.061431296 0.034599222
0.09180113 -0.07388735 -0.0033807904 0.06286175 -0.0977443 0.012756802 0.06104047 -0.05362853
0.0148066655 -0.0076962486 0.08377855 0.008283891 0.087985285 0.0944602 0.030919261 0.018757619
0.02584172 -0.036850177 -0.057770588 0.095669545 -0.073597714 -0.060131144 0.09099249 0.07843392
0.02254077 0.095527895 0.0756784 -0.09495189 0.049616344 -0.08641855 -0.057425346 -0.012123466
0.0045907125 -0.053546764 0.09087875 0.098410346 0.076362364 -0.023929432 0.041145943 0.003703095
0.025130771 0.014821246 0.08903638 0.030364819 -0.07136178 -0.09976331 0.039342545 0.03463877
0.055270918 -0.03511747 -0.056937933 0.04156805 0.026243292 0.09588262 -0.05567242 -0.006674245
0.041126005 0.02429761 -0.055255473 0.018683992 0.025106125 -0.042621803 -0.014103077 -0.043566763
0.08170951 0.009989463 -0.04646628 0.0014217645 0.046019398 0.048223935 0.08091632 0.014194965
-0.014635816 0.01789733 0.033698954 -0.0030871779 -0.06797451 -0.094168834 -0.035824016 -0.08333035
-0.04578955 0.057191037 -0.004850939 -0.017411873 0.07709991 -0.062084522 -0.014405809 -0.023119591
-0.07528957 -0.028298236 -0.03654611 0.099329434 -0.0828414 -0.023117468 -0.044063795 0.0074854493
-0.035984173 0.0942109 0.012111388 -0.017840482 -0.014676891 -0.0019589886 -0.08948654 -0.048253823
-0.042868126 -0.03240353 -0.09954083 -0.07181492 -0.0058200806 0.0070130005 -0.051655006 0.059652843
-0.08326229 0.03884103 -0.06603265 -0.03213066 -0.09789478 -0.028590634 -0.04607712 -0.008053675
-0.013625875 -0.052494932 0.0779902 0.099922575 -0.03438823 0.046234585 -0.097265504 -0.018758401
-0.013899267 -0.005111471 0.08513323 0.0012812018 -0.06780341 0.011338256 -0.05878259 -0.05990031
0.0036139488 0.061581142 -0.021878585 -0.02922213 -0.058958974 0.029451497 0.03393457 0.055496298
00000000: 5688 383d 7dd0 6bbd 5a90 bbbd dac6 1d3d
00000010: eaaf 4fbd c884 b13c bce1 14bd b60d 07bd
00000020: 603b b8bd 344c 87bd c03e d2ba 185c 173c
00000030: 9a46 32bd ec5f d83c 3350 9d3d 3a2c 66bd
00000040: 8021 adba 00aa 143c 460c 013d a9a5 9a3d
00000050: 61d3 833d 7031 0ebd ab09 c63d 43e3 9f3d
00000060: 2656 0b3d af17 b43d 1b3c b0bd 2aa9 98bd
00000070: 4265 1c3d 60f8 c73c 3569 a53d 54b5 cdbc
00000080: 21b0 9a3d a73a c9bd f3eb 833d cc3c e9bc
00000090: 58c2 aebc 565a 8cbd 00d6 73b9 b967 bb3d
000000a0: 6a05 7abd c869 a53c 73ed 1dbd 603f 4bbd
000000b0: 03ec 7dbd ae08 4d3d fd5a 863d 57d6 9e3d
000000c0: 2a79 313d 22d9 653d 500b 113c 2044 e23b
000000d0: 191a ca3d 767d 4a3d a214 0e3d e9eb 933d
000000e0: 7d00 53bd 5d46 943d fd26 8e3d accd d1bc
000000f0: 6399 ca3d f8cb 8fbd c8a3 8ebd 9411 d83c
00000100: 1c32 e83c 34d4 bdbc 9206 183d faf8 363d
00000110: ff8a c83d add2 30bd 61f9 ac3d f9a9 bc3d
00000120: d2f1 433d 5fd5 933d 3af7 90bd 0052 d73b
00000130: 30e0 14bd 2c5c 953c dfb7 923d 6a27 99bd
00000140: bcde ef3c 98d8 b13c 7787 ac3d 680a 80bc
00000150: be85 8bbd 1b6b 933d 28be 0b3c aa79 4bbd
00000160: 0992 b53d c834 9ebd cac5 5f3d 9bba 99bd
00000170: 705e 35bd 4b5b a2bd 0936 843d 32a0 8cbd
00000180: 3aed 243d e0a4 ab3b 98e4 b83c 0c11 85bd
00000190: ef77 c93d 98f2 c43c 808b 58bd ddc0 40bd
000001a0: 1d4b 6bbd 702d 313c 4b98 b5bd e8f3 a13c
000001b0: b46e 933c 5f1a aebd 629f 7b3d eab7 0d3d
000001c0: 3b02 bc3d 4052 97bd 4090 5dbb a9bd 803d
000001d0: 2a2e c8bd e801 513c 9205 7a3d 97a9 5bbd
000001e0: a897 723c d030 fcbb 1794 ab3d 28b9 073c
000001f0: a131 b43d 5974 c13d 644a fd3c 94a9 993c
00000200: 04b2 d33c 36f0 16bd daa0 6cbd 65ee c33d
00000210: 66ba 96bd 134c 76bd 455a ba3d f7a1 a03d
00000220: 6ca7 b83c 21a4 c33d 47fd 9a3d 2376 c2bd
00000230: 823a 4b3d 35fc b0bd d736 6bbd 80a1 46bc
00000240: b06d 963b da53 5bbd a31e ba3d 5d8b c93d
00000250: df63 9c3d a807 c4bc a688 283d a0af 723b
00000260: 0cdf cd3c d0d4 723c b558 b63d a4bf f83c
00000270: 2026 92bd b550 ccbd a625 213d 62e1 0d3d
00000280: c263 623d 56d7 0fbd c037 69bd 4243 2a3d
00000290: 2cfc d63c 1b5e c43d c308 64bd a0b3 dabb
000002a0: be73 283d c80b c73c 9053 62bd 2c0f 993c
000002b0: 5cab cd3c 3394 2ebd 9810 67bc 1073 32bd
000002c0: 5157 a73d d8aa 233c 6d53 3ebd 805a ba3a
000002d0: d67e 3c3d 7686 453d 75b7 a53d 0092 683c
000002e0: 10cb 6fbc 6c9d 923c ea07 0a3d 4052 4abb
000002f0: 3836 8bbd 97db c0bd 34bc 12bd 1aa9 aabd
00000300: d38d 3bbd 2641 6a3d a0f4 9ebb 58a3 8ebc
00000310: 8fe6 9d3d 574c 7ebd 5806 6cbc 4c65 bdbc
00000320: 6b31 9abd b4d1 e7bc 60b1 15bd 3b6d cb3d
00000330: c0a8 a9bd d860 bdbc 3d7c 34bd 8048 f53b
00000340: 2464 13bd a5f1 c03d d86e 463c 3426 92bc
00000350: 5877 70bc 6062 00bb b844 b7bd cda5 45bd
00000360: 7d96 2fbd 90b9 04bd 10dc cbbd b313 93bd
00000370: 60b6 bebb 50cd e53b 3394 53bd 8a56 743d
00000380: 6b85 aabd c617 1f3d 203c 87bd 709b 03bd
00000390: 0f7d c8bd e836 eabc 5dbb 3cbd 90f3 03bc
000003a0: 103f 5fbc ed04 57bd 53b9 9f3d 35a4 cc3d
000003b0: acda 0cbd 7a60 3d3d 2333 c7bd 38ab 99bc
000003c0: c0b9 63bc 207e a7bb 555a ae3d 00ee a73a
000003d0: 84dc 8abd 18c4 393c 03c6 70bd 075a 75bd
000003e0: 00d8 6c3b 823c 7c3d b83a b3bc 4063 efbc
000003f0: f77e 71bd 4444 f13c fafe 0a3d 1650 633d

conv1.bias f4 [16]
-0.052902963 -0.085589305 -0.020801902 -0.08522346 0.008639112 -0.025804639 -0.040514674 0.06958491
-0.014358059 0.01665853 -0.06434277 -0.08478936 0.076272525 0.0683678 0.067483746 -0.029428683
00000000: c7b0 58bd 7249 afbd c068 aabc a389 aebd
00000010: 108b 0d3c 4064 d3bc b7f2 25bd 8982 8e3d
00000020: 103e 6bbc 7877 883c 24c6 83bd 0ba6 adbd
00000030: c534 9c3d 6b04 8c3d eb34 8a3d 6c14 f1bc

bn1.weight f4 [16]
0.28565866 0.29806578 0.27224123 0.3556792 0.60476327 0.0037449002 0.079231024 0.6850849
0.23758173 0.71129996 0.31678396 0.25685292 0.34287506 0.18796146 0.45029235 0.9990742
00000000: da41 923e 149c 983e 3463 8b3e 961b b63e
00000010: c4d1 1a3f 006d 753b e043 a23d b961 2f3f
00000020: a048 733e c117 363f 8231 a23e 3a82 833e
00000030: 528d af3e f878 403e b88c e63e 54c3 7f3f

bn1.bias f4 [16]
0.0 0.0 0.0 0.0 0.0 0.0 0.0 0.0
0.0 0.0 0.0 0.0 0.0 0.0 0.0 0.0
00000000: 0000 0000 0000 0000 0000 0000 0000 0000
00000010: 0000 0000 0000 0000 0000 0000 0000 0000
00000020: 0000 0000 0000 0000 0000 0000 0000 0000
00000030: 0000 0000 0000 0000 0000 0000 0000 0000

bn1.running_mean f4 [16]
0.029701559 -0.01134105 -0.12056592 -0.05602149 0.062223256 -0.10906155 -0.03272283 0.097641975
-0.01089457 0.023686925 -0.036414728 -0.13251364 0.054075204 0.037214566 0.11673948 -0.018743489
00000000: af50 f33c d0cf 39bc 44eb f6bd ca76 65bd
00000010: d0dd 7e3d a95b dfbd 6008 06bd 84f8 c73d
00000020: 237f 32bc 150b c23c 9c27 15bd a8b1 07be
00000030: f67d 5d3d 4d6e 183d 1c15 ef3d f28b 99bc

bn1.running_var f4 [16]
0.20456594 0.19596075 0.2219984 0.18604158 0.19452256 0.21028672 0.18571363 0.19078235
0.18535742 0.18590444 0.18702541 0.20237043 0.1856153 0.18642862 0.19888687 0.18714426
00000000: bc79 513e efa9 483e 8c53 633e af81 3e3e
00000010: ec30 473e 6755 573e b72b 3e3e 735c 433e
00000020: 56ce 3d3e bc5d 3e3e 9783 3f3e 323a 4f3e
00000030: f011 3e3e 25e7 3e3e 00a9 4b3e bfa2 3f3e

conv2.weight f4 [32, 16, 5, 5]
-0.009745937 0.018420417 0.03975332 0.045232344 -0.03561356 0.020065207 -0.036873378 0.04248927
-0.044901777 0.010289639 -0.03159801 -0.002267968 -0.019478356 -0.048904162 0.03920922 -0.0034942701
0.017499957 -0.008576196 -0.027580261 0.0215563 0.0033709407 0.044766534 0.0015086606 0.036939982
0.039894167 -0.04131008 0.0001475811 0.0036488846 0.030576017 -0.008861374 -0.001509279 -0.04975597
-0.037522595 -0.01757412 -0.04607754 -0.03324514 0.0058682077 -0.048541952 0.034067493 -0.023232657
-0.0053841397 -0.03396567 -0.016090136 0.024670843 0.041912194 0.024227437 -0.025714641 0.03689524
-0.0068801753 0.037596438 0.039854553 -0.029440617 -0.017313935 0.036821727 0.009547301 0.016079787
-0.034692567 0.03555793 -0.021236325 -0.029251123 0.038061824 -0.0134671815 -0.033375204 0.020877842
-0.049602658 -0.043991454 0.009184472 -0.019975264 -0.02688077 0.048804637 0.029935379 -0.02421905
0.031752024 0.008539237 -0.040558577 0.045564566 0.025301125 0.003422238 0.014410112 -0.029254287
-0.048509356 0.039670568 0.04433332 -0.047891498 -0.011974297 0.0037722178 -0.040760003 0.020632531
0.034577552 0.038357046 0.00038078427 -0.025972849 0.006836094 -0.017942809 -0.029161317 0.022279065
0.028766412 0.016542893 -0.027039623 -0.029267132 -0.037402414 0.03678422 0.024199981 0.03030843
0.03474197 0.026032183 -0.01940686 -0.047073066 -0.010989767 0.04650033 -0.041359693 -0.038851313
0.025364328 0.04030614 -0.014541734 0.029763643 -0.011152636 0.03653689 -0.028822929 -0.017290354
0.04936335 -0.038219802 -0.048883278 -0.043251444 -0.013623528 0.032738972 -0.04989892 0.0022781603
0.017308984 0.041369487 -0.01894701 0.036983546 0.022896145 0.03594404 -0.042178232 0.009293944
-0.025470907 -0.04749709 -0.035476804 -0.0067593046 -0.031573616 0.036355186 0.01420847 0.03047717
-0.005583234 0.014380578 0.045789573 -0.018643089 0.013464626 -0.046344973 0.016679805 -0.0023570843
0.015826207 0.0448702 -0.04928252 -0.033080686 -0.046287753 0.022423994 -0.03744846 0.029458273
0.012879197 0.029704753 0.006590791 -0.042462002 0.0006686449 -0.013805348 0.024399105 0.04748675
0.028485063 -0.016685717 0.016380433 0.019225705 0.02426133 -0.012518365 0.030639332 0.014120687
0.016154971 -0.049900737 0.035004932 0.02961636 -0.01971419 0.04422817 0.033044163 -0.02149642
-0.001810085 -0.030930592 -0.044098135 0.028449368 -0.04259798 0.020344477 0.025166113 -0.039841812
-0.004609436 -0.027921086 0.013619695 0.03694577 -0.01880367 0.0400416 0.030278165 -0.016890787
-0.028690374 0.031431075 0.014929246 -0.018080942 -0.022666043 0.00055558234 -0.023989905 -0.017289251
-0.009737711 -0.040685438 0.020584736 -0.007341534 -0.0035104938 0.021014217 -0.037677426 0.04984856
-0.017264832 -0.01709332 0.006286867 -0.00710804 0.007024061 0.012273211 -0.005360745 -0.029781474
0.031794343 -0.008281667 0.030495677 -0.0016557947 0.016396504 0.04471794 -0.048500516 0.04377157
-0.03164937 -0.016582806 -0.011475891 -0.0052705035 0.015636507 0.007172812 -0.034892928 -0.014565211
-0.006034039 -0.04555778 0.03811725 -0.024292499 0.0032752566 -0.009898536 0.031445485 0.046118785
-0.031405136 -0.008067183 -0.02441392 0.03414787 0.022676203 0.0042792484 -0.0021264628 -0.026890278
00000000: 6cad 1fbc 6ae6 963c 61d4 223d 8d45 393d
00000010: 86df 11bd ca5f a43c 8a08 17bd 3b09 2e3d
00000020: edea 37bd e095 283c ea6c 01bd 30a2 14bb
00000030: 1391 9fbc bb4f 48bd d999 203d 2000 65bb
00000040: 125c 8f3c 2c83 0cbc 00f0 e1bc d696 b03c
00000050: 00eb 5c3b 1d5d 373d 40be c53a 614e 173d
00000060: 1168 233d c234 29bd 00c0 1a39 2022 6f3b
00000070: 8e7a fa3c 4c2f 11bc 00d3 c5ba eacc 4bbd
00000080: 4bb1 19bd 9af7 8fbc cdbb 3cbd 0e2c 08bd
00000090: 184a c03b edd3 46bd 5b8a 0b3d 6a52 bebc
000000a0: 706d b0bb 961f 0bbd 76cf 83bc 821a ca3c
000000b0: 1fac 2b3d 9e78 c63c 83a7 d2bc 771f 173d
000000c0: 1873 e1bb b9fe 193d 873e 233d 732d f1bc
000000d0: f4d5 8dbc 61d2 163d 486c 1c3c c2b9 833c
000000e0: cb19 0ebd 31a5 113d cdf7 adbc 0da0 efbc
000000f0: b7e6 1b3d 74a5 5cbc 70b4 08bd 0208 ab3c
00000100: 282c 4bbd 6230 34bd 787a 163c 2aa3 a3bc
00000110: 1035 dcbc 5fe7 473d 0a3b f53c 0767 c6bc
00000120: 690e 023d 28e8 0b3c c020 26bd e9a1 3a3d
00000130: 4e44 cf3c a047 603b 6418 6c3c b0a6 efbc
00000140: bfb1 46bd 9b7d 223d db96 353d e029 44bd
00000150: d82f 44bc 5037 773b f6f3 26bd 8e05 a93c
00000160: 31a1 0d3d 471c 1d3d 00a4 c739 03c5 d4bc
00000170: 5001 e03b ccfc 92bc b7e3 eebc 9682 b63c
00000180: 8aa7 eb3c f684 873c 3382 ddbc a0c1 efbc
00000190: 4633 19bd 0dab 163d 0a3f c63c 6249 f83c
000001a0: 994d 0e3d 7241 d53c 23fb 9ebc b0cf 40bd
000001b0: 6c0e 34bc 2177 3e3d c868 29bd 8e22 1fbd
000001c0: dac8 cf3c 0d18 253d 7440 6ebc e2d2 f33c
000001d0: 8cb9 36bc b5a7 153d 101e ecbc 80a4 8dbc
000001e0: 3931 4a3d 5e8c 1cbd d539 48bd 6d28 31bd
000001f0: 3835 5fbc 4d19 063d cf62 4cbd 304d 153b
00000200: 92cb 8d3c 0d73 293d c336 9bbc 0f7c 173d
00000210: b290 bb3c 0f3a 133d 15c3 2cbd a045 183c
00000220: 5da8 d0bc 4f8c 42bd 2050 11bd 287d ddbb
00000230: 5653 01bd 2de9 143d a4ca 683c 42ab f93c
00000240: 90f3 b6bb 849c 6b3c d98d 3b3d 64b9 98bc
00000250: bc9a 5c3c 3ad4 3dbd 16a4 883c 5079 1abb
00000260: f6a5 813c d1c9 373d 78dc 49bd 9d7f 07bd
00000270: 3a98 3dbd 86b2 b73c 8e63 19bd 7a52 f13c
00000280: 4403 533c 6257 f33c 90f7 d73b a3ec 2dbd
00000290: 0048 2f3a d42f 62bc a2e0 c73c 7781 423d
000002a0: 8259 e93c 7cb0 88bc 4230 863c 3a7f 9d3c
000002b0: b2bf c63c d419 4dbc 56ff fa3c 745a 673c
000002c0: 6e57 843c b764 4cbd 5561 0f3d 029e f23c
000002d0: a77f a1bc 9928 353d 5159 073d 4319 b0bc
000002e0: 6040 edba 2762 fdbc 3fa0 34bd a60e e93c
000002f0: 387b 2ebd 76a9 a63c 2a29 ce3c 2b31 23bd
00000300: c00a 97bb c3ba e4bc 2425 5f3c 7354 173d
00000310: 270a 9abc a902 243d ea09 f83c 8c5e 8abc
00000320: 1308 ebbc dfbd 003d cc99 743c 7c1e 94bc
00000330: 23ae b9bc 80a4 113a 7a86 c4bc 30a2 8dbc
00000340: ec8a 1fbc c6a5 26bd 52a1 a83c 4091 f0bb
00000350: 5010 66bb 0226 ac3c a553 1abd 012e 4c3d
00000360: fa6e 8dbc 4a07 8cbc 1002 ce3b 90ea e8bb
00000370: 182a e63b 9415 493c 30a9 afbb 47f8 f3bc
00000380: c93a 023d d4af 07bc 12d2 f93c 4007 d9ba
00000390: f651 863c 292a 373d 7aa8 46bd d149 333d
000003a0: c5a2 01bd aad8 87bc 6005 3cbc 30b4 acbb
000003b0: 2218 803c e809 eb3b e3eb 0ebd eca2 6ebc
000003c0: 30b9 c5bb cb9a 3abd d520 1c3d 1001 c7bc
000003d0: b0a5 563b 782d 22bc fbcc 003d 0de7 3c3d
000003e0: aca2 00bd 382c 04bc b3ff c7bc a3de 0b3d
000003f0: 72c3 b93c f038 8c3b 205c 0bbb 0049 dcbc

conv2.bias f4 [32]
-0.0022094771 -0.0028556809 0.031204741 -0.021408064 -0.007872932 0.012154896 -0.046206277 -0.023263795
0.017287146 -0.018246703 -0.035178483 0.03407756 -0.047929376 -0.009889495 -0.03244645 -0.011824496
0.034634095 0.02404863 -0.00044406578 0.041333634 0.012682263 -0.01357498 -0.016713321 0.045056645
0.027270969 -0.040630978 0.036980692 -0.040860124 -0.04990043 -0.02774536 -0.029692525 0.008250244
00000000: e0cc 10bb 6026 3bbb 16a1 ff3c f75f afbc
00000010: 78fd 00bc 5425 473c cb42 3dbd b793 bebc
00000020: c69d 8d3c 1c7a 95bc 5017 10bd e994 0b3d
00000030: 9851 44bd 8c07 22bc 92e6 04bd 88bb 41bc
00000040: 7bdc 0d3d a201 c53c 80d1 e8b9 754d 293d
00000050: 44c9 4f3c 9869 5ebc 60ea 88bc 518d 383d
00000060: 5e67 df3c ab6c 26bd 1179 173d f25c 27bd
00000070: 6564 4cbd 3d4a e3bc bd3d f3bc 082c 073c

bn2.weight f4 [32]
0.56105196 0.111433506 0.72729623 0.20330435 0.23332494 0.08957863 0.003308475 0.09803057
0.96696013 0.87931097 0.9164811 0.22904128 0.99717104 0.15414858 0.7923877 0.7719013
0.390864 0.7878475 0.8517699 0.9795517 0.2004137 0.9065342 0.3196628 0.60424507
0.37165505 0.46220535 0.64420426 0.48012495 0.7710062 0.49539125 0.7504922 0.87847555
00000000: 1aa1 0f3f 4037 e43d 1630 3a3f 042f 503e
00000010: bcec 6e3e 0075 b73d 00d3 583b 40c4 c83d
00000020: b38a 773f 861a 613f 819e 6a3f cc89 6a3e
00000030: 9a46 7f3f 20d9 1d3e ecd9 4a3f 539b 453f
00000040: 541f c83e 60b0 493f 980d 5a3f e6c3 7a3f
00000050: 4039 4d3e a012 683f d8aa a33e ceaf 1a3f
00000060: 9249 be3e 2ea6 ec3e 92ea 243f f0d2 f53e
00000070: aa60 453f eca3 fd3e 4220 403f c6e3 603f

bn2.bias f4 [32]
0.0 0.0 0.0 0.0 0.0 0.0 0.0 0.0
0.0 0.0 0.0 0.0 0.0 0.0 0.0 0.0
0.0 0.0 0.0 0.0 0.0 0.0 0.0 0.0
0.0 0.0 0.0 0.0 0.0 0.0 0.0 0.0
00000000: 0000 0000 0000 0000 0000 0000 0000 0000
00000010: 0000 0000 0000 0000 0000 0000 0000 0000
00000020: 0000 0000 0000 0000 0000 0000 0000 0000
00000030: 0000 0000 0000 0000 0000 0000 0000 0000
00000040: 0000 0000 0000 0000 0000 0000 0000 0000
00000050: 0000 0000 0000 0000 0000 0000 0000 0000
00000060: 0000 0000 0000 0000 0000 0000 0000 0000
00000070: 0000 0000 0000 0000 0000 0000 0000 0000

bn2.running_mean f4 [32]
-0.037944272 -0.09241086 -0.035868574 0.052163776 -0.011549347 0.0628292 -0.12774238 -0.09787568
-0.043311078 -0.08778491 -0.08616312 0.073801 -0.004617197 0.052567165 0.071638666 0.0036298314
-0.09072347 0.00063261937 -0.11697615 0.039309073 0.017282404 0.085353166 0.0345719 0.046710134
0.13549626 0.032725364 0.13213421 0.04225276 -0.09669793 -0.055885747 -0.021553164 0.030134706
00000000: 746b 1bbd e841 bdbd edea 12bd afa9 553d
00000010: 7939 3dbc 98ac 803d e6ce 02be 0b73 c8bd
00000020: f566 31bd 93c8 b3bd 4a76 b0bd fb24 973d
00000030: db4b 97bb ab50 573d 4bb7 923d 77e2 6d3b
00000040: 3acd b9bd 5ed6 253a 3191 efbd 8d02 213d
00000050: d493 8d3c a4cd ae3d 449b 0d3d 2053 3f3d
00000060: 88bf 0a3e 080b 063d 314e 073e 3b11 2d3d
00000070: 9009 c6bd 74e8 64bd 4390 b0bc 0fdd f63c

bn2.running_var f4 [32]
0.18975759 0.2229204 0.2000833 0.19180691 0.19259629 0.20151946 0.20095469 0.18988886
0.21316923 0.2331124 0.2186529 0.20569056 0.20320591 0.19849351 0.20354815 0.18795232
0.2097136 0.1933069 0.21906008 0.19019355 0.18715367 0.22850846 0.19537054 0.18901163
0.20166098 0.22041707 0.19682094 0.20226365 0.21262947 0.19557387 0.18953873 0.1933908
00000000: d04f 423e 3f45 643e a3e2 4c3e 0869 443e
00000010: f637 453e 1e5b 4e3e 11c7 4d3e 3a72 423e
00000020: 0949 5a3e 04b5 6e3e 8ce6 5f3e 8ca0 523e
00000030: 3615 503e e241 4b3e ed6e 503e 9376 403e
00000040: 29bf 563e 3ef2 453e 4951 603e 19c2 423e
00000050: 36a5 3f3e 1ffe 693e 370f 483e 448c 413e
00000060: 3780 4e3e 03b5 613e 6e8b 493e 341e 4f3e
00000070: 8abb 593e 8444 483e 7116 423e 3d08 463e

conv3.weight f4 [32, 32, 5, 5]
-0.014858434 0.0012234338 0.02599103 -0.014170222 -0.027893562 0.006910395 -0.02543138 -0.011272369
0.03181718 0.033338983 0.016769532 0.013094723 0.020885952 0.034935985 0.026271563 -0.015280733
-0.015210655 0.030676793 -0.034245446 -0.008414155 0.016947493 0.009970527 0.02953313 -0.01992609
0.03185882 -0.0029350966 -0.0012334436 0.003478136 0.010164 0.024774697 -0.0318918 -0.02491546
0.031578172 -0.033486508 -0.01498423 -0.018153172 0.025163468 0.0074392334 0.004968442 0.013147544
-0.0077166837 0.00092403963 -0.017185489 0.0022610426 -0.028634537 0.023805767 -0.03469808 -0.03063977
-0.029760389 -0.033409446 0.012682851 0.012021247 -0.02836169 0.018809345 0.020324163 1.5154481e-05
0.0016992427 0.015355218 0.008239832 0.014756918 0.021460135 -0.021630371 -0.0016769692 -0.00018104166
-0.016634481 -0.015245531 -0.03527271 -0.027155211 0.00460298 -0.020228066 -0.015860133 -0.010617096
-0.031893734 0.020469945 -0.020805225 -0.030985542 0.00158922 0.0067136697 -0.015682092 0.033995483
-0.015616231 -0.028008707 -0.032055896 -0.03452094 -0.03164444 -0.0069673415 -0.022301592 0.0227963
0.024018876 -0.029499963 0.029444624 -0.021712389 0.0312629 -0.03174661 0.0010163933 0.030093368
0.008343741 -0.021859122 -0.03214021 -0.024740513 -0.027248614 -0.025606204 -0.0017158091 0.02907494
-0.017457934 -0.024466176 0.0027525574 0.0025777854 -0.013407975 -0.0141969435 0.013254952 -0.0021825805
-0.02195387 0.023906726 -0.015038798 0.029743206 -0.024078066 0.0056026727 0.000113952905 -0.018192211
0.026815627 -0.02348087 -0.014726169 0.031029548 -0.0011290871 0.019209273 0.022997253 -0.03229949
0.0053726733 -0.007431818 -0.023185458 -0.00894795 0.018822867 -0.009863611 0.026695646 0.022581313
0.020753346 0.002141215 0.0053864606 0.029774856 0.017751291 -0.011532327 -0.013106979 0.030719232
-0.028108098 0.022445764 -0.0020494424 0.025236793 0.021062065 0.026053514 0.028298344 0.02846628
0.008069824 -0.0032268018 0.016009022 -0.019659238 -0.00022355467 -0.0008710101 0.032274675 -0.022641331
-0.030036842 0.010830417 -0.027224243 -0.022052728 0.0041956566 -0.030527245 -0.017180026 -0.0295364
-0.005056968 -0.000501357 -0.0063670706 0.020003837 0.029818263 -0.0077087767 0.009354085 0.00061002374
0.014008611 -0.02475781 0.025525097 0.020166278 0.001526732 0.009580705 -0.01714361 0.0097898245
0.025673468 0.031416815 -0.02278943 -0.023905188 -0.0029155388 -0.0038904138 0.011617042 0.016079903
0.015411776 0.03187901 -0.0043848325 -0.004913682 0.016292445 -0.024746595 -0.005911134 0.021687217
0.031369876 -0.015504548 -0.015377885 -0.0017757528 -0.0031359717 -0.014109181 -0.024125937 -0.0077011064
-0.021117885 0.033487547 0.02081893 -0.006269917 -0.029251229 -0.017053826 -0.031012053 0.024290469
0.035325382 0.030131686 -0.005367553 0.02192324 -0.0232458 -0.02199578 0.026614338 0.0024458207
0.014946286 -0.024935063 -0.0076910965 0.019118752 -0.010732235 -0.022570092 0.02168936 0.006620858
-0.034973618 -0.031727586 0.007632438 -0.006939968 -0.01334038 0.01419954 0.0062083527 0.02209359
-0.011368329 0.018517122 0.025995933 0.019142415 -0.025323123 -0.03170071 0.016635023 0.028802339
0.03522325 -0.019812109 -0.017518435 -0.03376646 -0.021710109 0.020060979 -0.018309485 -0.0029472634
00000000: ca70 73bc a05b a03a 24eb d43c 382a 68bc
00000010: 0a81 e4bc 9870 e23b 7855 d0bc beaf 38bc
00000020: bb52 023d 758e 083d 4260 893c 408b 563c
00000030: 0419 ab3c 0919 0f3d 7637 d73c 0a5c 7abc
00000040: 1c36 79bc e64d fb3c f444 0cbd 86db 09bc
00000050: 78d5 8a3c 6c5b 233c 76ef f13c 0a3c a3bc
00000060: 657e 023d c05a 40bb 80ab a1ba 70f1 633b
00000070: e886 263c 4ef4 ca3c faa0 02bd 821b ccbc
00000080: 1d58 013d 2629 09bd 6a80 75bc f6b5 94bc
00000090: 9e23 ce3c d0c4 f33b 50ce a23b cc68 573c
000000a0: 3cdc fcbb 403b 723a 95c8 8cbc 002e 143b
000000b0: fa92 eabc 5004 c33c 931f 0ebd 4100 fbbc
000000c0: 0fcc f3bc 58d8 08bd bccb 4f3c c4f4 443c
000000d0: c656 e8bc 0e16 9a3c dc7e a63c 0040 7e37
000000e0: 20b9 de3a 7494 7b3c 5c00 073c 00c7 713c
000000f0: 2acd af3c 2d32 b1bc c0cd dbba 00d6 3db9
00000100: 0945 88bc 64c8 79bc 1e7a 10bd 9b74 debc
00000110: 98d4 963b 54b5 a5bc 1ced 81bc 54f3 2dbc
00000120: 01a3 02bd 96b0 a73c b86f aabc 64d5 fdbc
00000130: 604d d03a 58fe db3b bb77 80bc d93e 0b3d
00000140: 38db 7fbc 8472 e5bc 0b4d 03bd d465 0dbd
00000150: 9a9d 01bd 4c4e e4bb d4b1 b6bc 4ebf ba3c
00000160: 3cc3 c43c e8a9 f1bc da35 f13c 2ede b1bc
00000170: 870d 003d bc08 02bd 8038 853a 5e86 f63c
00000180: 30b4 083c e711 b3bc 74a5 03bd 9eac cabc
00000190: 7c38 dfbc 1ac4 d1bc 00e5 e0ba 922e ee3c
000001a0: f103 8fbc 4a6d c8bc 4064 343b 10f0 283b
000001b0: 20ad 5bbc 4c9a 68bc 4c2b 593c a009 0fbb
000001c0: 9ad8 b3bc 0ad8 c33c 4a65 76bc 06a8 f33c
000001d0: 5d3f c5bc a096 b73b 00fa ee38 d507 95bc
000001e0: 72ac db3c f45a c0bc 0846 71bc ae31 fe3c
000001f0: e0fd 93ba c45c 9d3c bc64 bc3c 784c 04bd
00000200: 400d b03b 9c86 f3bb 6eef bdbc 6c9a 12bc
00000210: 6a32 9a3c fc9a 21bc d4b0 da3c 72fc b83c
00000220: ec02 aa3c a053 0c3b e880 b03b 66ea f33c
00000230: 286b 913c 16f2 3cbc a8be 56bc e6a6 fb3c
00000240: f442 e6bc 2ee0 b73c f04f 06bb 64bd ce3c
00000250: 5a8a ac3c 2e6e d53c eed1 e73c 1e32 e93c
00000260: 4c37 043c c078 53bb 5a25 833c 690c a1bc
00000270: 006a 6ab9 8054 64ba 7332 043d 507a b9bc
00000280: d30f f6bc 1072 313c 6005 dfbc eca7 b4bc
00000290: b87b 893b 4614 fabc 20bd 8cbc 52f6 f1bc
000002a0: ecb4 a5bb 806d 03ba dca2 d0bb 16df a33c
000002b0: 6e45 f43c e899 fcbb e041 193c 00ea 1f3a
000002c0: 6084 653c e4d0 cabc 021a d13c c033 a53c
000002d0: a01c c83a 64f8 1c3c c270 8cbc 8065 203c
000002e0: 2a51 d23c ebae 003d e6b0 babc d0d4 c3bc
000002f0: a012 3fbb 50f6 7ebb 6855 3e3c 00ba 833c
00000300: ac81 7c3c 9193 023d a4ae 8fbb f402 a1bb
00000310: bc77 853c 5fb9 cabc 30b2 c1bb 64a9 b13c
00000320: b37d 003d ca06 7ebc 86f3 7bbc 60c0 e8ba
00000330: e084 4dbb 322a 67bc c2a3 c5bc 9059 fcbb
00000340: 6aff acbc 3d2a 093d 768c aa3c e073 cdbb
00000350: 46a0 efbc 77b4 8bbc fd0c febc cefc c63c
00000360: 59b1 103d bad6 f63c 4ce2 afbb 5e98 b33c
00000370: fa6d bebc 7e30 b4bc 5006 da3c 104a 203b
00000380: 44e1 743c 9e44 ccbc 9805 fcbb ee9e 9c3c
00000390: 42d6 2fbc eae4 b8bc e2ad b13c c8f3 d83b
000003a0: 7f40 0fbd c9f4 01bd 8819 fa3b ac68 e3bb
000003b0: 9c91 5abc 30a5 683c 706f cb3b 9efd b43c
000003c0: 3a42 3abc 38b1 973c 6cf5 d43c 8ed0 9c3c
000003d0: 7072 cfbc 9bd8 01bd 2c46 883c e2f2 eb3c
000003e0: 4146 103d 014d a2bc d282 8fbc b34e 0abd
000003f0: 66d9 b1bc ec56 a43c c6fd 95bc e026 41bb

conv3.bias f4 [32]
0.0337572 -0.024242902 -0.028899653 -0.021097314 -0.025280507 0.0142067745 0.020486612 0.0025328659
0.03386068 0.016144302 0.029587757 -0.0066555142 0.0084665865 -0.010149291 0.030302424 0.014667023
0.02370995 0.023556542 0.0039232783 0.0340128 -0.0023241043 0.021019578 -0.0047726426 -0.027042095
-0.03171951 0.006938316 -0.016674811 -0.03388489 0.030746143 0.015392147 0.024924815 0.015321936
00000000: fd44 0a3d 0d99 c6bc f7be ecbc 46d4 acbc
00000010: 1119 cfbc 88c3 683c 8ad3 a73c 70fe 253b
00000020: 7fb1 0a3d 0e41 843c 0662 f23c 8016 dabb
00000030: 70b7 0a3c 3649 26bc ca3c f83c f44d 703c
00000040: 5e3b c23c a6f9 c03c d88e 803b 0151 0b3d
00000050: 0050 18bb 4031 ac3c d463 9cbb 6287 ddbc
00000060: 51ec 01bd d05a e33b 9d99 88bc e2ca 0abd
00000070: 56df fb3c 582f 7c3c 202f cc3c dc08 7b3c

bn3.weight f4 [32]
0.42834216 0.22082353 0.9054344 0.83320147 0.4253382 0.8810821 0.31219202 0.59709495
0.6322611 0.81349546 0.29537898 0.813833 0.7567422 0.6611921 0.13804269 0.76738137
0.5991392 0.33361423 0.23487198 0.50229084 0.17788392 0.4274428 0.0399549 0.30593175
0.7141015 0.83091664 0.100402474 0.74207944 0.3580944 0.6633533 0.4817626 0.16844362
00000000: aa4f db3e 901f 623e 8dca 673f b14c 553f
00000010: eec5 d93e 998e 613f a2d7 9f3e 37db 183f
00000020: dddb 213f 3d41 503f ea3b 973e 5c57 503f
00000030: dbb9 413f e343 293f 105b 0d3e 1b73 443f
00000040: 3061 193f 7ccf aa3e 4882 703e 2296 003f
00000050: 3427 363e c8d9 da3e c0a7 233d 16a3 9c3e
00000060: 5bcf 363f f4b6 543f d09f cd3d ebf8 3d3f
00000070: 2658 b73e 86d1 293f 96a9 f63e 7c7c 2c3e

bn3.bias f4 [32]
0.0 0.0 0.0 0.0 0.0 0.0 0.0 0.0
0.0 0.0 0.0 0.0 0.0 0.0 0.0 0.0
0.0 0.0 0.0 0.0 0.0 0.0 0.0 0.0
0.0 0.0 0.0 0.0 0.0 0.0 0.0 0.0
00000000: 0000 0000 0000 0000 0000 0000 0000 0000
00000010: 0000 0000 0000 0000 0000 0000 0000 0000
00000020: 0000 0000 0000 0000 0000 0000 0000 0000
00000030: 0000 0000 0000 0000 0000 0000 0000 0000
00000040: 0000 0000 0000 0000 0000 0000 0000 0000
00000050: 0000 0000 0000 0000 0000 0000 0000 0000
00000060: 0000 0000 0000 0000 0000 0000 0000 0000
00000070: 0000 0000 0000 0000 0000 0000 0000 0000

bn3.running_mean f4 [32]
-0.204006 -0.10133352 0.11874509 -0.04573444 -0.08209844 -0.15741493 0.09394956 -0.16755158
0.084844716 0.032578584 0.27169243 0.12675357 0.1483801 0.07842683 -0.05100496 0.03395805
-0.114574224 -0.1682794 -0.11132247 0.16312888 -0.13584666 0.03115982 -0.041961107 -0.14787483
-0.11500411 -0.01001208 -0.059164245 0.28967264 0.07780836 0.05916687 0.11695381 -0.019542795
00000000: f3e6 50be f387 cfbd a030 f33d 0954 3bbd
00000010: 3a23 a8bd 6131 21be a068 c03d a492 2bbe
00000020: 11c3 ad3d 1f71 053d 451b 8b3e b0cb 013e
00000030: f4f0 173e 3f9e a03d 94ea 50bd 9917 0b3d
00000040: e4a5 eabd 6f51 2cbe 09fd e3bd 420b 273e
00000050: 631b 0bbe e142 ff3c 69df 2bbd 806c 17be
00000060: 4687 ebbd b509 24bc 3556 72bd f94f 943e
00000070: fd59 9f3d f658 723d 7b85 ef3d 3618 a0bc

bn3.running_var f4 [32]
0.19102053 0.2110805 0.21339072 0.18867779 0.20441107 0.20769727 0.19436133 0.23008615
0.1892443 0.18965185 0.19873744 0.21307197 0.21599321 0.19241697 0.20032693 0.22160886
0.18923189 0.23472427 0.20013411 0.21868396 0.19866882 0.20195994 0.26720834 0.24886295
0.26777577 0.19908328 0.19349198 0.29372472 0.20034851 0.19575039 0.19902687 0.18883228
00000000: e39a 433e 7d25 583e 1983 5a3e c034 413e
00000010: 2351 513e 98ae 543e a806 473e b49b 6b3e
00000020: 42c9 413e 1834 423e d481 4b3e 8a2f 5a3e
00000030: 532d 5d3e f408 453e 8122 4d3e 6fed 623e
00000040: 01c6 413e 8f5b 703e f5ef 4c3e b0ee 5f3e
00000050: d76f 4b3e 96ce 4e3e 88cf 883e eed5 7e3e
00000060: e819 893e 7ddc 4b3e c322 463e 1663 963e
00000070: 2928 4d3e ca72 483e b3cd 4b3e 405d 413e

head.weight f4 [4, 800]
0.031249661 -0.022261562 0.019177545 -0.029594203 0.0021775924 -0.015106523 -0.030092936 -0.018857926
0.013227161 0.011704575 0.026677463 0.025362633 0.005101517 -0.023874888 -0.026224185 0.008424412
0.011778016 -0.014274379 0.024147686 -0.021760102 -0.027516015 0.025435813 -0.028911468 0.008422084
-0.009680958 0.019293346 0.023808453 0.01305335 0.004905738 0.015518587 -0.00057499856 -0.008984616
0.005661886 -0.010814367 0.014400899 -0.011693964 -0.032065943 0.011809867 0.018783472 -0.02512212
0.02137626 -0.007869478 0.015222952 0.019191734 -0.015645994 -0.019513857 -0.03481162 -0.008221304
0.01762462 0.033841256 0.0017123595 -0.017253196 -0.0096772835 -0.025317334 0.0069392137 0.028548349
-0.014818618 0.026730739 -0.011724491 -0.032679774 0.010675911 -0.021591874 0.033833753 0.022665907
-0.014138687 -0.014268724 -0.018124755 -0.031508967 -0.034734137 -0.0040553957 -0.0109233 0.021570563
0.025145512 -0.026110519 -0.0071980953 -0.007613858 -0.027083687 -0.025692703 0.015531383 0.0024596527
-0.00074642524 0.0293005 -0.028207615 0.030705232 -0.010980582 -0.022533089 0.0055781268 0.022115182
-0.029783072 0.02694042 -0.019253757 -0.0036288686 0.028716106 0.02807856 0.011095718 -0.0270163
-0.031510606 0.020508908 0.004161045 0.006160222 0.00021138787 0.0047368705 -0.03223168 0.01544784
-0.0015543625 0.026000898 -0.0029145442 -0.005862931 0.025975306 0.03337648 0.022122692 -0.024431197
0.02142106 -0.034235038 -0.0071221385 -0.00055652484 0.014544554 -0.022163616 -0.013900196 0.0053346083
0.006920263 -0.011540415 -0.0027477443 -0.007299872 -0.00049066916 0.025750753 0.004689295 0.02406907
0.020375662 0.024681557 -0.020895435 0.0021948777 0.025353312 0.03444406 -0.01803846 -0.0040901415
-0.024643516 0.028542798 -0.027165879 0.016330004 0.0029407665 -0.014157599 -0.033649612 -0.00013811886
-0.0041786116 0.02521453 -0.009782331 0.027200323 0.012123011 -0.032177165 0.023145739 -0.02635207
-0.028598417 -0.006744137 0.025478885 0.03291269 -0.024128325 0.014217388 -0.0044270456 -0.010876821
-0.008062676 -0.016840478 0.032985236 0.023094736 0.03424881 0.027344268 0.03149124 -0.019870251
-0.021570884 0.012568753 -0.014814332 -0.0037178174 -0.0008761957 -0.022376552 0.029382918 0.01955026
-0.0028682388 -0.029782465 -0.003644012 0.023366302 -0.009339923 0.03315327 -0.014480941 0.013883185
-0.0039982386 -0.017890844 0.013541952 -0.016349964 -0.015609242 -0.013141135 -0.027760819 0.012034636
0.015783932 -0.0014457516 -0.011732861 0.024611983 0.0059821308 0.0022501983 -0.009956291 0.0051056594
0.008880101 0.013148904 0.015986212 -0.0044589806 0.009830732 0.0023062788 0.013047468 -0.031225346
-0.023446007 -0.00085286796 -0.021213269 -0.0257916 -0.015529133 0.024863832 -0.003456235 0.0019793399
-0.00936283 -0.019568061 0.027893733 -0.011707334 0.0030428134 0.012149025 -0.028219007 -0.007853918
-0.012109486 -0.005072959 0.0075685643 -0.0036245547 -0.008825332 -0.018641595 0.024807822 0.011494108
0.018871639 0.029328596 -0.03341775 0.020565834 -0.016132424 -0.0039099343 0.03170945 -0.024822138
-0.021530032 -0.023639876 -0.00972469 0.007442802 -0.023305379 0.03374594 0.024978671 -0.032382507
0.027996127 0.008187927 -0.007596085 -0.008540975 -0.0281346 -0.00041672587 0.0015491918 0.029193591
00000000: 4aff ff3c e15d b6bc 3a1a 9d3c 8b6f f2bc
00000010: f0b5 0e3b 5a81 77bc 7685 f6bc f07b 9abc
00000020: bcb6 583c 8cc4 3f3c b28a da3c 4cc5 cf3c
00000030: a02a a73b 4595 c3bc 1ad4 d6bc 8c06 0a3c
00000040: 94f8 403c 16df 69bc 5ed1 c53c 3e42 b2bc
00000050: 4469 e1bc c45e d03c bed7 ecbc c8fc 093c
00000060: e29c 1ebc 140d 9e3c f209 c33c b8dd 553c
00000070: 50c0 a03b ac41 7e3c 80bb 16ba 3634 13bc
00000080: 5887 b93b be2e 31bc c0f1 6b3c 0a98 3fbc
00000090: 9457 03bd 2c7e 413c ccdf 993c e7cc cdbc
000000a0: 441d af3c fcee 00bc b069 793c fc37 9d3c
000000b0: 072c 80bc 86db 9fbc a196 0ebd a6b2 06bc
000000c0: 8261 903c 219d 0a3d 4071 e03a 9356 8dbc
000000d0: 788d 1ebc 4c66 cfbc 5862 e33b 3ade e93c
000000e0: cac9 72bc 6cfa da3c 1418 40bc 3adb 05bd
000000f0: 04ea 2e3c 71e1 b0bc 4395 0a3d daad b93c
00000100: f4a5 67bc 5ec7 69bc 5e7a 94bc 8c0f 01bd
00000110: 6245 0ebd 20e3 84bb a4f7 32bc c0b4 b03c
00000120: f6fd cd3c bae5 d5bc 00de ebbb ac7d f9bb
00000130: 9cde ddbc 8179 d2bc 5877 7e3c 2032 213b
00000140: c0ab 43ba 9a07 f03c a813 e7bc 8a89 fb3c
00000150: e6e7 33bc 5097 b8bc b8c8 b63b e62a b53c
00000160: a1fb f3bc 28b2 dc3c 0eba 9dbc 50d2 6dbb
00000170: 0a3e eb3c 0205 e63c d0ca 353c 4a51 ddbc
00000180: 4411 01bd 4c02 a83c 6059 883b b0db c93b
00000190: 00a8 5d39 c037 9b3b 5e05 04bd f018 7d3c
000001a0: c0bb cbba d6ff d43c f001 3fbb d41d c0bb
000001b0: 2aca d43c c7b5 083d a63a b53c ef23 c8bc
000001c0: 387b af3c 0a3a 0cbd d460 e9bb c0e3 11ba
000001d0: 484c 6e3c 7990 b5bc a6bd 63bc f0cd ae3b
000001e0: 60c3 e23b 0214 3dbc 8013 34bb c433 efbb
000001f0: 40a0 00ba 3ef3 d23c a8a8 993b 802c c53c
00000200: dcea a63c fa30 ca3c e72c abbc f0d7 0f3b
00000210: c0b1 cf3c 3715 0d3d 64c5 93bc 9806 86bb
00000220: 33e1 c9bc 96d2 e93c fa8a debc 80c6 853c
00000230: e0b9 403b 46f5 67bc 2dd4 09bd 00d4 10b9
00000240: bcec 88bb b48e ce3c 1246 20bc 36d3 de3c
00000250: 989f 463c 34cc 03bd 229c bd3c 4ce0 d7bc
00000260: 3a47 eabc ecfd dcbb 18b9 d03c 75cf 063d
00000270: c4a8 c5bc 0cf0 683c c010 91bb b234 32bc
00000280: 5019 04bc 0bf5 89bc 871b 073d 2c31 bd3c
00000290: 7b48 0c3d 1601 e03c f5fc 003d f0c6 a2bc
000002a0: 6cb5 b0bc 2ced 4d3c d0b7 72bc a0a6 73bb
000002b0: 80b0 65ba 084f b7bc 72b4 f03c de27 a03c
000002c0: 10f9 3bbb 5bfa f3bc 60d0 6ebb b06a bf3c
000002d0: 7a06 19bc b9cb 073d 7841 6dbc 4c76 633c
000002e0: a803 83bb d28f 92bc 10df 5d3c 5cf0 85bc
000002f0: e8bd 7fbc ea4d 57bc a86a e3bc ec2c 453c
00000300: 4e4d 813c 607f bdba 303b 40bc 129f c93c
00000310: c005 c43b 1078 133b b61f 23bc 604d a73b
00000320: d87d 113c 806e 573c 84f5 823c a41c 92bb
00000330: 1411 213c f024 173b 0cc5 553c 4ccc ffbc
00000340: d711 c0bc 0093 5fba 73c7 adbc e848 d3bc
00000350: e86d 7ebc 3caf cb3c 0082 62bb d0b7 013b
00000360: 8e66 19bc 334d a0bc 6681 e43c 1ed0 3fbc
00000370: f069 473b b40c 473c 8c2b e7bc b8ad 00bc
00000380: de66 46bc 103b a6bb b801 f83b f089 6dbb
00000390: 2098 10bc 42b6 98bc c639 cb3c c851 3c3c
000003a0: b298 9a3c 8642 f03c 0de1 08bd ae79 a83c
000003b0: 2528 84bc e81e 80bb c5e1 013d cc57 cbbc
000003c0: c05f b0bc 6aa8 c1bc 4e54 1fbc c0e2 f33b
000003d0: ecea bebc 2f39 0a3d 12a0 cc3c 85a3 04bd
000003e0: 2258 e53c a826 063c 94e8 f8bb 72ef 0bbc
000003f0: 887a e6bc 007c dab9 400e cb3a 6627 ef3c

head.bias f4 [4]
0.018710967 -0.0319678 -0.022380963 0.021050729
00000000: be47 993c abf0 02bd 4858 b7bc 9472 ac3c
