breakout/model/target_net_state_dict.pt (torch_old, 177756 bytes, 20 tensors)

conv1.weight f4 [16, 4, 5, 5]
0.03813985 -0.0032781083 -0.016355865 -0.11696643 -0.08257754 -0.017254373 -0.084220245 -0.018565977
-0.14019145 -0.14991778 -0.19652861 -0.09098332 -0.03870773 -0.11008374 -0.10857348 -0.054872356
0.050014954 -0.0041685556 -0.005455399 0.06541147 -0.07530613 -0.021454135 -0.04586241 -0.1408902
-0.005316555 -0.0091235805 -0.07580451 0.014358803 -0.01766248 -0.10328954 -0.063048415 -0.050982237
-0.09063074 -0.041031674 -0.08891672 -0.1664698 -0.13869686 0.052402437 -0.024655763 -0.1258304
-0.06227739 -0.08593438 0.023338957 0.10573426 0.09414377 -0.10609047 0.042772464 0.054191418
0.07796795 0.18550283 -0.117510445 -0.0320131 -0.02247498 -0.12720142 -0.079964876 -0.13207689
-0.08929732 -0.13733056 -0.061469603 -0.21358658 -0.18070243 -0.23696618 -0.048789516 -0.08755102
-0.10399103 -0.015999354 -0.06955387 -0.040349025 0.0041025653 0.107039645 0.0509271 -0.097997025
-0.07544046 -0.06778588 -0.1015295 0.08059568 0.06415558 0.17114386 0.17924824 0.13575248
0.19904774 0.082861334 -0.0032205137 0.12570885 0.13770658 -0.018278688 0.16967493 0.118531816
0.259923 0.032258734 -0.030219898 0.28836122 0.25097913 0.18987066 0.21437816 -0.09381105
0.2790823 0.19025551 0.19279544 0.33725438 0.08427832 -0.059105873 -0.10605827 -0.047400314
-0.040882654 -0.115123756 -0.16766699 -0.12831981 -0.053856865 -0.09023851 -0.088618174 -0.1898476
-0.21699011 -0.12908459 0.025929013 -0.0027985713 -0.12937945 0.01577099 -0.13871843 -0.19882464
-0.100962244 -0.0487129 -0.08401698 -0.21100041 -0.03604905 -0.03406776 -0.04131043 -0.048758388
-0.08768748 0.10077425 -0.08758287 -0.09971945 -0.12289703 0.06497592 0.079982564 -0.1493759
-0.037541002 0.017800378 -0.032019675 0.12329036 -0.101082005 0.1443251 -0.08392108 -0.14473324
-0.06080467 0.007267285 -0.01937888 0.019558787 -0.008049926 0.15244181 0.058146596 -0.16230541
-0.022218615 -0.073574916 0.047307204 -0.16037951 -0.17641641 -0.094021685 -0.10165929 -0.12978975
-0.0614272 -0.07559935 -0.11443796 -0.08408267 -0.12612192 0.0053256094 -0.1517965 -0.13434711
-0.16271554 -0.2242775 -0.026974209 -0.07217653 -0.07689079 -0.041149933 0.062972106 0.09074281
0.14355646 0.04280598 0.023287348 0.293926 0.016797313 0.11392818 0.0029872037 -0.053814795
0.20782948 0.124980725 0.07061697 0.15087587 -0.012573775 -0.00299785 0.07833736 0.10747672
0.11949562 -0.004498474 -0.02144313 0.20173481 0.23326367 0.26531672 0.24794394 0.022348229
0.54285365 0.40648094 0.32605833 0.39950508 0.4087488 -0.039314985 0.08661979 -0.028263794
-0.067083776 0.01736729 0.08310578 0.10934224 -0.040002063 -0.12163133 0.005977036 0.06269871
0.058330808 0.013638415 -0.15689805 -0.0686399 -0.1355073 -0.03386165 -0.052664753 -0.13216846
0.046423465 0.5029421 0.41506267 0.28797877 0.384361 0.43753162 0.12333769 0.115762055
0.046935067 -0.0805678 0.044662427 0.087562755 0.0785859 -0.07261989 -0.032020133 -0.031859867
-0.08303807 -0.016759837 -0.10751664 -0.12600406 -0.08586029 0.07751874 -0.06732647 0.01708528
-0.07664598 -0.07040535 0.47539902 0.23388822 0.119154446 0.30631706 0.3293452 0.03743082
00000000: 8838 1c3d 88d5 56bb bcfc 85bc 188c efbd
00000010: 6a1e a9bd 0b59 8dbc aa7b acbd ad17 98bc
00000020: 598e 0fbe 0c84 19be cc3e 49be 7655 babd
00000030: ff8b 1ebd 9573 e1bd c65b debd d6c1 60bd
00000040: 7bdc 4c3d 6198 88bb 34c3 b2bb 73f6 853d
00000050: 1a3a 9abd 95c0 afbc 39da 3bbd 8545 10be
00000060: 7f36 aebb 127b 15bc 653f 9bbd 2f41 6b3c
00000070: e8b0 90bc 7789 d3bd 871f 81bd c0d2 50bd
00000080: 9c9c b9bd d410 28bd f819 b6bd 0f77 2abe
00000090: 8d06 0ebe f0a3 563d e2fa c9bc afd9 00be
000000a0: 9416 7fbd 5dfe afbd 5731 bf3c 348b d83d
000000b0: 73ce c03d f645 d9bd 2e32 2f3d d2f7 5d3d
000000c0: a9ad 9f3d 74f4 3d3e 51a9 f0bd 2b20 03bd
000000d0: 731d b8bc 1741 02be a0c4 a3bd 2a3f 07be
000000e0: 83e1 b6bd 62a0 0cbe 8dc7 7bbd 71b6 5abe
000000f0: 0f0a 39be 43a7 72be 84d7 47bd f34d b3bd
00000100: 40f9 d4bd 1411 83bc 4272 8ebd 0545 25bd
00000110: d06e 863b 9a37 db3d ef98 503d aab2 c8bd
00000120: 8780 9abd 53d3 8abd b3ee cfbd 590f a53d
00000130: 0064 833d 5640 2f3e da8c 373e b302 0b3e
00000140: 2cd3 4b3e 34b3 a93d 410f 53bb d2b9 003e
00000150: f402 0d3e 30bd 95bc 44bf 2d3e cfc0 f23d
00000160: a114 853e bc21 043d b88f f7bc 15a4 933e
00000170: 5680 803e 746d 423e f385 5b3e 0220 c0bd
00000180: e0e3 8e3e 57d2 423e 2b6c 453e 9bac ac3e
00000190: 1d9a ac3d 0019 72bd 1435 d9bd d526 42bd
000001a0: 9274 27bd 01c6 ebbd e5b0 2bbe 4566 03be
000001b0: 0499 5cbd f8ce b8bd 727d b5bd 6967 42be
000001c0: a832 5ebe c02e 04be 1569 d43c 3c68 37bb
000001d0: 0c7c 04be 2a32 813c 340c 0ebe b098 4bbe
000001e0: 4bc5 cebd 2e87 47bd 1811 acbd 7e10 58be
000001f0: 2ba8 13bd a38a 0bbd 2035 29bd e0b6 47bd
00000200: 7e95 b3bd bb62 ce3d a65e b3bd b639 ccbd
00000210: 70b1 fbbd 1812 853d e6cd a33d fff5 18be
00000220: 98c4 19bd 19d2 913c 1027 03bd a87f fc3d
00000230: 1504 cfbd f6c9 133e d1de abbd f334 14be
00000240: 510e 79bd 6822 ee3b 75c0 9ebc c039 a03c
00000250: d6e3 03bc b519 1c3e 202b 6e3d 6433 26be
00000260: d003 b6bc 72ae 96bd 33c5 413d 873a 24be
00000270: 81a6 34be 718e c0bd bf32 d0bd 9be7 04be
00000280: 169b 7bbd d5d3 9abd 735e eabd 8933 acbd
00000290: 1b26 01be 7382 ae3b 8b70 1bbe 4a92 09be
000002a0: e79e 26be 00a9 65be 04f9 dcbc 4ad1 93bd
000002b0: eb78 9dbd d58c 28bd 85f7 803d 5ed7 b93d
000002c0: 7700 133e 5355 2f3d 1cc5 be3c 787d 963e
000002d0: 859a 893c 2d53 e93d f6c4 433b e76c 5cbd
000002e0: 40d1 543e e5f5 ff3d a19f 903d 347f 1a3e
000002f0: 3c02 4ebc 9477 44bb 566f a03d c11c dc3d
00000300: 1fba f43d ef67 93bb 81a9 afbc 9293 4e3e
00000310: acdc 6e3e 98d7 873e 04e5 7d3e a213 b73c
00000320: 75f8 0a3f 451e d03e 1ef1 a63e ee8b cc3e
00000330: 8647 d13e c008 21bd b765 b13d 7989 e7bc
00000340: 3863 89bd d945 8e3c 5d33 aa3d d3ee df3d
00000350: 34d9 23bd d919 f9bd 03db c33b 2e68 803d
00000360: 49ec 6e3d a973 5f3c e2a9 20be 1393 8cbd
00000370: 6dc2 0abe 83b2 0abd ffb6 57bd 2b57 07be
00000380: 8826 3e3d d0c0 003f 1883 d43e f471 933e
00000390: f7ca c43e 2504 e03e 7998 fc3d a814 ed3d
000003a0: fc3e 403d bb00 a5bd f3ef 363d 1a54 b33d
000003b0: a5f1 a03d bdb9 94bd 8b27 03bd 7e7f 02bd
000003c0: dd0f aabd ed4b 89bc af31 dcbd 3507 01be
000003d0: 85d7 afbd 25c2 9e3d 76e2 89bd 6ef6 8b3c
000003e0: 91f8 9cbd ae30 90bd 8067 f33e 6580 6f3e
000003f0: 3f07 f43d 97d5 9c3e ef9f a83e 0f51 193d

conv1.bias f4 [16]
-0.04246092 0.017920453 0.031064127 -0.089593604 0.0040724617 -0.115920536 -0.01405991 0.07868556
0.06106293 -0.093310125 -0.03916901 -0.051585656 -0.08574267 0.02051737 0.05130429 0.057947766
00000000: 80eb 2dbd eacd 923c 327a fe3c da7c b7bd
00000010: 4972 853b bf67 edbd 895b 66bc e525 a13d
00000020: 1f1d 7a3d 6119 bfbd af6f 20bd 7b4b 53bd
00000030: da99 afbd 0b14 a83c 7224 523d a35a 6d3d

bn1.weight f4 [16]
0.6876507 0.47923985 0.1659398 0.2542046 0.072017014 0.519303 0.25743243 0.4425705
0.39765295 0.49478897 0.10431747 0.32855538 0.0034744262 0.32639134 0.0752681 0.45358172
00000000: e009 303f ed5e f53e 1fec 293e 1b27 823e
00000010: a87d 933d 0bf1 043f 2fce 833e 9a98 e23e
00000020: 2b99 cb3e fb54 fd3e 66a4 d53d 6938 a83e
00000030: 33b3 633b c41c a73e 2926 9a3d dd3b e83e

bn1.bias f4 [16]
-0.3504281 -0.1839698 -0.086931 -0.13939665 -0.10843405 -0.2640224 -0.14400448 -0.25806803
-0.5518215 -0.25188053 -0.22360216 -0.18585043 -0.012870139 -0.17659214 -0.13789302 -0.26941767
00000000: 506b b3be 9462 3cbe e108 b2bd ffbd 0ebe
00000010: ac12 debd f22d 87be e975 13be 7e21 84be
00000020: 2c44 0dbf 7cf6 80be f7f7 64be 934f 3ebe
00000030: 47dd 52bc 92d4 34be d433 0dbe 1df1 89be

bn1.running_mean f4 [16]
-0.10847258 -0.24820769 0.71203446 -0.14792743 -0.12310521 -0.18376736 -0.07185515 0.012760059
1.172372 -0.14964563 0.33349666 -0.11439995 0.0056061274 -0.03498435 -0.037744362 0.010054822
00000000: df26 debd 282a 7ebe e447 363f 4a7a 17be
00000010: 961e fcbd 832d 3cbe cb28 93bd 910f 513c
00000020: 4910 963f b43c 19be 13c0 aa3e 854a eabd
00000030: 9bb3 b73b c04b 0fbd d599 1abd fbbc 243c

bn1.running_var f4 [16]
0.020502126 0.20773904 1.1257766 0.014171818 0.046478223 0.021543773 0.012761383 0.013300234
3.5022063 0.015662197 0.33660275 0.015656037 0.025410376 0.016604565 0.027388738 0.008274484
00000000: 13f4 a73c 8bb9 543e 7319 903f ea30 683c
00000010: f35f 3e3d 917c b03c 1f15 513c 3ae9 593c
00000020: 2624 6040 024e 803c 3257 ac3e 1741 803c
00000030: 6c29 d03c 4c06 883c 595e e03c b491 073c

conv2.weight f4 [32, 16, 5, 5]
-0.08691089 -0.08159726 -0.1995804 -0.23345882 -0.12622765 0.196639 -0.14434616 -0.17804155
-0.09718337 0.2174666 0.113729104 -0.15678577 0.076281294 0.112461545 -0.0039980486 0.2688268
0.032192178 0.03387755 0.1908579 -0.20573519 0.19568563 0.10239518 0.20629114 0.05186794
-0.17946413 0.12572496 -0.05318094 0.1461749 -0.033552073 -0.06900625 0.21125375 0.10638473
0.12323979 -0.009373892 0.1581924 0.09902206 0.025979701 -0.02804496 0.04132617 0.1437625
0.20349872 0.15703455 -0.08201173 0.11756147 -0.07839066 0.4790211 0.2632304 -0.0037640994
-0.009176008 0.08031068 0.051197387 -0.050834294 -0.018080272 -0.046401776 -0.035416957 -0.121144034
-0.11057316 -0.021183623 0.020596955 0.036123093 0.048119996 0.037900154 0.011075099 -0.0011187191
0.038346753 0.09830005 0.11850867 0.15610269 0.11939579 0.15097842 0.0058108307 0.03510744
0.12101826 0.1230709 0.07177608 0.09011051 0.097637355 0.03735007 0.06597212 0.12021979
-0.04294649 0.08442331 0.10956326 -0.01786832 -0.0038279071 -0.1796073 -0.060018767 0.108381264
-0.023786418 -0.12129528 -0.15263423 -0.03176431 -0.047539275 0.05353543 -0.060622636 -0.113282576
-0.12343461 -0.11816622 -0.0017461343 -0.3387433 0.12823686 0.1345883 -0.0018689265 0.0557182
-0.036698695 -0.018147089 0.052915264 -0.04754811 -0.038381945 0.026241334 -0.012809223 0.020569384
0.030726308 0.059005838 0.015074618 -0.01539143 -0.013129719 -0.016864337 -0.04679457 -0.08213912
0.053997252 -0.014546187 0.069956124 -0.07476321 -0.025937827 0.08067918 0.1845465 0.084999755
-0.018056411 -0.062260278 -0.16602083 -0.04781477 0.05850137 -0.010329852 0.07405733 -0.11120433
0.01653604 0.109242156 0.07524066 0.20607008 0.046110734 -0.118442155 -0.100980505 -0.047836915
0.12801641 -0.13660711 -0.0273907 -0.07638423 -0.14515762 -0.03841565 0.105470814 0.051291708
-0.06606705 -0.09332489 -0.05405555 0.14575832 0.0058338204 -0.06549203 0.05853102 -0.052839935
-0.038517226 -0.01644803 0.02647221 -0.20295392 0.23282549 0.2687716 0.048112202 -0.08553905
-0.20898116 -0.091470145 -0.037624672 -0.23338147 -0.08061639 -0.0500779 -0.25259835 0.16663632
0.16339734 0.0014458228 0.19006102 0.21568522 0.18655044 0.11695833 0.11672054 -0.022871463
0.055160146 -0.015662609 0.065130964 0.0030973027 0.10580736 0.072108835 0.05884232 0.011599842
-0.0025723292 0.03567624 -0.2559416 0.15826692 0.1629923 0.04643402 -0.14818253 -0.28917766
-0.01290436 -0.030887077 -0.01962939 0.008564121 -0.017189167 0.10556631 0.030066244 0.045182098
0.09568522 -0.000515875 0.029473528 0.08303746 0.050586432 0.11012808 0.075921275 -0.029738402
0.013395242 -0.034091964 0.043950696 0.0014224993 -0.034377098 -0.019373873 -0.024849715 0.019480025
-0.024042992 0.075619005 -0.08236935 -0.08594351 0.007320573 -0.23267591 0.2212771 0.14862725
-0.030641466 0.055312082 0.11550713 0.10143685 -0.15619375 -0.08860458 0.047806937 0.20794661
0.07385565 0.09323106 -0.12688991 0.002677637 0.0020279565 0.06928023 -0.0593179 -0.079046965
0.037612177 -0.17772877 -0.030642612 -0.0018420006 0.015397648 -0.007431809 -0.058243196 0.08580776
00000000: 56fe b1bd 771c a7bd ce5e 4cbe d40f 6fbe
00000010: d241 01be bc5b 493e 7bcf 13be 8650 36be
00000020: 1308 c7bd 90af 5e3e ceea e83d 738c 20be
00000030: 5e39 9c3d 3d52 e63d 1002 83bb aba3 893e
00000040: f2db 033d 30c3 0a3d 4170 433e 3fac 52be
00000050: d061 483e 90b4 d13d fc3d 533e 7a73 543d
00000060: 72c5 37be 0bbe 003e 42d4 59bd dfae 153e
00000070: e66d 09bd 2653 8dbd e752 583e 3de0 d93d
00000080: 2565 fc3d f494 19bc 30fd 213e 14cc ca3d
00000090: 62d3 d43c 8bbe e5bc a145 293d 7a36 133e
000000a0: f861 503e aacd 203e c4f5 a7bd 11c4 f03d
000000b0: 488b a0bd 4142 f53e 23c6 863e 1caf 76bb
000000c0: f856 16bc ed79 a43d 5ab4 513d 9f37 50bd
000000d0: 141d 94bc ca0f 3ebd 5f11 11bd 5d1a f8bd
000000e0: 2e74 e2bd 4789 adbc f2ba a83c cff5 133d
000000f0: 7919 453d 313d 1b3d 5574 353c fca1 92ba
00000100: 7c11 1d3d 8951 c93d acb4 f23d 62d9 1f3e
00000110: c885 f43d 169a 1a3e c868 be3b d2cc 0f3d
00000120: 6cd8 f73d 990c fc3d 56ff 923d dc8b b83d
00000130: 18f6 c73d 63fc 183d 641c 873d cb35 f63d
00000140: a9e8 2fbd 21e6 ac3d b462 e03d 9560 92bc
00000150: a0dd 7abb faea 37be 3dd6 75bd fff6 dd3d
00000160: bcdb c2bc a969 f8bd 264c 1cbe 4b1b 02bd
00000170: 8bb8 42bd f847 5b3d 714f 78bd b200 e8bd
00000180: 49cb fcbd 2201 f2bd 8bde e4ba c36f adbe
00000190: 8650 033e 84d1 093e c4f6 f4ba c438 643d
000001a0: 5f51 16bd 34a9 94bc adbd 583d cfc1 42bd
000001b0: 6336 1dbd 11f8 d63c c6dd 51bc 2081 a83c
000001c0: bdb5 fb3c 1bb0 713d 88fb 763c 562c 7cbc
000001d0: 081e 57bc 1427 8abc aaab 3fbd 8e38 a8bd
000001e0: 392c 5d3d 2153 6ebc 2845 8f3d 741d 99bd
000001f0: 917b d4bc 203b a53d c2f9 3c3e 5a14 ae3d
00000200: 0aeb 93bc a204 7fbd 5d01 2abe 6cd9 43bd
00000210: 229f 6f3d 8a3e 29bc 5fab 973d 19bf e3bd
00000220: 9776 873c 5aba df3d c617 9a3d 0904 533e
00000230: 9cde 3c3d cd91 f2bd dece cebd a4f0 43bd
00000240: bc16 033e bce2 0bbe 7662 e0bc 566f 9cbd
00000250: 33a4 14be bb59 1dbd 1501 d83d 4117 523d
00000260: 294e 87bd 1f21 bfbd 5a69 5dbd ab41 153e
00000270: a229 bf3b af20 86bd 39be 6f3d b06e 58bd
00000280: 3dc4 1dbd 05be 86bc 40dc d83c 27d3 4fbe
00000290: ce69 6e3e 6e9c 893e 4d11 453d 192f afbd
000002a0: 28ff 55be b354 bbbd 541c 1abd 8dfb 6ebe
000002b0: 351a a5bd 7c1e 4dbd 9254 81be b6a2 2a3e
000002c0: a251 273e c381 bd3a 5b9f 423e 96dc 5c3e
000002d0: 1407 3f3e d987 ef3d 2e0b ef3d ef5c bbbc
000002e0: 9bef 613d df4e 80bc 6263 853d 1efc 4a3b
000002f0: 87b1 d83d ccad 933d a504 713d 440d 3e3c
00000300: 8694 28bb 4021 123d c70a 83be b910 223e
00000310: 74e7 263e 9931 3e3d 29bd 17be 180f 94be
00000320: cf6c 53bc e506 fdbc d1cd a0bc 8750 0c3c
00000330: 4cd0 8cbc 2633 d83d 7c4d f63c dd10 393d
00000340: 9df6 c33d c93b 07ba 7872 f13c 8b0f aa3d
00000350: b833 4f3d d58a e13d 9d7c 9b3d f39d f3bc
00000360: b877 5b3c 04a4 0bbd a505 343d 2873 ba3a
00000370: 00cf 0cbd f5b5 9ebc a191 cbbc 9394 9f3c
00000380: cff5 c4bc 23de 9a3d 43b1 a8bd 2703 b0bd
00000390: 6be1 ef3b 9842 6ebe 7796 623e be31 183e
000003a0: d003 fbbc ec8e 623d 018f ec3d 20be cf3d
000003b0: 41f1 1fbe 5176 b5bd 35d1 433d f5ef 543e
000003c0: a241 973d edef be3d 6eef 01be 4b7b 2f3b
000003d0: 77e7 043b cbe2 8d3d 54f7 72bd 60e3 a1bd
000003e0: 3a0f 1a3d 88fe 35be 3706 fbbc 496f f1ba
000003f0: 6b46 7c3c 8886 f3bb 6b90 6ebd fbbb af3d

conv2.bias f4 [32]
0.041388635 -0.047218267 0.01748297 0.0023243676 -0.008108017 0.0038796181 0.027178802 -0.036484167
0.0029857105 -0.017757772 -0.0306039 -0.0075175627 0.028592601 0.008078795 0.01871048 0.030216744
-0.029595453 -0.0046358923 0.017712666 -0.04230837 0.039172135 -0.037389822 0.009873966 -0.029548103
-0.04115052 -0.017552176 0.019502675 0.04190303 -0.0339567 0.050021797 -0.026961474 -0.009034605
00000000: 2187 293d f167 41bd 7238 8f3c 6b54 183b
00000010: 7dd7 04bc 3141 7e3b 14a6 de3c 6c70 15bd
00000020: e9ab 433b bf78 91bc 08b5 fabc e355 f6bb
00000030: 083b ea3c ec5c 043c b846 993c 1b89 f73c
00000040: 2a72 f2bc afe8 97bb 271a 913c 8b4b 2dbd
00000050: f672 203d 1226 19bd 6ac6 213c dd0e f2bc
00000060: 738d 28bd 95c9 8fbc 13c4 9f3c 83a2 2b3d
00000070: 2e16 0bbd a8e3 4c3d 4fde dcbc e105 14bc

bn2.weight f4 [32]
0.2789438 0.47154006 0.41701028 0.55963373 0.37730515 0.44632497 0.6506144 0.22388686
0.6362511 0.8087625 0.6137315 0.4340453 0.332662 0.33183283 0.55353713 0.4611823
0.7742471 0.34462702 0.8750873 8.9292465e-05 0.5112716 0.35962936 0.7499105 0.947417
0.59515357 0.80681497 0.20483921 0.80556965 0.6320559 0.560384 0.65310025 0.5054541
00000000: b9d1 8e3e b36d f13e 5f82 d53e 2844 0f3f
00000010: 242e c13e b584 e43e aa8e 263f 9942 653e
00000020: 5ae1 223f 0f0b 4f3f 821d 1d3f 303b de3e
00000030: ac52 aa3e fee5 a93e 9cb4 0d3f 1620 ec3e
00000040: 0f35 463f f472 b03e b905 603f 8742 bb38
00000050: b2e2 023f 5721 b83e 22fa 3f3f ec89 723f
00000060: fc5b 183f 6d8b 4e3f 5fc1 513e d039 4e3f
00000070: 6ace 213f 5375 0f3f 9431 273f 7165 013f

bn2.bias f4 [32]
-0.24638028 -0.24865843 -0.16469423 -0.39416525 0.0014435214 -0.035528224 -0.24928285 -0.081030086
-0.3447937 -0.44517317 -0.29184362 -0.18337128 -0.2147964 -0.17315216 -0.30174673 -0.3302228
-0.14292549 -0.1273139 -0.07397619 -0.0074962634 -0.21812242 -0.10819314 -0.22438332 -0.42530933
-0.38648367 -0.20883693 -0.23022683 -0.37932843 -0.10484791 -0.1778392 -0.25808585 -0.26139778
00000000: 1d4b 7cbe 51a0 7ebe 9ba5 28be 07d0 c9be
00000010: 8a34 bd3a 0b86 11bd 0144 7fbe 1af3 a5bd
00000020: cd88 b0be bded e3be 876c 95be aec5 3bbe
00000030: 96f3 5bbe cd4e 31be 8c7e 9abe f612 a9be
00000040: 0f5b 12be 935e 02be d480 97bd 37a3 f5bb
00000050: 7c5b 5fbe 5d94 ddbd bec4 65be 25c2 d9be
00000060: 30e1 c5be 59d9 55be 95c0 6bbe 5637 c2be
00000070: 80ba d6bd 7b1b 36be d423 84be eed5 85be

bn2.running_mean f4 [32]
0.24588634 -0.12905103 0.09952934 -0.022922322 -0.02451584 0.019979369 -0.15095384 0.0070163263
-0.12849942 -0.10732656 -0.14020468 0.0038603838 0.13303235 -0.14438035 0.20567077 0.014772751
-0.020030357 0.051585265 0.18731831 -0.047790617 0.04882841 0.08864692 -0.0903038 -0.15259486
-0.07730275 -0.27632642 0.029139528 -0.09461662 0.019193796 0.043867365 -0.02236789 -0.11028704
00000000: a1c9 7b3e f425 04be 0ad6 cb3d 98c7 bbbc
00000010: 71d5 c8bc c6ab a33c a593 1abe 36e9 e53b
00000020: 5a95 03be 07ce dbbd d191 0fbe 7efe 7c3b
00000030: a239 083e 71d8 13be 5c9b 523e 6909 723c
00000040: b416 a4bc 124b 533d 5fd0 3f3e 18c0 43bd
00000050: 4d00 483d 848c b53d 33f1 b8bd d441 1cbe
00000060: e750 9ebd a87a 8dbe 05b6 ee3c 5cc6 c1bd
00000070: 4f3c 9d3c 44ae 333d de3c b7bc 2cde e1bd

bn2.running_var f4 [32]
0.005450685 0.004343473 0.023191407 0.013442949 0.010710985 0.007137907 0.011126594 0.004126868
0.012382903 0.012270943 0.018519145 0.004748456 0.008506092 0.0105200345 0.008244115 0.004731371
0.010349026 0.017833328 0.034758683 0.0002294323 0.0067065824 0.005559947 0.012863205 0.04895451
0.015523598 0.06986136 0.0075964564 0.023321878 0.0093365805 0.01722808 0.03629313 0.008344969
00000000: a99b b23b b153 8e3b e8fb bd3c d13f 5c3c
00000010: 217d 2f3c 1be5 e93b 514c 363c ae3a 873b
00000020: a9e1 4a3c 110c 493c 76b5 973c f098 9b3b
00000030: 235d 0b3c 395c 2c3c 5312 073c 9e09 9b3b
00000040: f68e 293c 3317 923c 1f5f 0e3d c493 7039
00000050: e4c2 db3b 3730 b63b 31c0 523c 8684 483d
00000060: b056 7e3c 7913 8f3d b2eb f83b 860d bf3c
00000070: 75f8 183c e721 8d3c 1ba8 143d 56b9 083c

conv3.weight f4 [32, 32, 5, 5]
0.08855763 0.037536174 0.1004533 0.064387485 0.14429761 -0.03065638 -0.020030567 -0.06705199
0.025196942 0.06417942 -0.2342965 0.025410116 -0.00047689362 -0.08724384 -0.012827312 0.15694849
-0.18216795 -0.04594024 -0.07004677 -0.004360138 -0.0018829413 -0.12871192 0.031515267 -0.032498837
0.08126314 -0.13959847 -0.09031876 0.008377101 -0.14335206 -0.20964023 0.21659575 -0.0201345
0.057707552 0.050573252 -0.10067159 0.03431778 0.04035986 0.09302983 0.056830347 0.024549546
-0.15941115 -0.13644496 0.039404318 0.1095275 0.037115324 -0.19729677 -0.036206547 -0.119290076
0.025770718 0.15051435 0.10920093 0.06448893 0.14587441 0.1061252 0.12118401 -0.24616392
0.05957617 0.022622555 0.1193794 0.04881006 -0.24298383 -0.23781161 -0.18547757 -0.10669296
-0.067329206 0.006436735 -0.08099057 -0.051873516 -0.029044975 -0.017057339 -0.007636337 -0.12369706
-0.07264777 0.07182187 -0.3030623 -0.02853909 -0.06331546 -0.065234445 -0.007103659 0.06740778
-0.06231336 0.0071600783 0.054913804 0.06709278 0.07176973 0.10618335 -0.0026508286 -0.09829985
0.09222383 -0.14035569 0.18528034 0.010170728 -0.0025176585 0.12698555 -0.21613699 0.17913778
-0.28857362 0.058390915 -0.0015782178 0.05570218 0.11272818 -0.0076841153 0.052143708 0.051745776
0.06505432 -0.1292844 0.012247981 0.053156942 0.043538883 -0.01605502 -0.25120103 -0.16699374
-0.055068713 -0.1667809 0.001050477 -0.28394234 -0.11844024 -0.03382666 -0.17390715 -0.17736557
0.21225536 0.083784565 0.12158174 0.0001955362 -0.21748286 0.12666747 -0.050945044 -0.040443543
-0.018823765 0.14639783 0.12001804 0.052513372 0.07276038 0.10205928 0.039305728 -0.10143127
-0.18814835 -0.123362005 0.17264447 0.15191065 -0.09179764 -0.17953376 -0.16844507 -0.14643356
-0.24900204 -0.0025635466 -0.12650158 -0.23472182 -0.2517101 0.01689993 -0.20632842 -0.19328016
0.04688729 -0.00991068 -0.07888347 0.025401233 -0.06315307 0.0027470072 -0.043947984 -0.12730089
0.03458816 0.062176652 0.047994345 0.03534785 -0.04044348 0.07914437 0.16466995 0.081308365
0.21519454 0.016601378 -0.24659343 -0.05766132 -0.013285712 0.108173005 0.10380226 -0.035330676
0.018409394 0.026904797 0.0141602205 0.09545452 -0.13207401 0.16430448 -0.08381707 0.029053323
-0.07731867 -0.08970927 -0.083246276 -0.023509169 -0.13187982 -0.10810821 -0.0073828828 -0.008143704
0.12986672 0.049470704 -0.25699347 -0.15706772 -0.03316292 -0.16785412 -0.14033498 -0.20627716
-0.008508957 -0.0050555686 -0.043337487 -0.06815215 -0.039346315 -0.05776667 0.06481956 -0.013107909
0.05716877 0.00033254124 0.050803598 0.0014192082 0.12320162 -0.025059083 0.16255973 0.07670279
-0.15521863 0.11634383 0.13011767 0.2494686 0.12820312 -0.06593157 -0.1164996 0.011929005
0.14825034 -0.015562033 0.02318748 -0.046716116 0.06976471 -0.0916257 0.06604899 -0.09890709
0.003378987 0.092911914 -0.11287421 0.022779694 0.015152339 -0.18973354 0.0035168915 -0.017961139
-0.06605401 -0.07010742 -0.03475887 0.063038 -0.042819016 -0.16327514 -0.1430134 0.05110296
0.1488274 -0.13952824 0.022251196 -0.10409057 -0.113590315 -0.016695408 0.02156999 0.15074623
00000000: b45d b53d 88bf 193d 76ba cd3d 96dd 833d
00000010: c1c2 133e 1723 fbbc 2517 a4bc 8e52 89bd
00000020: d169 ce3c 8070 833d 6ceb 6fbe e028 d03c
00000030: 9407 fab9 e6ac b2bd a529 52bc 1bb7 203e
00000040: 3c8a 3abe d52b 3cbd ae74 8fbd 7ddf 8ebb
00000050: 07cd f6ba 0fcd 03be 2716 013d 801d 05bd
00000060: 4a6d a63d e7f2 0ebe 0bf9 b8bd 1c40 093c
00000070: e2ca 12be eeab 56be 47cb 5d3e 1bf1 a4bc
00000080: c15e 6c3d e625 4f3d e82c cebd cd90 0c3d
00000090: 6150 253d 6c86 be3d f0c6 683d 211c c93c
000000a0: ad3c 23be 3ab8 0bbe 6c66 213d f44f e03d
000000b0: 3d06 183d 2a08 4abe 514d 14bd 5b4e f4bd
000000c0: 1d1d d33c 6f20 1a3e bda4 df3d c612 843d
000000d0: 1a60 153e 2b58 d93d 522f f83d 6512 7cbe
000000e0: 2406 743d f052 b93c 307d f43d 0fed 473d
000000f0: c1d0 78be e384 73be d5ed 3dbe d781 dabd
00000100: e5e3 89bd 3feb d23b 62de a5bd 5379 54bd
00000110: baef edbc d5bb 8bbc 3d3a fabb e254 fdbd
00000120: 5bc8 94bd 5817 933d fb2a 9bbe cfca e9bc
00000130: 89ab 81bd a399 85bd d0c5 e8bb 170d 8a3d
00000140: 4b3c 7fbd 179f ea3b 4ced 603d f067 893d
00000150: 02fc 923d a876 d93d 86b9 2dbb 6f51 c9bd
00000160: d9df bc3d 67b9 0fbe 21ba 3d3e 20a3 263c
00000170: 4dff 24bb 8008 023e 0453 5dbe e56f 373e
00000180: ecbf 93be 502b 6f3d 34dc ceba f827 643d
00000190: 08de e63d 08cb fbbb a494 553d 61f3 533d
000001a0: 333b 853d 2163 04be c1ab 483c 18bb 593d
000001b0: d455 323d d185 83bc 6c9d 80be 6800 2bbe
000001c0: bb8f 61bd 9dc8 2abe 29b0 893a e460 91be
000001d0: cc90 f2bd d38d 0abd b714 32be 529f 35be
000001e0: 7859 593e 3e97 ab3d d9ff f83d d908 4d39
000001f0: d4b3 5ebe 1eb5 013e c0ab 50bd 21a8 25bd
00000200: 4c34 9abc 50e9 153e 05cc f53d 4318 573d
00000210: 6503 953d 7504 d13d 0bff 203d 33bb cfbd
00000220: f6a9 40be 38a5 fcbd b6c9 303e 778e 1b3e
00000230: 6700 bcbd b3d7 37be dd7c 2cbe aef2 15be
00000240: 64fa 7ebe 2d01 28bb a189 01be eb5a 70be
00000250: 25e0 80be b971 8a3c c247 53be 3ceb 45be
00000260: e30c 403d 6860 22bc a88d a1bd 3f16 d03c
00000270: 6656 81bd 2207 343b cd02 34bd 2a5b 02be
00000280: 51ac 0d3d f2ac 7e3d b895 443d e8c8 103d
00000290: 10a8 25bd 7216 a23d 3d9f 283e 0085 a63d
000002a0: f55b 5c3e 9dff 873c fd82 7cbe 472e 6cbd
000002b0: 51ac 59bc cf89 dd3d 4796 d43d e6b6 10bd
000002c0: 4ccf 963c 7367 dc3c 4500 683c a97d c33d
000002d0: 693e 07be 6f3f 283e 49a8 abbd 3c01 ee3c
000002e0: 4059 9ebd 7eb9 b7bd 067d aabd 4d96 c0bc
000002f0: 810b 07be d667 ddbd 1cec f1bb 2c6d 05bc
00000300: c8fb 043e cba1 4a3d a694 83be 5cd6 20be
00000310: d8d5 07bd f3e1 2bbe f9b3 0fbe 523a 53be
00000320: 2769 0bbc 2fa9 a5bb a682 31bd 5b93 8bbd
00000330: 9a29 21bd be9c 6cbd 1ec0 843d 8ec2 56bc
00000340: cd29 6a3d ee58 ae39 6f17 503d ba04 ba3a
00000350: 2251 fc3d b548 cdbc 0f76 263e 5a16 9d3d
00000360: a2f1 1ebe ad45 ee3d 913d 053e b274 7f3e
00000370: ae47 033e 2207 87bd 5897 eebd e071 433c
00000380: f0ce 173e e6f7 7ebc acf3 bd3c 6659 3fbd
00000390: cde0 8e3d 41a6 bbbd b144 873d cd8f cabd
000003a0: ff71 5d3b 9a48 be3d 982a e7bd 7b9c ba3c
000003b0: 8441 783c 8249 42be a67b 663b 3d23 93bc
000003c0: 5347 87bd 7b94 8fbd 515f 0ebd 111a 813d
000003d0: fe62 2fbd 9931 27be 1b72 12be 5651 513d
000003e0: 3666 183e 7ee0 0ebe 2448 b63c 702d d5bd
000003f0: 0aa2 e8bd cfc4 88bc 8cb3 b03c 385d 1a3e

conv3.bias f4 [32]
-0.009750874 -0.021409126 -0.0048746807 0.0244389 0.013619162 -0.013273302 -0.025570108 -0.033972222
-0.015207759 -0.03166002 0.012312778 -0.01964427 -0.0153755555 -0.026519537 0.036284823 0.00013642949
0.02971754 -0.00986266 0.02975346 -0.014566745 -0.020187942 -0.03155052 0.011192132 0.012404554
0.01801444 -0.011402384 -0.018430373 -0.009432994 -0.025452504 0.01741337 -0.03187885 0.031293303
00000000: 21c2 1fbc 3162 afbc c9bb 9fbb 1734 c83c
00000010: e822 5f3c 4378 59bc 6778 d1bc 7526 0bbd
00000020: f729 79bc f0ad 01bd 89bb 493c 05ed a0bc
00000030: c1e9 7bbc 803f d9bc 659f 143d 830e 0f39
00000040: 3372 f33c ff96 21bc 87bd f33c 5ba9 6ebc
00000050: 2f61 a5bc 1e3b 01bd 345f 373c 783c 4b3c
00000060: 0593 933c 11d1 3abc 4bfb 96bc d88c 1abc
00000070: c581 d0bc 7ca6 8e3c 6693 02bd 682d 003d

bn3.weight f4 [32]
0.6983618 0.36729553 0.4209307 0.45514762 0.26811314 0.5995193 0.38867328 0.55312663
0.6340914 0.39594373 0.6737613 0.5396117 0.5996828 0.45953995 0.24170226 0.23498403
0.002757904 0.22051513 0.5578294 0.23484525 0.5069256 0.40106523 0.6008478 0.20635931
0.34687257 0.601496 0.7397654 0.25895756 0.55754465 0.25127214 0.19569373 0.4099047
00000000: d7c7 323f 290e bc3e 3b84 d73e 1c09 e93e
00000010: 2046 893e 197a 193f 2f00 c73e b599 0d3f
00000020: d053 223f 23b9 ca3e 9f7b 2c3f fe23 0a3f
00000030: d084 193f d248 eb3e cc80 773e a79f 703e
00000040: f3bd 343b b8ce 613e e8cd 0e3f 467b 703e
00000050: e0c5 013f 6c58 cd3e 29d1 193f db4f 533e
00000060: 4899 b13e a4fb 193f 4461 3d3f 1696 843e
00000070: 3fbb 0e3f bea6 803e f063 483e 07df d13e

bn3.bias f4 [32]
-0.2365816 -0.304239 -0.42325777 -0.44206038 -0.29126987 -0.5229216 -0.3608971 -0.45783183
-0.4110813 -0.47207117 -0.4583485 -0.3514635 -0.38065398 -0.50111216 -0.2540881 -0.1959066
-0.024785234 -0.26206556 -0.4615747 -0.28240502 -0.2326571 -0.37842095 -0.4128425 -0.39614454
-0.30210546 -0.45279306 -0.5768088 -0.18259615 -0.49331963 -0.21612045 -0.21185002 -0.38606378
00000000: 7242 72be 37c5 9bbe 3eb5 d8be bd55 e2be
00000010: 5321 95be 31de 05bf 81c7 b8be ef68 eabe
00000020: 4079 d2be 50b3 f1be a8ac eabe 06f3 b3be
00000030: 14e5 c2be e348 00bf d617 82be bd9b 48be
00000040: 670a cbbc 752d 86be 8553 ecbe 6497 90be
00000050: aa3d 6ebe 64c0 c1be 1860 d3be 75d3 cabe
00000060: 91ad 9abe 7ed4 e7be bea9 13bf 7cfa 3abe
00000070: 6494 fcbe ae4e 5dbe 36ef 58be 27aa c5be

bn3.running_mean f4 [32]
-2.7354963 -0.7171851 -1.4431654 -0.8782288 -0.24429563 -0.22186513 -0.45200157 0.57334363
-0.010495758 -1.0783017 -2.5797768 -1.2018077 -1.2919167 -2.0418887 0.6673039 -0.35245925
-0.06785662 0.94163346 -0.001005481 0.040142234 -1.7221668 -0.39623764 -0.3416565 -0.11178645
-0.23593664 -1.0579889 -0.65024334 -1.414948 -1.1700091 -0.068188205 -0.053119056 0.61995965
00000000: 5f12 2fc0 7199 37bf a5b9 b8bf 9ad3 60bf
00000010: a228 7abe 9d30 63be c06c e7be a6c6 123f
00000020: 66f6 2bbc ca05 8abf 101b 25c0 d6d4 99bf
00000030: 875d a5bf 4eae 02c0 6ed4 2a3f 8a75 b4be
00000040: 69f8 8abd e40e 713f 58ca 83ba 2f6c 243d
00000050: f66f dcbf a9df cabe 9aed aebe 4bf0 e4bd
00000060: 6099 71be 2e6c 87bf 5976 26bf 041d b5bf
00000070: dcc2 95bf 42a6 8bbd 5e93 59bd adb5 1e3f

bn3.running_var f4 [32]
2.5405304 0.51013863 0.40776256 1.528786 0.6260714 0.79041386 1.5531082 2.9483426
2.2363114 1.572942 1.1483705 4.450931 2.846533 0.9010684 1.2350111 0.41786733
0.029901138 2.7863567 3.4674904 0.32558855 1.1101176 0.44605222 3.9956067 0.82368845
0.22260018 0.34649602 0.54813623 0.61782265 0.3433233 0.51685584 0.3488117 3.1588209
00000000: 0d98 2240 7298 023f 41c6 d03e 42af c33f
00000010: 3746 203f 9058 4a3f 40cc c63f a5b1 3c40
00000020: ba1f 0f40 2a56 c93f cefd 923f 076e 8e40
00000030: 992d 3640 6bac 663f d814 9e3f b5f2 d53e
00000040: 3bf3 f43c ab53 3240 5deb 5d40 8bb3 a63e
00000050: 5518 8e3f f560 e43e 05b8 7f40 3fdd 523f
00000060: 4df1 633e ed67 b13e a852 0c3f a029 1e3f
00000070: 12c8 af3e aa50 043f 7297 b23e 1f2a 4a40

head.weight f4 [4, 800]
0.00856407 -0.0087004285 -0.030273855 0.015552955 -0.010427995 -0.05060256 0.01578469 -0.012477101
0.019033467 -0.035154533 0.13522236 0.14126259 0.045415156 0.026358016 0.16589993 0.12352801
0.07680374 0.06542486 0.043200966 0.16308789 0.2313099 0.10964089 0.029461287 0.06339631
0.19349827 0.055013623 0.03352564 0.11720631 0.03650205 0.090805404 -0.11605404 -0.0025334507
-0.07291788 -0.10637151 -0.12228534 -0.06462304 0.033045102 0.0747771 0.044556674 0.044980474
0.0064139063 0.05208484 -0.056894116 -0.019931078 0.06173061 -0.124761425 -0.0010113205 0.033346664
-0.085448824 0.12246406 0.032150153 -0.067321405 -0.0847899 -0.01229474 -0.077446565 -0.03967329
0.15239066 0.017848393 0.06417854 0.009087791 -0.03045429 -0.018738074 -0.024632087 0.08517111
0.034686156 0.185062 -0.029207526 0.013912005 -0.046662256 -0.0017911132 -0.049747996 -0.018579578
-0.034035232 0.018788556 -0.10175923 0.006625936 0.016901376 -0.01818213 -0.004134389 0.007167192
0.12357866 0.084939435 0.08552562 0.006358885 -0.045742482 0.0483354 -0.08331829 -0.06865972
0.012765163 -0.089959025 -0.012794946 -0.024661986 -0.057030845 -0.020100215 -0.0969759 -0.017192613
0.0420613 0.019256324 -0.03724926 0.051019516 0.13523893 -0.03650666 0.001571041 0.0019002908
-0.08752969 0.007339373 -0.052852433 0.03347553 -0.049642067 0.24940513 0.01669875 -0.0645095
-0.061881837 0.032262936 0.22236094 -0.03053475 0.052044168 -0.045020297 0.028852765 -0.0163874
0.08013782 0.07579865 0.0483237 -0.057341218 0.0507001 0.1585838 -0.027429722 -0.05466896
0.0015675623 0.053820334 0.045604356 -0.021070424 -0.04106509 -0.01365582 0.12683694 -0.024841871
0.06912377 0.00068010733 -0.06593957 0.03268597 0.08231486 -0.0056328843 -0.014793699 0.042717535
0.113286 -0.11058038 -0.005514809 -0.010030421 0.0025048573 0.04045622 -0.028115058 -0.03704302
-0.007536428 -0.070705436 -0.0072209807 -0.046439514 -0.028487092 0.012274942 -0.012528919 0.17319639
0.011020162 0.018117089 0.016726721 -0.018451864 -0.16319148 0.012370653 -0.020546328 -0.0048137824
-0.015327493 0.16608892 0.13866997 -0.017978102 0.050781313 0.050639294 -0.15297127 0.03572493
-0.0110486355 -0.001163728 -0.00438744 0.0019867094 -0.06451877 0.05044039 -0.009876985 0.035142884
0.10393715 0.1492319 0.023738792 0.0017727272 0.10663614 0.00153159 -0.1360958 0.0013281798
-0.049432177 -0.05985895 -0.117236875 0.03734996 0.011874352 0.0053706453 -0.02401005 0.011855284
0.07755175 -0.03509905 -0.0037359246 -0.017882118 0.0003876782 0.05521034 -0.03018319 0.042926148
-0.023040142 -0.016707258 0.0518389 0.034333855 0.024367936 -0.0009220562 0.17113969 0.07222052
0.044616167 -0.028790606 0.06487128 0.20298363 0.13725953 0.028598033 0.054638233 -0.010891526
0.08190365 -0.10264483 0.09271679 -0.017842812 0.04239261 -0.040162794 -0.11350238 0.11514953
-0.0911962 0.0298305 0.028473286 0.17136942 0.10063858 0.06018908 0.07616151 0.07219125
0.053133402 0.033657886 -0.033752568 0.030982904 -0.061795637 0.0442793 -0.00923193 0.12674733
0.05608636 -0.17461067 -0.028629284 0.057254847 -0.015633345 0.016343173 -0.0070173517 0.18955481
00000000: 5050 0c3c 3e8c 0ebc e000 f8bc d2d1 7e3c
00000010: 2eda 2abc a144 4fbd e54e 813c c16c 4cbc
00000020: 13ec 9b3c 33fe 0fbd bb77 0a3e 24a7 103e
00000030: 3e05 3a3d c4ec d73c ace1 293e 41fc fc3d
00000040: 474b 9d3d 78fd 853d 7ff3 303d 8300 273e
00000050: 81dc 6c3e 678b e03d cc58 f13c edd5 813d
00000060: 6924 463e f755 613d 2e52 093d dd09 f03d
00000070: 2c83 153d 2ff8 b93d bead edbd 4008 26bb
00000080: f855 95bd 4ed9 d9bd bd70 fabd 1659 84bd
00000090: 4d5a 073d bc24 993d 0f81 363d 723d 383d
000000a0: bf2b d23b ea56 553d ce09 69bd 8046 a3bc
000000b0: 3cd9 7c3d eb82 ffbd 498e 84ba 8396 083d
000000c0: cbff aebd 70ce fa3d e1af 033d cedf 89bd
000000d0: 54a6 adbd e16f 49bc 4e9c 9ebd 7680 22bd
000000e0: 4c0c 1c3e cb36 923c 0a70 833d f5e4 143c
000000f0: 467b f9bc 9780 99bc 3bc9 c9bc 316e ae3d
00000100: 1213 0e3d e580 3d3e 9f44 efbc 2eef 633c
00000110: ec20 3fbd c9c3 eaba 8ec4 4bbd 3334 98bc
00000120: 8768 0bbd 75ea 993c 2567 d0bd 611e d93b
00000130: c174 8a3c b1f2 94bc c579 87bb c4da ea3b
00000140: cf16 fd3d baf4 ad3d 0e28 af3d 325e d03b
00000150: 785c 3bbd 57fb 453d c8a2 aabd 789d 8cbd
00000160: f924 513c 703c b8bd e5a1 51bc ef07 cabc
00000170: 2d99 69bd 35a9 a4bc 4d9b c6bd 86d7 8cbc
00000180: 7848 2c3d 70bf 9d3c ae92 18bd d7f9 503d
00000190: 137c 0a3e 0288 15bd 63eb cd3a 2e13 f93a
000001a0: c442 b3bd 207f f03b cb7b 58bd a31d 093d
000001b0: 7b55 4bbd 0f64 7f3e d1cb 883c 8f1d 84bd
000001c0: cf77 7dbd 2426 043d 96b2 633e 0324 fabc
000001d0: 442c 553d 3467 38bd a25c ec3c de3e 86bc
000001e0: 4c1f a43d 533c 9b3d 12ef 453d a0de 6abd
000001f0: e8aa 4f3d cb63 223e 4cb4 e0bc 8fec 5fbd
00000200: aa76 cd3a b672 5c3d a2cb 3a3d e29b acbc
00000210: de33 28bd a9bc 5fbc 8be1 013e 2e81 cbbc
00000220: c390 8d3d 3b49 323a 530b 87bd b9e1 053d
00000230: b194 a83d 0f94 b8bb 4561 72bc 95f8 2e3d
00000240: 7e02 e83d f777 e2bd 92b5 b4bb a356 24bc
00000250: 8828 243b 6cb5 253d 8d51 e6bc 6cba 17bd
00000260: 24f4 f6bb 03ce 90bd fa9d ecbb 5c37 3ebd
00000270: c35d e9bc d71c 493c 1846 4dbc 655a 313e
00000280: e98d 343c 4a6a 943c 7a06 893c 5d28 97bc
00000290: ab1b 27be 48ae 4a3c c650 a8bc efbc 9dbb
000002a0: 2a20 7bbc 3713 2a3e 80ff 0d3e d046 93bc
000002b0: 1100 503d 266b 4f3d 80a4 1cbe 4e54 123d
000002c0: 5605 35bc 3b88 98ba 84c4 8fbb 7433 023b
000002d0: 6b22 84bd 959a 4e3d 14d3 21bc fcf1 0f3d
000002e0: 00dd d43d 3fd0 183e db77 c23c db5a e83a
000002f0: 0c64 da3d a2bf c83a b35c 0bbe 5216 ae3a
00000300: 6579 4abd a92e 75bd e319 f0bd 46fc 183d
00000310: a48c 423c 3dfc af3b b9b0 c4bc aa3c 423c
00000320: 74d3 9e3d 05c4 0fbd 6ad6 74bb 857d 92bc
00000330: 4a41 cb39 3d24 623d bd42 f7bc 54d3 2f3d
00000340: aebe bcbc a9dd 88bc 0755 543d a8a1 0c3d
00000350: 449f c73c 25b6 71ba 3e3f 2f3e 5ae8 933d
00000360: 71bf 363d 47da ebbc 3cdb 843d f1da 4f3e
00000370: c38d 0c3e 6c46 ea3c 57cc 5f3d 5f72 32bc
00000380: 1abd a73d 7437 d2bd 4de2 bd3d 172b 92bc
00000390: e0a3 2d3d be81 24bd f073 e8bd 84d3 eb3d
000003a0: 13c5 babd 185f f43c cf40 e93c 777b 2f3e
000003b0: 9a1b ce3d d388 763d 91fa 9b3d 02d9 933d
000003c0: 69a2 593d dadc 093d 2240 0abd dccf fd3c
000003d0: 6c1d 7dbd 365e 353d 8541 17bc 0dca 013e
000003e0: d0ba 653d 24cd 32be f687 eabc 0f84 6a3d
000003f0: 8011 80bc 1ee2 853c d0f1 e5bb a81a 423e

head.bias f4 [4]
0.035583694 0.029516714 0.028355928 0.027868936
00000000: 35c0 113d 09cd f13c b14a e83c 654d e43c
