breakout/model/target_net_state_dict.pt (torch_old, 375362 bytes, 6 tensors)

conv1.weight f4 [32, 4, 8, 8]
00000000: c57b c2bb db79 2cbd 0ce3 a33c 921e ebbc
00000010: 0276 0c3b fbcf 1b3c f65c 763d 87ff 28bb
00000020: 77e1 06bd 86f8 37bc 7a68 a0bd bc48 143b
00000030: 05a0 42bd 9e2a a23c 1ada b0bd e643 073a
00000040: 394f e1bc 4412 803c 7c33 b1bc d860 e43b
00000050: 1192 753d 70f9 b5bd 84a1 26bd a006 31bd
00000060: 62b1 7d3b 4ad5 2d3c 557b 62bd 0041 20bd
00000070: a5df babb c3d4 133d 1a3e afbb d223 143c
00000080: c9a1 b43b 609d 1bbc 6bf0 f6bc 188a 7bbd
00000090: 53e8 543d 6d3b bebd 4802 1abd af11 7bbd
000000a0: e960 463b 3a46 353d a1f7 143c 9ef1 85bd
000000b0: 8aea 983a 1b6d b43c e1be f23b 42a8 39bc
000000c0: 50df c03c 1f44 27bd 5dc8 283d 0fba 70bd
000000d0: a1ed 26bd 72e6 893d c318 bf3a 8a4f dabc
000000e0: 2563 7bba 5f24 d1bc bd05 4a3d 2fd4 483c
000000f0: 6e15 6dbc 8257 57bd 4b76 73bd cd16 b6bc
00000100: d55f 643d 6a57 30bc 690d 573d 3e47 15bc
00000110: 546a 033c a065 803d 7f4d 073d 2c32 b73d
00000120: 0305 8ebd 7712 61bd d3c0 363d f5bc 85bd
00000130: 5db5 acbb 154c 363c 4561 6bbd 9275 983d
00000140: 0cbd 8abc d61c 9cbc 85d2 fa3c 431a 68bc
00000150: 8c72 83b9 8030 a13d 9716 383d 4bcb 4c3d
00000160: 13f7 c6bd 5a48 793c 7750 b83b 4b2d d6bc
00000170: f787 55bd 52e3 40bd 785e 3fbc 9d9a 233d
00000180: b2bd 2ebd 2a50 113d d6ab a33c c47d c5bd
00000190: 16a8 31bc ded8 2a3d 0929 243c c988 4f3c
000001a0: b36f 09bc 19b1 1abb 0740 7dba 0bb4 2dbd
000001b0: f02f e4bc 7372 8abd 3094 92bd 392f 6ebb
000001c0: bb3f 38bd 52f5 343c 7647 a23c 7dc4 a2bd
000001d0: afb0 8ebd 482f 7fbb 8b2b 1b3d 1fd7 01bd
000001e0: c8b1 f0bc 40ac 4a3d 4ab1 8e3d ca8f 803d
000001f0: c2d5 1abd fed8 983d ac28 75bd 289f 8dbd
00000200: 07a8 4f3c f9b5 6ebd e4a1 b63d 2ae1 763d
00000210: eff8 613d 6acf 343d 7d09 0b3c 51b1 243c
00000220: 0e7a 7fbd 6625 6cbc dcc8 2fbc f7e4 163d
00000230: acfd 883c ac95 923c 9dba 113d 67f5 a13d
00000240: dad1 c7bc 0536 403d f940 373d 253f a2bc
00000250: 0571 83bd 2c11 96bc cc98 65bc 2ade a53d
00000260: b1f7 82bd 3717 933c 6fe6 453d b19f e23c
00000270: 87a2 97bd dad3 8b3d e7ec 053c df40 95bd
00000280: 0b1b 93bc e977 5bbc 6e90 80bd 317f 33bc
00000290: 64b2 00bd dab4 a63c 6ac0 963b 1889 7dbd
000002a0: eedc 16be c9c4 12bd 6863 53bc 2450 bbbc
000002b0: 17aa 31bd bfce ec3c 33e1 3b3c 341c cf3d
000002c0: 9cec a7bb 9028 f4bd bc8e 4b3c 6fed 6bbd
000002d0: 5d4d 36bd 8285 93bb 0cfb 3abd cafa 663d
000002e0: 2620 c1bd 0409 733d 05af 1fbd 227f 2a3d
000002f0: 28a8 b4bb 43ef 1a3d 35cf 82bc fcd9 c6bb
00000300: 1ec1 953c 3995 9cbc 8b2d e53c 2db4 3e3d
00000310: 51c1 c73c cc67 8f3d 32db e53d 5e32 853d
00000320: 1207 a73d 9c4d 553d 17d3 b83d 7ed5 e93b
00000330: 2aa8 27bd 16ce 833c 2d0d 0c3d c13c 503c
00000340: d4c5 623c 0f9f c6bc 49e2 763d 2972 ee3c
00000350: fd95 893d 3fde 2dbd 3218 5e3d 00e2 463c
00000360: 3b69 a43d bd18 c5bb dce4 a83d 2fbc e13c
00000370: 42a7 293c 4ec5 93bd ee8e 49bd 0192 a43d
00000380: d398 59bc ace6 163d 9175 ba3c 1258 483c
00000390: 070d 5ebc e0b1 8abd 7bbf 9a3d 5ee0 c23c
000003a0: f69a 023d 8f8d d33a 2271 2a3c 0be3 eabc
000003b0: 7c2e 163d c09b e13c d85d 053c d496 fbbc
000003c0: 53ff 5e3d 906c 693d a2bf fe3c e588 b0bb
000003d0: dd3b 833c eae2 6abd 48a5 c53d 08c7 dbbb
000003e0: 1b38 593d ddab 173d f77a bf3d d344 d33d
000003f0: 2f87 05bd 30c6 59bd 6107 40bd a20f 6bbd
-0.0059351646 -0.042108398 0.020005725 -0.0287011 0.0021432643 0.009510036 0.06014725 -0.0025787072
-0.032929864 -0.011228686 -0.07832427 0.002262636 -0.047515888 0.019795712 -0.086353496 0.0005159959
-0.027503597 0.01563371 -0.021630995 0.0069695525 0.059953753 -0.08885467 -0.040681377 -0.04321921
0.0038710465 0.010609934 -0.0552934 -0.03912449 -0.00570293 0.036091577 -0.0053479793 0.009041743
0.0055124504 -0.00949797 -0.030143937 -0.061410993 0.051979374 -0.09288678 -0.03759983 -0.06129616
0.0030270165 0.044256426 0.009092242 -0.065402254 0.0011666578 0.022024682 0.0074080084 -0.01133162
0.023543984 -0.04083645 0.041206706 -0.05877119 -0.040753964 0.06733407 0.0014579523 -0.026649255
-0.0009589664 -0.025530038 0.04932188 0.01225762 -0.014470441 -0.05257369 -0.059438985 -0.02222767
0.055755455 -0.010763029 0.052503023 -0.009111224 0.008020956 0.062693834 0.03303289 0.089451164
-0.0693455 -0.05494925 0.044617485 -0.06530181 -0.0052706436 0.011126538 -0.05746581 0.074443
-0.016935848 -0.019056719 0.030617962 -0.0141664175 -0.0002507161 0.07870579 0.04494342 0.049998563
-0.097150944 0.015215004 0.0056248265 -0.026144644 -0.05213162 -0.04709179 -0.011680238 0.039942373
-0.042661376 0.03547684 0.019979399 -0.096431285 -0.0108432975 0.041710727 0.010019549 0.0126668895
-0.008388448 -0.0023604094 -0.0009660725 -0.04240803 -0.02785489 -0.06760111 -0.07157171 -0.0036344065
-0.044982653 0.011044817 0.019809466 -0.079476334 -0.069672935 -0.0038938094 0.037883323 -0.031699296
-0.029381648 0.049480677 0.06967409 0.062774256 -0.03780151 0.07463263 -0.05985324 -0.06915122
0.012674338 -0.05827901 0.08917597 0.060273327 0.055169042 0.044143118 0.008486149 0.010052041
-0.06237226 -0.014413213 -0.010729041 0.03683945 0.016722523 0.017893635 0.03557836 0.07908135
-0.024392057 0.046926517 0.044739697 -0.0198055 -0.06418041 -0.018318735 -0.01401348 0.08099015
-0.063949 0.017955406 0.04831546 0.027664037 -0.074040465 0.06827517 0.008174158 -0.07287764
-0.017957231 -0.013395288 -0.06277548 -0.010955618 -0.031420127 0.020349909 0.0046005743 -0.06189832
-0.14732715 -0.0358322 -0.012902118 -0.022865362 -0.0433751 0.028907178 0.011467266 0.10112801
-0.0051246416 -0.11921799 0.012424167 -0.05759948 -0.044507373 -0.0045019994 -0.045649573 0.056391515
-0.0942996 0.05933477 -0.03898527 0.04162515 -0.00551321 0.037825834 -0.015967945 -0.006068466
0.018280562 -0.019114124 0.027975818 0.046558548 0.024384173 0.070022196 0.11223449 0.065037474
0.081556454 0.052075967 0.09024637 0.007136046 -0.040931858 0.01608948 0.034192253 0.012709797
0.013841111 -0.024245767 0.060274396 0.02910717 0.06718061 -0.04244828 0.054222293 0.012138844
0.080278836 -0.006014912 0.082467765 0.027555553 0.010354819 -0.07215367 -0.049208574 0.080356605
-0.013281065 0.03684108 0.022761138 0.012228029 -0.013552911 -0.06772208 0.07556053 0.023788627
0.031886064 0.001614021 0.0104029495 -0.028672716 0.036665425 0.027540088 0.00814005 -0.030711569
0.054442715 0.0569883 0.031097237 -0.005387413 0.016019756 -0.05734531 0.096506655 -0.006707076
0.053032022 0.037029136 0.093496256 0.103158616 -0.032599624 -0.053167522 -0.046882037 -0.057387955

conv2.weight f4 [64, 32, 4, 4]
00000000: 6428 c63c 68df f23d 329d 86bc e230 ba3c
00000010: dd2d 81bd ef9c 16bd b28b a2bd 7275 03bd
00000020: d006 983d 2821 7bbd 0d36 193c ff67 c6bb
00000030: 4d0f 83bc 6e73 23bd 8a45 323d 9f4c 2d3d
00000040: 0f68 11bd 68b6 a5bd b8e7 ce3d c17d 083e
00000050: 285c 9d3c 6f18 89bd 4994 35bd 7c4e b3bd
00000060: 1418 5cbc 033c e2bd d668 80bd a413 19bb
00000070: 5579 e33b bf7a 813d 71b1 d03d 6a9e d73d
00000080: 6947 8d3d 3fd2 80bc ef3f 453d 8b1b 443d
00000090: 6679 c5bc 0651 2dbd 9531 03bc a68b 893d
000000a0: 991e d13c 1e9e 963c 0cf5 fabb 41d2 163a
000000b0: 1e9f aa3d 6933 563d a992 233d 7eb8 a33c
000000c0: a734 8fbd 9e66 873d 772a 963d 2ca8 8c3d
000000d0: 98c8 1fbc 57d9 5c3d fe14 7ebd c9bd cc3d
000000e0: 2b7e cdbd 7dda 03be cf58 b3bc c01b 79bc
000000f0: d436 4e3d ad69 d8bd 739f 263c c278 c33d
00000100: 1eac 583d 906e dd3a 0421 f53c f9d4 9e3d
00000110: 735e 03bb afba aa3c 5c6d 55bc 0d61 0a3d
00000120: 6bad 2abe cb94 213d e55a 263d 0fbc 8eb7
00000130: 129d 7d3d 5969 88bd ee3c 6dbd f6e2 a3bc
00000140: ce6e 173d a54f 103d 8b55 13bd b73f 713d
00000150: cdba 313d 7e2a c83d 8b67 423d df6f a9bd
00000160: 2983 2dbe 7954 a03d 0be9 c93d 8512 e1bb
00000170: 44a7 14bd 5a74 e6bc 72bd e43c 1663 d83a
00000180: 1654 02be c684 bcbd 7b75 a7bc f89b 9bbb
00000190: 6e7d 56bd c8fc 07bd 9267 013c ab78 95bd
000001a0: 4ed6 1fbe e249 fcbd 493b 21bd fb65 bfbe
000001b0: ce23 6f3d 19bf b33d 508c f33d 6f4a 3bbd
000001c0: da26 143c 597c 663d 745d b5bc 7cff 143e
000001d0: 0b9a ba3d 7aa0 1dbd bff2 463d 1dc9 c33d
000001e0: 92e8 c7bc 8db3 9bbd 1370 32bd c850 22bd
000001f0: 0cf0 72bd 6cb6 a33d c10b 333e 4e79 473e
00000200: d16e 563d e0f8 c03d d2a2 963d e081 9bbd
00000210: d5e9 5d3c 7c49 90bb 898b 553c 7133 f83c
00000220: a002 1bbe 93c0 613d 8614 09be eae7 04be
00000230: 8c6f 7ebd 2e02 8dbc 6249 9cbd 3dc3 50bd
00000240: 883b 8e3d 4195 90bc d44f d7bc 2929 743b
00000250: 1af1 f73c 6cab 03be 0934 77bb 2786 80bd
00000260: b5e8 b6bd d5d9 bfbc 5b7b 943d 7842 83bd
00000270: 0caf cbbd eb09 c8bd 97c4 c93c 56c2 f1bc
00000280: e59c ec3c 64e0 02bd 15e7 98bd fe9e 6d3c
00000290: 13ac 833c e697 533d 16db 863b c115 223d
000002a0: 6984 e6bc 5031 0cbe e4f6 c4bc 0d0b df3b
000002b0: c554 50bc 8c6e dabc c3e1 dbbb ba31 b43d
000002c0: 2309 613d a514 b1bd 644d 213d abcc 913d
000002d0: 7735 b03d 8ccb 243c 41d8 d1bd cc62 46bd
000002e0: 0bd6 5a3d aa96 d6bc 9e8a 313c 71bb 8abc
000002f0: 7cbe c7bc 8076 943d c09e b5bc ca3a b83d
00000300: 8102 b43d 4dae a03c f4c4 24bc 7187 093e
00000310: a899 92bd 2a48 cb3c 113f 9dbd 877b 073d
00000320: 37da 0abe 32bd 2bbd 02bd b6bd e310 31be
00000330: 9509 de3d 3161 6f3d 7b17 be3a b990 7cbc
00000340: 4345 423d 0193 593d be6b 53bd 7161 7dbd
00000350: 08fa 223d 87b7 4a3d 9d77 983c 7519 5a3d
00000360: 02d3 34bc 7dad 3bbd caea 00ba 7456 45bc
00000370: ebf9 ca3c acf6 36bd ff70 e43b 3fab 103d
00000380: c0ec 1cbc ea22 813d 8e0e f03d f91a 3c3e
00000390: a2e4 d3bd 812a 9bbd 71b9 98bd 6aad 58bc
000003a0: 6bb8 f5bd 01b6 00bd 3607 e2bd 673c 0ebe
000003b0: c059 e23a c879 19bc 2af8 7e3d c4de ebbc
000003c0: 89fe d9bc 8f84 603d 8637 e4bc b312 053b
000003d0: 87f0 b83c 2be2 62ba 14f7 a93c 570b 223d
000003e0: 95d8 c3bb 6101 ac3c 2bf8 38bd 95dd a23d
000003f0: 6f06 103d a440 8ebb 36e4 d23d 9715 243c
0.024189182 0.118590176 -0.016432378 0.022728387 -0.06307576 -0.036770757 -0.07936801 -0.032094426
0.074231744 -0.061310917 0.009351266 -0.006054878 -0.015998507 -0.039905004 0.04352335 0.0423094
-0.03549963 -0.08091432 0.101027906 0.13329221 0.019208983 -0.066941135 -0.04433087 -0.08755204
-0.013433475 -0.110466026 -0.06269996 -0.0023357654 0.006941954 0.0632224 0.10190094 0.10528262
0.06898386 -0.015725253 0.048156675 0.04787783 -0.024105739 -0.042313598 -0.008007427 0.06716089
0.025527285 0.018385943 -0.0076586064 0.0005753376 0.083311304 0.052295122 0.039934788 0.019985434
-0.069924645 0.066113696 0.07332318 0.06868014 -0.009752415 0.05391821 -0.06203174 0.09997136
-0.1003383 -0.12876315 -0.021892933 -0.01520437 0.050345257 -0.10567031 0.010169852 0.09544517
0.05289852 0.0016893912 0.02992297 0.07755465 -0.002004531 0.02084097 -0.013026562 0.03378396
-0.16667716 0.03944854 0.040614028 -1.701529e-05 0.061917372 -0.066607185 -0.057919435 -0.020005684
0.036970906 0.035232205 -0.035970252 0.058898654 0.043391038 0.0977373 0.047462028 -0.08273291
-0.16944565 0.07828612 0.098589025 -0.006868663 -0.03629233 -0.028131653 0.027922366 0.0016509022
-0.12727389 -0.09205012 -0.020441761 -0.0047488175 -0.052365713 -0.033200055 0.007898228 -0.07298406
-0.15609095 -0.123187795 -0.03936318 -0.37382492 0.058383755 0.08776683 0.11891997 -0.045725282
0.009042466 0.05627093 -0.022139288 0.14550585 0.091114126 -0.03848312 0.048571344 0.09559844
-0.02440289 -0.07602606 -0.043563914 -0.03962782 -0.059310958 0.079937786 0.17484953 0.19479868
0.052351777 0.09422469 0.07355274 -0.07593131 0.013544519 -0.0044032913 0.013033756 0.030297967
-0.1513772 0.055115294 -0.13386735 -0.12979093 -0.0621181 -0.017212953 -0.07631184 -0.050967444
0.069449484 -0.017649295 -0.026283182 0.0037255979 0.030266333 -0.12858361 -0.0037720224 -0.062755875
-0.08931104 -0.0234193 0.07250091 -0.06409162 -0.09945497 -0.09767517 0.024629874 -0.029511612
0.028883407 -0.031952277 -0.074659504 0.014503239 0.016073262 0.051658534 0.0041154725 0.039571527
-0.02813931 -0.13690686 -0.024043508 0.0068067373 -0.012715523 -0.026664041 -0.0067102625 0.08798547
0.054940354 -0.08646516 0.039380446 0.071191154 0.086039476 0.010058295 -0.10246325 -0.048434064
0.053426784 -0.02619489 0.010836272 -0.016935082 -0.024382822 0.072491646 -0.022170424 0.08995588
0.0878954 0.019614363 -0.010056723 0.13430573 -0.07158214 0.024814684 -0.076780446 0.03307679
-0.13559805 -0.041928478 -0.08922769 -0.17291598 0.108416714 0.0584423 0.0014502847 -0.015415364
0.047429334 0.05311871 -0.051616423 -0.061860505 0.03978923 0.04949143 0.018611724 0.053246934
-0.011036636 -0.04581975 -0.0004917799 -0.012044538 0.024777373 -0.04466884 0.006971478 0.035319563
-0.00957793 0.063054875 0.11721526 0.18369664 -0.103463426 -0.07576466 -0.07457245 -0.013224939
-0.119980656 -0.031423572 -0.110365316 -0.13890229 0.0017269179 -0.009367414 0.062248386 -0.028792746
-0.02661063 0.054813918 -0.027858507 0.0020305335 0.02257563 -0.00086549175 0.020747699 0.039561596
-0.0059767463 0.020996751 -0.045158546 0.0795242 0.035162386 -0.004341202 0.10297434 0.010014913

conv3.weight f4 [64, 64, 3, 3]
00000000: 06f8 4bbd d005 5fbd ca9c 07bd 4bd3 80bd
00000010: 1ab1 263d d3d1 05bd 2027 0fbe f79f 213e
00000020: 04b4 383d b4af 053e 3fa7 8f3d 2c6c 163e
00000030: 25d4 e43d e98f 833d 1b51 913d 9634 2e3e
00000040: febe 833a 6acb 0ebd bec8 253e 0228 423d
00000050: 77a1 133d a217 163d 8158 4bba 7bcb 42bd
00000060: 64b2 033e 8dc3 d73d 260c baba b862 b23b
00000070: 7ca7 e83b 8d9a a33d 9ffe 3ebd 14f8 c3bd
00000080: 240e 7dbd afe8 053d 8c9e 8c3c ade2 493c
00000090: 5099 b83d 710f a73d 418d 5c3e b654 453e
000000a0: 7131 833d 4818 ab3a c1c0 ae3c 4649 a6bd
000000b0: 2b61 37be 0666 eb3d eeec 60bc 1e9e d4bd
000000c0: a272 7b3e c9d2 383e 5468 733d d12f f0bd
000000d0: ac1d 083c 49df f1ba 2322 183c 0d65 bc3d
000000e0: 15e6 69bd 2bc6 cfbc 6ef8 c43d 71b4 343d
000000f0: 1135 363d c2d5 5ebc 0fe0 f5bd ae1f df3d
00000100: ee97 f73c 1f8e b8bd 1929 01bd 9a00 a1bb
00000110: 08e9 dd3c 6f36 cabd f5b9 9e3d 62ce 413e
00000120: ae29 9c3d 1270 f53c 2ced c03d 7bc0 003d
00000130: 5ce8 80bd 7a39 a0bd f0be 06be c8f5 2bbd
00000140: 6461 b1bd e90b a0bc 2a3e 61bb 4468 5db9
00000150: e770 ecbb 55c8 5bbd 7f04 02be 4f6a 563e
00000160: 27d1 a2bc 6b36 263d c6c7 d73d 102e a9bd
00000170: bac3 5fbc 2e4e e4bd 5ebb 62bd c581 b9bd
00000180: 93ef 873c 7b9f 453d 4ab0 8fbd ee8c 48bd
00000190: 9cff 0ebe 4c3a 44bc 43e0 0ebe dc76 c1bc
000001a0: 9c50 f03b 4058 e63d 018c be3b 2522 a1bc
000001b0: 59ec b83d a566 a9bc 08f9 8d3c db14 91bd
000001c0: 3d19 9cbc d269 d43d 39b9 74bc 94af 473e
000001d0: fd68 ecbd f300 413d 48e9 79bc cf0a e93d
000001e0: 180f 153d 366d 8ebd 53c6 80bd 4db8 37bd
000001f0: 0a7b bb3d edd8 05be 8c47 d93b 7d41 8dbd
00000200: ea94 50bc 48dc b53c 7598 d13d e781 8f3b
00000210: c5ba d33d 5934 da3d 6eb8 643d f8cc ac3d
00000220: d12b 14bb ebb9 e33d 1620 103e 37c8 ed3c
00000230: 95a1 bbbd 42ba a03c 2e4e 403d 8eda a93c
00000240: dde6 64bd 963b e83d 24e8 2e3c d242 c7b9
00000250: 81d2 c9bd 6fcd cfbd 7a3b 603e bb71 74bc
00000260: f781 c1bd 0ee4 d73d 0b9f 153c a239 c83a
00000270: 0d14 543d 047c 613b 9f12 d4bd 9c12 10be
00000280: efd3 ab3d d6c4 7d3d 7c57 983d 41e4 493d
00000290: ed4e 7d3d 4e1a 223c 572c 08be 532c 87bd
000002a0: 05fd 623d 8356 7b3d 2f6a 6abd a658 c13b
000002b0: 2723 943b d29a e43c 8ed3 5d3d 6dd0 b03c
000002c0: 010a 81bd 5d36 813c 623e ab3d dc68 20bd
000002d0: 3a05 0fbd 1cc4 363b eb54 a03d d2d4 ba3d
000002e0: 50d5 d9bd 98eb 1bbd 1aa6 f03d e92a 273d
000002f0: 3eb2 94bc a5dc 24be e5d1 e93a a52f a9bb
00000300: 6e34 12bc 7f65 d23b 43ca 09bd 73ab ed3b
00000310: 2d20 febc 4bf1 fbbb 7bcd bc3c fbf3 253d
00000320: 29c9 df3d 03e9 833b 1e3d 5cbc d381 e83d
00000330: a647 b03c 0de8 b3bb 95a5 50bd f7ed 693e
00000340: 5689 45bd 9d7a 003e 48fb 453d 58a8 b3bd
00000350: 728d 893d 9692 bbbd 032b c53b b033 fe3c
00000360: b2e4 f43c 9bd3 8cbd bfb9 a13d 0a76 17bd
00000370: ff3a fb3d 3897 39bd d25c 213d e093 213c
00000380: 12a4 91bc a2a8 7fbb 8ce6 523c 0d6c 343c
00000390: 7c3f cabd bf0b 78bd b591 c2bb c2fc 273d
000003a0: 2b3a ca3d 9d8e 47bd d884 9ebc c220 07bd
000003b0: f630 c6bd 7473 56bd 55d8 28be bf7f 39bd
000003c0: 3a51 4bbd 6908 07bd 0aa2 803d d87c 563d
000003d0: f7cb 043d d533 65bd ac88 ab3d 838e 42bd
000003e0: 2e89 66bc 21b2 66bd 054b 4a3d 803c 923c
000003f0: 3c80 433d b98f 38bd 987b 4bbc f65e 95bd
-0.04979708 -0.054448903 -0.03310851 -0.06290301 0.04069624 -0.032670807 -0.13979769 0.15783678
0.04509355 0.13055307 0.070143215 0.14689702 0.11173276 0.06423933 0.07095548 0.17012247
0.0010051427 -0.03486196 0.16189858 0.047401436 0.036042657 0.03664363 -0.00077570236 -0.047557335
0.1286102 0.10535345 -0.0014194294 0.005443897 0.007100044 0.079884626 -0.046629544 -0.095688015
-0.061781064 0.032692607 0.017165445 0.01232211 0.09013617 0.08157242 0.21538259 0.19270596
0.064059146 0.0013053501 0.021332147 -0.081194445 -0.1790816 0.11494069 -0.013728363 -0.10381721
0.24555448 0.18049158 0.059425667 -0.1172787 0.008307856 -0.0018453385 0.009285483 0.091989614
-0.05710419 -0.025363049 0.09617697 0.044117395 0.0444842 -0.0136007685 -0.120056264 0.10894714
0.030223813 -0.090114824 -0.031533334 -0.004913402 0.027088657 -0.09873664 0.07750312 0.18926385
0.07625137 0.029960666 0.09420237 0.031433564 -0.06294319 -0.07823463 -0.13158774 -0.041982442
-0.08661154 -0.01953693 -0.0034369328 -0.00021115044 -0.0072156074 -0.05365785 -0.12697028 0.20938991
-0.019875122 0.04057924 0.10536151 -0.08260739 -0.013657505 -0.11147724 -0.05535447 -0.09057955
0.01659373 0.048247796 -0.07016046 -0.048962526 -0.13964695 -0.01197679 -0.13952737 -0.023616247
0.007333828 0.11247301 0.0058150296 -0.019669602 0.09029455 -0.020678828 0.017330661 -0.07084056
-0.019055003 0.10371746 -0.014936739 0.19500571 -0.115434624 0.047120046 -0.0152533725 0.11379015
0.036391348 -0.06954424 -0.06287827 -0.044853497 0.09154327 -0.13071032 0.0066308435 -0.068972565
-0.012730816 0.022199765 0.10234157 0.0043794992 0.10338358 0.10654516 0.05583995 0.08437532
-0.0022609124 0.111194454 0.1407474 0.029026134 -0.09161679 0.019620065 0.046949558 0.020734098
-0.05588423 0.1133949 0.010675464 -0.00038006023 -0.098546036 -0.10146605 0.21897689 -0.014919694
-0.09448617 0.10541545 0.009132157 0.0015275965 0.051776934 0.0034406194 -0.10355114 -0.14069599
0.083900325 0.061955296 0.07438561 0.049289946 0.061842848 0.009893967 -0.13298164 -0.06600251
0.05541708 0.0613618 -0.05723017 0.0059004603 0.004520792 0.027905855 0.054156832 0.02158376
-0.06300736 0.015772993 0.08361508 -0.0391625 -0.034917094 0.0027887886 0.07828697 0.091226235
-0.10636389 -0.038066477 0.11750431 0.040812407 -0.018151399 -0.16099794 0.0017839043 -0.0051631504
-0.008923633 0.0064207907 -0.033640157 0.0072531044 -0.031021202 -0.0076886765 0.0230472 0.04051588
0.1092704 0.00402558 -0.013442306 0.11352887 0.02151854 -0.005490309 -0.05093916 0.22844683
-0.048226677 0.12546773 0.048335344 -0.087723434 0.06716432 -0.091588184 0.0060170903 0.031030506
0.029894207 -0.06876298 0.078967564 -0.036977805 0.12267112 -0.04531023 0.03939516 0.009861916
-0.01777843 -0.0039010425 0.0128723495 0.011012089 -0.0987539 -0.060558077 -0.00593778 0.041012533
0.09874376 -0.04871999 -0.019350454 -0.032990225 -0.09677307 -0.0523562 -0.16488774 -0.045287844
-0.04963801 -0.032967005 0.062809065 0.052365154 0.03242108 -0.055957634 0.083756775 -0.04749919
-0.014070792 -0.05632222 0.04938795 0.017851114 0.047729716 -0.04505894 -0.012419604 -0.07293503

value.weight f4 [1, 3136]
00000000: 0e7a 963d 964c dbbc 056a 0dbe b518 c2bd
00000010: 1587 ebbc 4daf 22bd f525 183c eb90 3e3d
00000020: 8962 0fbd 8ca3 b03c 52c6 8b3c bf9f 373d
00000030: 6d10 74bc 0b22 8abd 12cc 233d f20e 703a
00000040: df8e a53c c809 ecba 51ea 0fbc fdef 553b
00000050: 8612 053d 0cb1 0f3e d68d 173d 79b1 483d
00000060: c323 b33d 601c 573d 39de 083c 29f2 9c3d
00000070: cb70 363d a1bb a63c 8b00 323d 8ee6 d43c
00000080: 62df 3b3c 09eb 273c 4e2c 2a3d 9844 bc3c
00000090: ddf8 9b3c ab94 363b 8228 903c 5445 a33c
000000a0: e36d 383c 78d0 133d 2d0e f83c fc49 e3bc
000000b0: d14c 7b3c c826 023d b44c 7a3d 75b2 4b3d
000000c0: 44f6 473c c948 823b 8985 67bc 2381 9f3c
000000d0: 27fa b7bc 504c a4bb a672 183c 292f 823d
000000e0: 12ea f8bd 98a1 4dbe 11e9 113c c72b c9bb
000000f0: aae3 cabd 5485 61bc 8a4f 39be c224 a8bd
00000100: b053 c8bd 9467 8b3c ddae 42bc 115a e53c
00000110: 6fe6 e0bb 3830 25be 8381 813d 0e81 cfbb
00000120: 048e 453c 7d3e 7d3c a57b cb3c d62a 063d
00000130: c377 7b3b d6fa 183d 38dd f93a 8b81 823c
00000140: 1fe3 173d fc32 11bc a008 743b 0309 f63c
00000150: c6c4 c73c 1f4a 13bd 8cc0 9cbb b1d0 073c
00000160: f933 09bd 6f1a 46bc 37f5 ecbb 9d84 ff3b
00000170: 706e 5d3c 7e20 0a3d c834 5abc 640e c23c
00000180: 53b1 6d3c 6fe8 353d ef17 44bd e0c4 1cbd
00000190: 507b 5dbd a43a 9abd f991 86bc 4ed9 a8bc
000001a0: 03e6 fb3c bf4f 5ebc 7a5d b8bb 0111 27be
000001b0: b4db 03be 7c08 b93c d4a6 cbbc ba37 913c
000001c0: f5e9 51bc 3c72 62bd 79da 223d 93dd 95bd
000001d0: fe56 7b3c cae8 ebbb 9c51 773d ca3d 23bc
000001e0: 1954 4cbc c16c 733d 970b ea3c 93b8 34bc
000001f0: 1d84 5a3d 0b00 fd3d 9eb9 adbc 236d 0ebd
00000200: b793 c4bb 4ea7 4e3d 2a43 843c 76be 61bc
00000210: 1f9e fb3d e1f4 a7bd 49ca 83bc 4a70 063d
00000220: 2a3b c43a 05a0 823c 6bee 6a3d c948 bb3c
00000230: acb1 43be e91a 31bd cf82 1b38 ce54 0c3c
00000240: 836e 85bc db53 cd3b 441a 873b 7cdf a83c
00000250: c8be 193d f1c8 a7bc 25c0 f1bc 3b8c 073c
00000260: e8b0 15bc 6bcf 04bd 8a9b ec3b 7fbb 3bbc
00000270: 49bb 653b 57fe 073c 9916 3b3c 2936 853c
00000280: 8b45 043d b0f6 8e3b 8e68 173d cc6b a5b9
00000290: 5202 173d 57f2 abbb 3bd8 993c a7b0 2c3c
000002a0: 7c81 a83d 641e 793d a474 863d fb05 c13d
000002b0: c639 ec3c 7a53 4b3d 78c9 ad3d dfb9 b33c
000002c0: b2b1 d03c 4ac0 14bd 2c7e 44bc be48 ba3d
000002d0: 1917 5d3d 85eb 3a3c a8ca 4a3d ebaa 87bc
000002e0: def0 813b 68c1 373c 5f42 b23c 0f3d 3dbb
000002f0: ec9b 693d 1d18 423e 2d3e bd3d febf cf3b
00000300: fcb2 8abc 2093 8b3d 410e 2f3d 0b09 003e
00000310: 53f4 febc 6c19 1e3c b715 d4bc 0c4e 563d
00000320: 3019 33bd 63f4 043c 24ee 3ebd ef16 3f3e
00000330: dc0b 653e f4c7 743e 2ed9 483d 2b03 123d
00000340: c067 813d 2a5a 623e d18e d73c 2ff5 f43c
00000350: b142 af3c 6a5b 723c 7fd7 afbb a70c c8bc
00000360: 9996 b3bc d702 463c 84b2 97bc c55d 9b3c
00000370: af31 193d 3d74 6f3d c756 2c3d 344f 433d
00000380: 2fa5 223d 8e9c 673c d1cd 763c bfb2 edba
00000390: 812d ce3b 49de aebc 3d62 8f3d 1b3b 853d
000003a0: b452 b73b 0302 7d3c 698d ac39 ebaa a13c
000003b0: b354 60bd 5730 483d 243d 073c c8d2 563c
000003c0: b775 3d3d 185e 083c 48f4 0c3b a9b0 b03c
000003d0: 8526 de3d 115d 8a3d 0458 88bd 04c2 9bbd
000003e0: c482 1abd 340a 8abd 9313 0cbd 6f54 88bd
000003f0: ae18 983c 553b 463c 038c 663b 3880 173d
0.07347499 -0.026769917 -0.13809974 -0.09477369 -0.028750936 -0.03971796 0.009286393 0.046524923
-0.03500608 0.02156236 0.01706234 0.04483008 -0.014896494 -0.067447744 0.03998954 0.00091575005
0.020209728 -0.0018008286 -0.008783893 0.0032644265 0.03248837 0.14032382 0.0370005 0.048997376
0.087470554 0.052517295 0.008353763 0.07663376 0.04454116 0.02035314 0.04345755 0.025988843
0.011466833 0.010248908 0.04154616 0.022981927 0.019039566 0.002785961 0.01759744 0.01993052
0.011256668 0.036087483 0.030280197 -0.02774524 0.015338139 0.031775266 0.061108306 0.049730737
0.01220471 0.003975962 -0.014130958 0.019470757 -0.02245815 -0.00501398 0.009304678 0.06356651
-0.1215402 -0.20081174 0.008905665 -0.006139252 -0.09906705 -0.013764698 -0.18096748 -0.08210136
-0.09781587 0.017017163 -0.011882511 0.027997049 -0.0068634073 -0.16131675 0.063235305 -0.006332523
0.012057785 0.015456793 0.024839232 0.032755695 0.0038370944 0.03734859 0.0019063121 0.015930912
0.037081834 -0.008862253 0.0037236586 0.030033594 0.024385821 -0.03595936 -0.0047836956 0.008289502
-0.03349683 -0.012091263 -0.0072313803 0.007797791 0.0135151 0.033722393 -0.013318248 0.023688503
0.014507609 0.04441112 -0.047874387 -0.038273692 -0.054072678 -0.07530716 -0.016427027 -0.020611431
0.030749327 -0.013568818 -0.0056263776 -0.1631508 -0.12876779 0.022587053 -0.024859823 0.017726768
-0.012812127 -0.055284724 0.039759133 -0.073176526 0.015340565 -0.0071993815 0.060380563 -0.009963462
-0.012471222 0.059429888 0.02856998 -0.011030334 0.05334865 0.12353524 -0.021206673 -0.03477205
-0.0059990543 0.050452523 0.016145308 -0.01377832 0.122860186 -0.08201004 -0.016087668 0.03282193
0.0014971246 0.015945444 0.05735628 0.022861855 -0.19110745 -0.043238554 3.7076705e-05 0.008565141
-0.016288048 0.0062661 0.004123004 0.020614378 0.03753546 -0.020481559 -0.029510567 0.00827318
-0.009136416 -0.03242437 0.00722069 -0.011458277 0.0035054258 0.008300385 0.011418962 0.016261177
0.032292884 0.0043629035 0.036964945 -0.00031551567 0.036867447 -0.005247395 0.018779865 0.010540164
0.08227822 0.06082 0.06565216 0.09424969 0.028836142 0.049640156 0.08485693 0.021939216
0.025475357 -0.036316194 -0.011992972 0.09095906 0.053977106 0.011408691 0.049509674 -0.016560992
0.003965481 0.011215545 0.021760164 -0.0028875505 0.057033464 0.18954511 0.09240375 0.006340026
-0.01693105 0.06815171 0.042738203 0.1250345 -0.031122362 0.009649616 -0.02588926 0.052320525
-0.043725193 0.008114907 -0.046613827 0.18661092 0.22367805 0.23904401 0.049035244 0.035647552
0.06318617 0.22104707 0.026313217 0.029902069 0.021394106 0.014792303 -0.0053662653 -0.024420096
-0.021922396 0.012085638 -0.01851774 0.018965611 0.037400898 0.058460463 0.042074945 0.047682956
0.039708313 0.014136447 0.015063719 -0.0018134936 0.0062920456 -0.021346228 0.07001159 0.06505414
0.005594576 0.015442374 0.00032911755 0.01973482 -0.054768275 0.048874225 0.008254323 0.013111778
0.04625484 0.008323215 0.0021507908 0.021568613 0.10847191 0.06756032 -0.06657413 -0.07605365
-0.037722364 -0.06740227 -0.034198355 -0.066567294 0.018566456 0.012099107 0.0035178668 0.036987513

advantage.weight f4 [4, 3136]
00000000: 5b4f f83a 852a e1bc ce98 c0bd 22cd 67bd
00000010: d1b3 44bb efe2 1bbd 5bd9 adba 68b7 a33c
00000020: 0ceb bbbc aaab b1bc daf1 f13a 6883 bf3c
00000030: 80e8 9ebc 57d0 02bd 9875 1b3d e388 7dbc
00000040: 01f7 523c e51d a53c 29f5 03bc 99e8 94bc
00000050: d5ba 1a3c f102 3f3d 9b91 b3bc 7886 20bc
00000060: 03a8 ab3c 34de 183b 2163 c6bc 857a 013c
00000070: d5ca 20bc ec79 613c 25d1 013b 8467 d33b
00000080: 6a3e ebba 4796 85bc 005a 243c bd29 eabc
00000090: e782 ea3b 048e bc3b f4bf 823c dc0f ee3c
000000a0: 933d 1a3b 9b33 ee3c 99e6 77bc 35eb 9cba
000000b0: 5193 453c 8ed4 1a3d ea49 053d fa74 133d
000000c0: b9cd 003d 5e71 833b 3cd4 20bb e035 0cba
000000d0: 78a5 cbbc acc9 a338 c0e9 72bb f688 813c
000000e0: 5d90 80bd 0300 b6bd 7460 4b3b fe5c cebc
000000f0: 74e6 74bd 9e0c d93b a38d e9bd 0b3f 08bd
00000100: aea8 8bbd 1e75 2ebc db50 a8bc 2fb3 bdbb
00000110: 16d1 923c 4ce9 b2bd 7661 943c e7ef a0bb
00000120: fe0e b63c 5f41 9c3c 3b26 33ba 0b12 a13b
00000130: d90e c8bc 103f 0cbb d955 8c3b 8405 8d3c
00000140: 1ca8 c83c 25d0 4e3c 10ea bfbc 09b9 b03c
00000150: 3acf e43c 2f98 42bc c3ca aaba 663e db3b
00000160: 7841 49bc 9baf 2ebc 027f 113c 2710 113c
00000170: a5bc 3ebb d690 e03c ea65 16bb 1ffd d73c
00000180: dcd2 19bc e52b 623c bdcd 48bb 091d 533c
00000190: 3584 a83b 53e1 2b39 0e71 10bd 0fe0 dfbc
000001a0: d70c d73b f75f dc3c fe4c b03c 4353 81bd
000001b0: 625e 8fbd 2c2d 283d c6e1 b1bc 6a89 4f3d
000001c0: 9535 05bd 4fe7 46bd b032 0a3c 33e2 d0bc
000001d0: 53a2 81ba 3739 1cbc 5532 8e3c 0827 ffbb
000001e0: 98cc 3dbb d322 463c b1ac 16bc f6ab bcbc
000001f0: f014 1a3c 47f3 503d ccfa 77bc f976 42bd
00000200: f36a 04bd 7954 943c 3dda ec3a ec9a 5ebc
00000210: 6a79 0a3d 5c3f 45bd 5927 71bc 10f8 ad3b
00000220: fead 9ebc 1c88 02bc 27b0 693c 24b7 51bc
00000230: 32b4 e7bd a022 1bbd 07f3 18bd d25f a5bc
00000240: 3ef9 a4bc 979e 9bbc 1386 6dbc ffa6 8f3c
00000250: cb4e 063d d30f 15bd a5fd d13b 3149 acbc
00000260: aa9c 773c 67d1 25bd 113d 5ab9 0604 fd3b
00000270: 2bbe 003c 2b67 d33b 121c 25bc 0fb1 49bc
00000280: 5375 333c 402a 8a3c e014 ee3c 4adb 403c
00000290: 7f6a 43bb 1e38 0abc e0e8 853c 30b5 4e3c
000002a0: d5b5 903a bd45 cc3c 34de cb3c 1176 553d
000002b0: 612a 093a e90b 7f3c 5c6a 173d f372 343c
000002c0: 0c92 563b 50cc bdbc a448 ddbb da88 943c
000002d0: 4e60 ccbb 6022 913c c950 d33b bcd1 cdbc
000002e0: 173a 29bc c0c0 953b 6609 b33c 2869 433c
000002f0: e075 c03c aa37 a63d 2afe 453d e2e7 62ba
00000300: ded8 16bd bd4e 183d bd99 0b3d 2b70 5f3d
00000310: b540 27bc fa1f 2cbb 0c3a 09bb 4bc8 45bc
00000320: 3f0e 073d 8547 183c 5a81 5cbc 8d7c f13c
00000330: 6b25 a63d cc33 a13d ba0f d9bc b96b 023d
00000340: 13a1 c53c 8a39 913d b050 f9bb ae55 e3bb
00000350: 8f83 d13b 900b 923c 8944 cd3b ca3d cfb9
00000360: dd59 943b e05b 3a3c adbb b4bc 1591 d1bc
00000370: 6e8d 43bb b425 df3b 5986 383c dba2 ea3c
00000380: e258 a8ba 4d85 d13c 5d9d 243b ebb3 d1b9
00000390: 56de 86bc 9d19 30bd 9d08 173d 2383 0e3b
000003a0: eb63 863a 9018 dbbb b630 bd3c 3be8 f33b
000003b0: 3472 6c3b 9d16 e53c 6772 b63c c04c 1b3c
000003c0: f498 293d d41a cb3b 9d81 b93a 2d34 5e3c
000003d0: a7fa 4c3d 43ad 143d b1f7 26bd 8cf3 d0bc
000003e0: ec5f 123b cfbd 45bd bb0c 0cba 46b2 913c
000003f0: 2b12 5d3c 0e3e debb dfff 0d3d 9ea8 b83c
0.0018944548 -0.027486095 -0.09404145 -0.056592114 -0.0030014405 -0.038058218 -0.001326363 0.019984916
-0.022939228 -0.021688301 0.0018458918 0.02337809 -0.019397974 -0.03193697 0.037953943 -0.015474531
0.012876273 0.020155856 -0.008054056 -0.018177317 0.009443958 0.046633665 -0.021920016 -0.009797685
0.020954138 0.0023325803 -0.02421719 0.007902746 -0.009813984 0.013761979 0.0019808498 0.006451549
-0.0017947678 -0.01630701 0.010031223 -0.028584355 0.007156718 0.0057542343 0.015960671 0.029060297
0.0023535236 0.029077342 -0.015130662 -0.0011971953 0.012059049 0.037800364 0.032541193 0.03600023
0.031446192 0.004011317 -0.0024540564 -0.0005348604 -0.024859175 7.81001e-05 -0.0037065595 0.015812378
-0.06277535 -0.08886721 0.0031032832 -0.025190827 -0.05979009 0.0066238185 -0.11403968 -0.033263247
-0.068192825 -0.01064804 -0.020546367 -0.0057891826 0.017921966 -0.08735904 0.01811288 -0.004911411
0.022223946 0.01907414 -0.0006834005 0.004915481 -0.024421142 -0.0021399893 0.004282695 0.017214544
0.024494223 0.012622868 -0.02342704 0.021572607 0.027930845 -0.011877104 -0.0013030398 0.006690788
-0.012283675 -0.010661985 0.008880379 0.008853949 -0.002910414 0.027412813 -0.002294893 0.026365815
-0.009388652 0.013804411 -0.0030640208 0.0128853405 0.0051427134 0.0001639177 -0.035264067 -0.02732852
0.00656281 0.026901228 0.021521088 -0.06314709 -0.07000424 0.041058704 -0.021714102 0.050668158
-0.032521803 -0.048560437 0.008434936 -0.025498485 -0.0009890295 -0.009535125 0.017357985 -0.0077866353
-0.0028961059 0.012093264 -0.009196446 -0.023031216 0.009404406 0.051013257 -0.015135478 -0.047476742
-0.032328557 0.018106686 0.0018070411 -0.013586741 0.033807196 -0.048156127 -0.014718854 0.0053091124
-0.019370075 -0.007967021 0.014263189 -0.012800012 -0.113136664 -0.037874818 -0.037341144 -0.020187292
-0.02013838 -0.01899652 -0.014497298 0.017535685 0.032789987 -0.036392044 0.0064084106 -0.021030994
0.015113035 -0.040482905 -0.00020812849 0.007721427 0.00785784 0.0064515076 -0.010077493 -0.01231028
0.010953265 0.01686585 0.029062688 0.011771033 -0.0029818115 -0.008436231 0.016346395 0.012616441
0.0011040518 0.024935598 0.024886228 0.05211455 0.000523245 0.015566804 0.036966667 0.011013734
0.003274086 -0.023168713 -0.006753044 0.018131662 -0.0062370664 0.017716587 0.0064488393 -0.025124423
-0.010328791 0.0045700967 0.021855067 0.011926927 0.023493707 0.08116086 0.048338093 -0.0008655769
-0.036827914 0.037184466 0.034082163 0.05455033 -0.010208298 -0.0026264177 -0.002093914 -0.012071679
0.03297257 0.009294395 -0.013458574 0.029478336 0.08112606 0.078712076 -0.026496757 0.031841014
0.024124658 0.07091053 -0.0076084957 -0.006937704 0.006393857 0.017827779 0.0062642735 -0.00039528153
0.004527314 0.011374444 -0.022062147 -0.025581876 -0.0029838937 0.0068099145 0.0112625 0.028642109
-0.0012843872 0.025576258 0.002511821 -0.00039997636 -0.01646344 -0.042993177 0.03687345 0.0021745644
0.0010253167 -0.0066862777 0.023094516 0.0074434555 0.0036078813 0.027964884 0.022271348 0.009478748
0.041405633 0.0061982665 0.0014153008 0.013562244 0.05004373 0.036298048 -0.04076356 -0.025506757
0.0022335006 -0.04827672 -0.0005342473 0.017785203 0.013493101 -0.0067823 0.034667846 0.02254134

advantage.bias f4 [4]
00000000: d478 e9bb 2958 82bc 374a 26bc c261 d2bb
-0.0071249995 -0.015911179 -0.01014953 -0.006420345
