breakout/model/target_net_state_dict.pt (torch_old, 375362 bytes, 6 tensors)

conv1.weight f4 [32, 4, 8, 8]
000000 be bb e8 bc 46 4c dc bd ea 04 63 bd a5 43 e7 bd
       -0.028409835 -0.107567355 -0.05542461 -0.11292199
000010 90 53 2c bd d4 09 1d bd 6f f7 5e bb 52 c6 0a bd
       -0.04207188 -0.03833945 -0.0034021994 -0.03388054
000020 8c 7e 4f bd 64 62 8f bd 8d 44 25 bd 2a ca f5 bd
       -0.050657794 -0.070011884 -0.04034858 -0.1200145
000030 14 17 f1 bd 21 e9 a0 bd d7 78 f1 bc 39 0a e6 bd
       -0.1177198 -0.07856966 -0.029476566 -0.112324186
000040 55 45 c6 3c 49 ed db bc 47 cd ad ba d8 a8 0e 3c
       0.024202982 -0.026846545 -0.001326003 0.008707248
000050 41 90 f9 bc 34 5a 27 3c b6 ba 97 bc bd fe 28 bd
       -0.030464293 0.010214377 -0.018521648 -0.041258562
000060 6c 70 fa bd 6d 05 65 bd 37 aa aa bd 1f 70 8f ba
       -0.12228474 -0.055913378 -0.08333247 -0.0010943449
000070 06 b1 ae bc be 6b 17 be a5 08 3b 3c 76 55 3c bd
       -0.021324646 -0.14787194 0.011415635 -0.04597994
000080 d5 bd 6f bd 23 45 25 bd 37 68 67 3c f1 40 54 bc
       -0.058530647 -0.040349137 0.014123968 -0.012954936
000090 29 ae 43 3c 1c 0a fb bd ab 13 5e bc 02 ac 03 3c
       0.0119433785 -0.122577876 -0.013554494 0.008036615
0000a0 73 40 b1 bc 66 b3 5d 3b d4 89 89 3c 37 5c 16 3d
       -0.021637177 0.0033828854 0.016789354 0.036709037
0000b0 18 63 85 3c 77 a3 50 3d 6f 6c 0a bd 84 b0 b1 3c
       0.016282603 0.050937142 -0.033794817 0.021690615
0000c0 06 8a 7e 3d 99 17 b7 3c 2e 9a 41 3c d8 14 42 bd
       0.06214335 0.02235012 0.011816544 -0.04738316
0000d0 00 3a 19 bd d2 21 01 3d cd 15 53 bc a7 32 f4 bc
       -0.03740883 0.031526394 -0.012883616 -0.02980931
0000e0 da ab 22 bd 25 3e 60 3a 3d 50 9e 3b ed e2 f0 3b
       -0.03971467 0.0008554182 0.0048313425 0.0073512704
0000f0 67 dd a3 3a e3 03 48 bd 02 00 b0 3c b0 fd d4 3b
       0.0012501896 -0.04883183 0.021484379 0.0064999685
000100 a4 45 cd bb 7c 35 7d 3d ac 54 30 bd f7 bc 44 3c
       -0.0062644053 0.061818585 -0.0430495 0.012007943
000110 53 f7 5d 3d b0 e4 e2 bd 29 8c 60 bd 37 cd 53 bd
       0.054190945 -0.11078775 -0.054821167 -0.05170938
000120 16 15 ba 3c dc 76 1c bd 0e 2c ea 3c b7 66 5f 3c
       0.022715133 -0.03819929 0.02858546 0.013635329
000130 7b 96 8d 3d bc 3e 8f 3c 04 7a 85 bd 6b 6f 9b bd
       0.069134675 0.017485969 -0.06517413 -0.07589611
000140 3a be 1f 3d 82 a2 26 3d 4b cd 91 3c a5 99 24 3e
       0.038999774 0.040682323 0.017798087 0.16074236
000150 8b cf 46 3d b4 ad d4 3c e7 54 6d bd 59 62 48 bd
       0.048537772 0.025961734 -0.057942297 -0.048921917
000160 43 12 b0 bd bb 40 4b bd c9 ba 81 bd 91 98 96 3d
       -0.08597233 -0.04962228 -0.063344546 0.073533185
000170 51 61 c7 3d df f5 15 bd b8 1e ca 3c c6 9e e1 3c
       0.097353585 -0.036611434 0.024672851 0.02754153
000180 5a fb 2b 3d 7a 36 9b bd 98 d6 38 bd 19 b9 9b bd
       0.041987754 -0.0757875 -0.045126528 -0.07603664
000190 da e2 d0 3d b2 00 70 bd 49 0c f3 bb 62 d3 08 bd
       0.101995185 -0.058594413 -0.007417236 -0.033404715
0001a0 18 06 ad 3c 37 36 23 bd 18 90 39 bd fd 6e 0e be
       0.02112107 -0.039846625 -0.045303434 -0.13909526
0001b0 d6 bb 0d bd 9a f8 be bc 50 8a f6 bc 1d 9c 90 3d
       -0.034602962 -0.023311902 -0.03009525 0.07061026
0001c0 db 4b e4 3c 93 69 ca 3d 34 26 0d 3e 74 ff 31 bd
       0.027868202 0.09883418 0.13784105 -0.04345651
0001d0 c9 25 ac 3d aa 6c 57 3d fc 93 9b bd 08 a2 3e 3c
       0.084056444 0.052593865 -0.07596585 0.011635311
0001e0 0f 3d 26 bd 88 4d 95 3d 03 23 96 3d 2b d9 35 3d
       -0.040585574 0.072901785 0.07330897 0.04439656
0001f0 b9 27 4b 3d ff 7d 94 bd cc 5d 8f 3b 31 8e e3 3b
       0.04959843 -0.07250594 0.004375195 0.006944441
000200 c7 02 2d 3d 87 fd 9b 3d 66 93 d4 bc b9 e9 8e bd
       0.042238977 0.07616716 -0.025949191 -0.06978173
000210 ad 5f 6b 3d 9f cf 0c 3d bc b6 49 bd 0b cc da 3c
       0.05746429 0.03437769 -0.049246535 0.026708623
000220 1b db ab 3d 4c 5d 81 bd 2f 4a 84 3d 69 ac 54 3d
       0.083914004 -0.06316623 0.06459462 0.051922236
000230 9e b3 d8 3d f3 70 5e 3d 8f fd 7d b8 4d cc a8 3b
       0.10581134 0.054306936 -6.0556045e-05 0.0051513077
000240 2c 58 43 3d 6f c3 37 3d 85 3a a9 3d 2e 5f 06 3e
       0.04769151 0.044864114 0.08263115 0.13122246
000250 a9 89 12 3e 70 ac 45 3d 8f 6f 07 3e 1a 45 06 3e
       0.14310326 0.048260152 0.1322615 0.13112298
000260 c9 98 04 3d 73 99 a2 3c 11 9f 37 3d 54 18 e8 3d
       0.03237227 0.01984856 0.044829432 0.11332765
000270 65 44 97 3d 55 76 28 3c ad ff 1e 3d 1c ac 8f 3b
       0.07386092 0.010282119 0.03881805 0.0043845307
000280 4c bc 46 3e bb 8e 43 3d 34 c4 9e 3d 2d 16 62 bd
       0.19407767 0.04774354 0.077522665 -0.05519693
000290 c3 c2 91 3c 63 5e 48 bd 42 cb bb 3d 6f 49 ee bc
       0.017793065 -0.04891814 0.09169628 -0.02908775
0002a0 89 e6 81 3d 4f 13 a0 3d 54 c7 b9 3d ba 2a dd bd
       0.06342799 0.07816183 0.09071222 -0.10799165
0002b0 a4 40 ab 3d 80 cc b2 3b e6 28 4c 3d dd a5 8b 3d
       0.083619386 0.005456507 0.04984369 0.06818745
0002c0 db 02 bd 3d c4 99 a8 3d 71 a8 7d 3e a7 b4 33 3c
       0.0922906 0.082324535 0.24771287 0.010968364
0002d0 c8 12 84 3d db ae 90 3d 3e 8e ef bd 23 37 22 be
       0.06448895 0.07064601 -0.116970524 -0.15841345
0002e0 49 64 19 3d 2f 20 b6 3d d9 09 80 3e 42 e9 65 bd
       0.037449155 0.08892857 0.25007513 -0.056130655
0002f0 57 15 2d 3e fb 0e 1c 3e f3 94 92 be 58 88 45 be
       0.16902672 0.1524009 -0.28629264 -0.19290292
000300 ef c0 85 3b e0 f7 b7 3c b5 3a 53 bc e1 07 10 3c
       0.0040818374 0.022457063 -0.012892415 0.008790941
000310 7c a4 a0 3d 3b 2c 8b bd e4 8b 09 bd e6 f3 1a be
       0.07843873 -0.06795546 -0.033580676 -0.15132102
000320 48 f7 11 bc d7 5c 4e 39 ef 91 f0 3c f0 ec fc bc
       -0.008909054 0.00019680276 0.029366462 -0.0308747
000330 44 26 9c 3d 0a 76 c1 bd 9a 39 62 3c 63 28 6a bd
       0.07624486 -0.09446342 0.013807679 -0.057167422
000340 f7 d2 24 bc 5c d3 45 bd 60 ac 1a 3d ba 0e a9 3d
       -0.010060064 -0.04829727 0.037762046 0.08254762
000350 97 73 d2 3c f4 aa 1d bd 75 1d c5 3d af d8 89 3d
       0.025689883 -0.03849311 0.09624759 0.06730782
000360 d1 27 25 3d 6a 0d 29 bd 0f 7a 8a 3c 38 00 0d 3d
       0.040321175 -0.04127256 0.016903905 0.034424037
000370 f1 ba e4 bc ca ee bb bd bc 2b 91 bc 8a 0c 5c 3c
       -0.027921172 -0.09176405 -0.01772105 0.013430724
000380 fe 8d aa 3d 64 f2 ac bd bf 93 85 3d bc ef 80 bd
       0.08327864 -0.0844467 0.06522321 -0.06295726
000390 93 0e b0 3c 08 b8 36 bd 92 37 d4 bc 84 d3 b4 3d
       0.021491325 -0.0446091 -0.025905404 0.08829406
0003a0 23 c0 4d bc 74 65 89 bd fc cd 93 3c 8e 27 02 be
       -0.012558016 -0.06708804 0.018042557 -0.12710401
0003b0 0b 98 8f bd 22 ec 4f bc 60 0c 6d bd 4a 4c 75 3c
       -0.07011422 -0.012690576 -0.05787313 0.014971802
0003c0 57 79 f3 bc a4 00 9c 3d fd 70 88 3e 24 b6 33 bd
       -0.029720945 0.0761731 0.26648703 -0.043874875
0003d0 9a e4 ce bc 07 12 9a bb 6b 13 78 be bf 7c 48 be
       -0.02525549 -0.004701856 -0.24226157 -0.19578837
0003e0 4e 59 89 bd b5 21 4a 3c 76 aa a3 3e 5c 69 1b bc
       -0.06706487 0.012337138 0.3196599 -0.009485569
0003f0 3b 6a a8 bd e9 a2 b4 bd 2b ba b2 be 64 00 0a bf
       -0.08223387 -0.08820135 -0.3490766 -0.53906846

conv2.weight f4 [64, 32, 4, 4]
000000 2e 15 14 3d c0 a1 d5 3d 56 04 0a be 80 b9 6c bc
       0.03615301 0.10431242 -0.13478217 -0.0144485235
000010 6b 7f 94 3b d4 9b 1d bc 8c 31 18 3e 6c 4d 49 3e
       0.004531791 -0.009619672 0.1486265 0.1965844
000020 6a d4 a5 3d 95 6a 85 3d 2d d1 3c 3d 80 32 91 3d
       0.080971554 0.065144695 0.046097923 0.0708971
000030 ab 00 77 bd 5e 32 f3 3a 4c 45 01 bd 17 85 da 3d
       -0.06030337 0.0018554439 -0.031560227 0.10669916
000040 3e e9 d6 3c 3e 75 2c bc c7 ae 21 3c 44 f4 5b 3d
       0.026234265 -0.010526 0.00986833 0.053699747
000050 5b 04 24 3c 34 97 d7 bc 01 5f 8a bd 85 f4 88 bd
       0.010010804 -0.026317216 -0.06756402 -0.066872634
000060 7a a0 f3 ba 8c c6 b4 bc bd 96 f7 3c bc 64 58 3e
       -0.0018587254 -0.02206733 0.030223245 0.21132177
000070 ae 17 c7 3d 49 7d f1 bc 69 93 8f 3d 18 55 f3 3c
       0.097213134 -0.029478686 0.07010538 0.029703662
000080 9f 18 17 3e 83 2c 9a 3c 1a 6f 9c 3d 3a b0 ee bc
       0.14755486 0.018820053 0.076383784 -0.029136766
000090 3d be c7 3c b8 68 cd bb f6 f2 e8 bc 93 66 00 bd
       0.024382705 -0.006268587 -0.028436165 -0.031347822
0000a0 be 1c ef 3d 40 f4 4f 3c f3 a3 06 3d 40 7a 1a 3d
       0.11675404 0.012692511 0.032871198 0.037714243
0000b0 3a 29 ed bb bb ac 2b bb b0 51 25 3d 02 12 18 3d
       -0.0072375806 -0.0026195485 0.040361106 0.03712655
0000c0 f5 1f d8 bc 74 ac 95 bd 63 8d 71 bd 9c 69 b0 3a
       -0.026382426 -0.073082834 -0.058972728 0.0013459208
0000d0 1c 29 19 3d d3 96 cd 3d 11 4f ed bd e7 dd 92 3d
       0.03739272 0.10038533 -0.11587346 0.07171231
0000e0 90 e8 f0 3c cf 30 46 bd cb ca c2 bd 73 cf 2e 3d
       0.02940777 -0.04838639 -0.09511336 0.042678308
0000f0 9c 01 fe 3c cf ab 9f bd a3 19 6a bd b5 94 d0 3c
       0.031006627 -0.07796442 -0.057153355 0.025461534
000100 ad 31 43 bd 81 b3 78 3c 43 24 bb 3c 09 c9 c1 bc
       -0.047654796 0.015179516 0.02284444 -0.023655431
000110 56 a0 be 3d bf bb 54 bc 22 15 0f bc bc 3f db bc
       0.093079254 -0.012984215 -0.008733066 -0.02676379
000120 8d 87 a5 bb a8 26 27 3c 80 df 8f 3d 13 0b c8 bd
       -0.0050515593 0.010202087 0.07025051 -0.09767737
000130 32 5c 50 bd d3 a2 c2 bd a9 84 19 bd 69 11 fe bc
       -0.050869174 -0.095037125 -0.03748003 -0.031014161
000140 91 b0 de 3c 2c dc d5 bc d2 f3 19 3d c9 f5 bf 3b
       0.027183803 -0.026105963 0.03758604 0.0058581573
000150 b0 5f 24 3d 1c 4b c6 bb 95 15 d0 bc ae 6a 8a bc
       0.040130317 -0.006051434 -0.025400916 -0.016896572
000160 79 de e8 3c 0c 9d 79 bd 36 7d 5f 3d 51 6f 92 3d
       0.028426396 -0.060940787 0.05456277 0.07150138
000170 fc 5a 47 bd d1 bf 0a be 83 0c 2a 3c 1c 5e 86 bd
       -0.048670754 -0.13549735 0.01037896 -0.06560919
000180 ca d5 0b 3d f2 b7 2c bc ef aa 3b 3d a2 1f 8b 3c
       0.034139432 -0.010541903 0.04581731 0.016982857
000190 b6 77 98 3d 55 0e a6 3d 3d e4 67 3d 5a c8 bf 3c
       0.07444708 0.08108202 0.05661415 0.023410965
0001a0 c0 88 dd 3d 16 42 50 bc 0d d1 f8 3d 00 15 22 bd
       0.108170986 -0.012711069 0.12149248 -0.03957081
0001b0 eb 0a dc bd b7 63 5c 3d 3a 70 ee 3b 19 bd 72 3c
       -0.1074427 0.053806033 0.007276562 0.014815592
0001c0 e6 ce bd bd a1 ed 82 3d a6 b6 87 39 d1 9c 86 3d
       -0.09267978 0.0639298 0.0002588529 0.06572879
0001d0 e6 e6 c4 3c 83 c2 94 3c 2c 16 62 bd 4f d7 69 bd
       0.024035882 0.018159157 -0.055196926 -0.0570901
0001e0 d7 0b 4a bd b7 4a a0 bd 15 3c 6d bd 74 52 12 3e
       -0.049327698 -0.07826751 -0.057918627 0.14289266
0001f0 fb 2c df 3d 8e ed d2 3d ca c4 61 bd 64 cb 92 3c
       0.10897251 0.10299216 -0.055119313 0.01791925
000200 8e 87 66 3d b1 29 a3 3d 7b 21 d1 bc 05 45 05 3d
       0.05628162 0.079669364 -0.02552866 0.032536525
000210 db 6f 6f ba 62 c6 44 bc cf 7c 54 3d 25 f2 15 3c
       -0.0009133794 -0.012010189 0.05187684 0.00915197
000220 b4 80 1a bd 71 22 8b bd 7a 76 da bd 3d 77 2d bd
       -0.037720397 -0.067936786 -0.10667129 -0.042350043
000230 ee c2 97 3c 72 d2 9a 3c 89 ab 01 bc 36 80 98 3c
       0.018525567 0.018899176 -0.007914432 0.018615823
000240 f9 f9 8b 3d c8 47 19 3c 79 ce 1f 3d 0e b6 55 bd
       0.06834788 0.009355493 0.039015267 -0.052175574
000250 d9 99 32 3c 08 e1 c5 3c 50 25 a6 bd a6 74 81 bc
       0.010900938 0.024155155 -0.081125855 -0.015802693
000260 11 4c 0b 3d 1c 09 a8 bd 56 3e 1a bd 9b 5b 1f 3c
       0.03400809 -0.082048625 -0.037657104 0.00972643
000270 88 99 4e 3d 8b ac c0 3b 5f 54 90 bd 16 17 1f 3c
       0.050439388 0.0058799437 -0.070473425 0.009710094
000280 c7 17 88 3c 7b 17 23 bc 6d 69 9c bd ae 0a 22 be
       0.0166129 -0.009954329 -0.07637296 -0.15824386
000290 ef f3 7d 3d 74 d9 98 bd 14 28 ef bc 69 fd 0f bd
       0.06200021 -0.07463351 -0.029193915 -0.03515378
0002a0 83 2e ee 3d ee 97 00 38 f8 f6 1d bd c7 da 2e be
       0.11629965 3.0659074e-05 -0.038565606 -0.17075644
0002b0 08 b0 58 bd 69 9b 01 3d 7c 46 a2 3c f5 64 7d 3d
       -0.05290225 0.03164235 0.019809 0.06186386
0002c0 87 34 81 bd 10 f1 d7 3d 08 5a 10 3d 70 70 1e 3d
       -0.06308847 0.10544026 0.03524211 0.038681448
0002d0 30 ad c4 bd a3 3a 40 3e f4 90 b1 3d d4 41 c5 3d
       -0.096033454 0.18772368 0.08670226 0.09631696
0002e0 b8 c4 6b 3c 78 72 22 bd f8 a9 5e 3d a8 64 c4 3c
       0.014390163 -0.039659947 0.054361314 0.023973778
0002f0 0c 4a 94 3d 00 fc 22 be 55 a9 0e bd 49 6a 72 3d
       0.07240686 -0.15916443 -0.034829456 0.059183393
000300 26 36 ac 3d e7 8d 02 3d 6b 58 31 3d 37 ba 67 bb
       0.084087655 0.03187361 0.043297213 -0.0035358795
000310 67 09 86 bc 8f 99 0b bd 69 71 c0 bd 8a 4a 1a 39
       -0.016361905 -0.03408199 -0.09396631 0.00014714352
000320 3e f0 0e 3e 8d 14 1a 3b 9f a1 22 3c c5 2e 3d 3d
       0.13958833 0.0023510784 0.009926229 0.04618718
000330 e3 46 08 bd 4f d8 b0 bd a4 ed 12 bd 75 f9 c0 bd
       -0.033270728 -0.086350076 -0.035871163 -0.0942258
000340 b2 cd 9e 3d c1 4c ec bc 07 71 05 3c 9a d1 f8 bc
       0.07754077 -0.028845193 0.008144624 -0.030373383
000350 bf 5a 12 bd 31 e8 9d 3d af 9b 6a 3c 70 af f1 bc
       -0.035731073 0.077103026 0.014319344 -0.0295026
000360 df f7 74 bd ed 2b 5d 3d 8f 5a 10 bd f5 bf ef 3c
       -0.0598067 0.05399697 -0.035242613 0.029266337
000370 23 a7 af 3b 1c 87 b3 bd 82 f8 1a bd 01 4f 13 3d
       0.0053605004 -0.087660044 -0.03783465 0.035964016
000380 ac 9f 05 be 33 e6 1a 3e b1 bf 8c 3c 55 71 5f bc
       -0.13049191 0.15126877 0.01718125 -0.01363786
000390 a4 46 a9 bd 8d 4b c4 3d 3d 0c d0 ba 1c 7e b4 bd
       -0.08265427 0.09584723 -0.0015872788 -0.08813116
0003a0 39 84 ed 3d c7 78 61 bd 2c 2a 1c 3c 2b 31 0f 3d
       0.11597485 -0.055046823 0.009531539 0.034959
0003b0 3d 29 53 bc ee 74 51 bd 9c 20 52 bd a1 06 7a 3d
       -0.01288825 -0.051136903 -0.05130063 0.061041478
0003c0 c5 3c c8 bc 87 82 56 3d 32 0b 85 3d eb 4c cc bd
       -0.02444304 0.052370574 0.06496276 -0.099756084
0003d0 99 c0 66 bd d1 ab c4 bc 20 47 5f bc ef d4 30 3e
       -0.05633602 -0.02400771 -0.013627797 0.17268728
0003e0 4b 89 0a 3e 41 ba 87 bc 61 1d a2 3d 39 fa 58 3c
       0.13528936 -0.016568305 0.0791576 0.0132432515
0003f0 87 fe 6e bd 1a 65 46 bc 08 9f 96 bd aa 3f 1e bc
       -0.058348205 -0.012109065 -0.073545516 -0.009658733

conv3.weight f4 [64, 64, 3, 3]
000000 cd 7f d3 bd d2 e8 db bc 82 21 c1 bd ab 37 63 bc
       -0.103271104 -0.026844416 -0.09430219 -0.013868253
000010 e9 c0 27 3c bf 86 ba bd c3 9c 8e 3d 0b 49 3c bd
       0.010238864 -0.09107732 0.06963494 -0.045968097
000020 09 c2 13 3e a3 65 d8 3d 19 f4 eb 3c 77 74 e8 bd
       0.14429487 0.10566261 0.028802918 -0.11350339
000030 fa c6 06 bd 83 72 98 bd e6 3b 4b bc 27 62 48 3e
       -0.032904603 -0.074437164 -0.012404418 0.19568692
000040 6f 48 1a 3d 08 94 af 3c 26 07 0e 3e 8d 95 c0 3c
       0.037666734 0.021432891 0.13869914 0.023508811
000050 bf da 2e 3d 4d ae 1a be f2 d4 24 bd c2 c2 c4 3d
       0.04268908 -0.15105553 -0.040242143 0.096074596
000060 e4 f1 e3 3c fb 07 d1 bb b6 7e ed bc fd c6 2a bd
       0.027825303 -0.006379125 -0.028991085 -0.041693676
000070 a6 2f 2f bd 4f b8 8e bd e9 bc 9f ba 95 e0 f4 3d
       -0.04277005 -0.06968748 -0.0012187037 0.11956898
000080 4a 01 da 3c 99 b3 00 bb 9a 12 ca 3d 47 57 61 3d
       0.026611943 -0.0019638299 0.09866829 0.055014875
000090 2a 93 07 3c 66 0f 96 3d 09 bc c7 bd 94 66 a8 bd
       0.008274833 0.07327156 -0.09752662 -0.0822269
0000a0 e5 88 38 3c 4b 9c aa bc 3c e8 0e 3d df c3 41 3c
       0.011263107 -0.02082648 0.034889445 0.011826484
0000b0 42 51 c3 3d 55 30 7b 3e 5c 89 0a 3c 0a f5 28 bd
       0.09536983 0.24530156 0.008455601 -0.041249312
0000c0 c3 89 23 be 69 ab 1f 3d c1 5e f9 bd d8 56 1c 3b
       -0.1597052 0.03898183 -0.12176276 0.0023855474
0000d0 c1 2e a4 3c 9d 27 a9 3c e8 0d ec 3d 5c 8d 72 bc
       0.020041825 0.020648772 0.1152609 -0.0148042105
0000e0 fb 1b f3 3d 91 2a 37 bd 05 3a f3 3d b5 b8 24 3d
       0.11870571 -0.04471833 0.11876301 0.040215213
0000f0 b1 05 38 3c f2 cf d9 bc e5 b6 98 3d 06 a6 81 3d
       0.011231826 -0.026588414 0.07456759 0.063304946
000100 8e 4c 6c bb 95 f0 1c bd 6f 31 27 be ac 8b 62 be
       -0.0036056372 -0.038315374 -0.16327451 -0.22123593
000110 67 06 08 be 13 73 15 be 43 79 af bd 68 26 ed bd
       -0.13283692 -0.14594679 -0.08568051 -0.11579591
000120 cc ec 34 be 5d d6 6d bd 26 13 33 bd f2 1c bd 3c
       -0.17668456 -0.05806576 -0.043719433 0.023085091
000130 f2 1f 80 bd 5d 99 4b bc 61 d8 8a bc 57 dd 5a 3d
       -0.06256093 -0.012426701 -0.01694888 0.053433742
000140 bc 78 e9 bd b8 53 d3 bd d9 ce 80 3c 8b 6c dc 3d
       -0.113999814 -0.103187025 0.015723633 0.107628904
000150 88 ba cb 3d 51 e8 fe 3d 4e bf 25 be 79 83 9d bd
       0.099476874 0.124466546 -0.16186258 -0.07691092
000160 88 d9 8d bc 8b 8e 42 be 6c 46 43 3e 15 f7 e3 3d
       -0.017315641 -0.18999688 0.19069833 0.111311115
000170 75 d0 91 be de a9 b9 bd 51 3e a4 bd 51 f2 8e bd
       -0.28479353 -0.09065603 -0.080196984 -0.06979812
000180 50 14 18 be c6 6a 99 bc 4f 5d 63 3d 21 9f dd bd
       -0.14851499 -0.018727671 0.055508908 -0.10821367
000190 58 16 99 bd 6b 7a b0 bd 78 21 80 bd 56 a8 86 3d
       -0.07474965 -0.086170994 -0.06256384 0.06575076
0001a0 65 d3 e1 bd 61 ef 47 3d 97 2c 0b be 4c 7b fb 3d
       -0.110266484 0.048812274 -0.13591228 0.122793764
0001b0 33 2e 29 3e 5c 2a b7 3d b1 8c 01 be b6 eb b2 bd
       0.1652153 0.08943626 -0.12651326 -0.087363645
0001c0 79 35 05 bd 95 ed 7b bd 5a ab 62 3e df d2 ca 3d
       -0.0325217 -0.061505873 0.22135678 0.09903502
0001d0 41 91 b4 3c e3 a6 96 3d 55 72 81 bd f8 39 ec bd
       0.022041919 0.0735605 -0.06320635 -0.11534494
0001e0 94 c6 2a bd f0 f0 b0 3d de b1 85 3c 5d a8 be bd
       -0.041693285 0.08639705 0.016320165 -0.093094565
0001f0 9c 5a 82 bd 5b 24 14 be b6 53 b2 3d 9a 30 53 3d
       -0.063649386 -0.14466994 0.08707373 0.051560022
000200 94 49 56 bd 09 33 05 be 0c 36 83 3c 61 bc f7 bd
       -0.052316263 -0.1300775 0.016016982 -0.12096477
000210 f7 74 77 3e 21 a3 98 bd e3 c0 a5 3d 76 8f 7c 3d
       0.24165712 -0.07452989 0.08093431 0.061660253
000220 e0 20 f5 bc ff 99 08 be 61 66 14 bd b1 24 dc bd
       -0.029922903 -0.13339995 -0.03623045 -0.10749186
000230 cd 81 73 bd a9 56 b2 bc aa 9f 62 bd fb f9 30 bd
       -0.05944996 -0.021769838 -0.05532805 -0.04320715
000240 7c 72 49 bc cb 30 27 b9 dd 1c df bd 16 79 87 3c
       -0.012295362 -0.00015944538 -0.10894177 0.01653723
000250 93 ee 83 3b 4e fa 86 3d f3 01 34 bc 65 24 6a 3c
       0.004026243 0.065907106 -0.010986793 0.014290904
000260 16 6b 83 3d 13 58 5b bc af c8 4b 3d bb 29 56 3c
       0.064169094 -0.013387698 0.049751934 0.013071473
000270 0a 00 79 3d a1 bd d9 3b 13 e0 dc 3c 0d cf df 3b
       0.060791053 0.00664492 0.026962316 0.0068301023
000280 8d 94 8f ba 46 3b 69 3d 9f 31 1e bd e6 6c d1 3c
       -0.0010954306 0.056941293 -0.03862154 0.025564622
000290 ee f3 03 be 7a 4b 05 bd c9 42 da bc 89 e6 10 3e
       -0.1288602 -0.032542683 -0.026643174 0.14150442
0002a0 52 ce 93 3e 80 e8 31 3e 11 10 0f 3d 4f 12 a5 bd
       0.28868347 0.17373848 0.03492743 -0.08060133
0002b0 e3 b4 f2 3c 08 9f 9f bb ad d0 41 bd 90 95 54 3d
       0.02962727 -0.004871253 -0.04731815 0.051900446
0002c0 47 c5 a1 3d 6f 99 a5 3d 5b a7 61 3d 03 74 07 bc
       0.07898956 0.08085906 0.055091243 -0.008267405
0002d0 45 5f 85 3d 05 ac 9c bd d1 ba 01 3d 92 79 91 3d
       0.06512312 -0.076499976 0.031672303 0.07103266
0002e0 3e 6f e8 3c bd 6f 03 be 3d c5 f2 3c a0 39 d6 bb
       0.028373357 -0.12835594 0.029635066 -0.006537631
0002f0 8c 04 01 3c 24 d1 ad 3c 3e d0 00 3e 89 84 8c 3d
       0.007874619 0.02121789 0.12579438 0.068612166
000300 0b a2 c3 bd 53 6e 88 3c cf 92 0d be b7 e6 89 bd
       -0.095523916 0.01665417 -0.13825534 -0.067334585
000310 63 d4 d8 bd 79 39 72 3e aa 9e 71 bd 7a 7f 13 3d
       -0.105873846 0.23654737 -0.058989204 0.036010243
000320 b7 01 73 3d db 92 c1 bd eb c7 b4 3d 2a 16 0e 3e
       0.059327807 -0.094518386 0.08827194 0.13875642
000330 2a b3 ba 3d 6c 92 72 bd 60 68 33 3d c6 f4 ac 3c
       0.09116204 -0.05922167 0.04380071 0.02111281
000340 b3 3e 9f 3c 16 28 da bc 83 03 13 bc 36 9d e1 3c
       0.019439077 -0.026630443 -0.008973005 0.027540784
000350 d5 3e 00 3e c2 ef cc bd ac 6d 9c 3b 44 1b b0 3c
       0.12523969 -0.10006668 0.004773816 0.021497376
000360 78 2e 36 3e 51 c2 da bc 1e 1b 93 b8 32 d0 f1 3d
       0.17791164 -0.026703985 -7.014557e-05 0.11807288
000370 77 ef c3 bd 4b 44 84 bc a0 57 0e bd 3f b2 99 3d
       -0.09567159 -0.016145846 -0.034751534 0.07504701
000380 66 8c 84 3c 2a b5 16 3e ba 3b f0 bb 00 4b 15 3e
       0.016180228 0.14717546 -0.0073313387 0.14579391
000390 ee 64 93 bd 8d 76 f7 3c 5c 80 1b bd af a2 93 bd
       -0.07196985 0.030207897 -0.03796421 -0.07208764
0003a0 d8 f7 8a bd 80 7c 0e be 06 fc 13 3c f6 da 98 3d
       -0.06785554 -0.1391468 0.009032255 0.074636385
0003b0 9e cc ff bd 68 3e 4d 3d f5 ff ba 3c 20 d1 90 3d
       -0.124901995 0.050108343 0.022827128 0.070711374
0003c0 d7 42 8a bd db f3 1e be ad 5c 0a bd b1 00 ea bb
       -0.0675103 -0.15522711 -0.03377979 -0.0071411957
0003d0 2e fa d3 3c 76 11 2b 3c eb 9d 08 3e 3c ae 9f bd
       0.02587613 0.010441175 0.13341491 -0.077969044
0003e0 f7 95 07 be 24 bc 81 bd 08 b7 01 3d 2b ae 01 bd
       -0.13240801 -0.06334713 0.031668693 -0.03166024
0003f0 31 e1 dc bd 2f 94 b1 bd 0f 6d 2b 3d e7 2e b1 3c
       -0.10785139 -0.08670842 0.041852053 0.02162881

value.weight f4 [1, 3136]
000000 1d d4 c2 3d 5f 66 5e bd 24 91 20 3b c1 23 bc bc
       0.09513114 -0.054296847 0.0024500573 -0.022966268
000010 8c d8 7f 3d 5b 4e 3c 3d b9 32 89 3d 1b 27 ca bd
       0.062462375 0.045973163 0.06699128 -0.0987074
000020 8e 2f 20 3c 8b 53 80 3d 93 0f 99 bd ac e5 12 3d
       0.009776963 0.062659346 -0.07473674 0.035863563
000030 13 a3 d5 3c 2f e9 17 3d 49 b8 9f bd 09 c4 f1 ba
       0.026078736 0.037087616 -0.077988215 -0.0018445264
000040 58 f7 41 bd 17 9f 81 bd 06 aa 47 3b 1b ec 56 bd
       -0.047355026 -0.06329172 0.0030466332 -0.05247126
000050 a9 dc 1e be 20 ec 0a 3e e8 a0 43 3e f8 16 02 bd
       -0.15513863 0.13566637 0.1910435 -0.031760186
000060 39 3a a0 3c 36 fe af 3d f6 98 35 3d 4d f4 09 3c
       0.019559013 0.08593409 0.044335328 0.008420062
000070 63 bb d5 3c 22 21 7c 3d a1 3c 0d bd 9a 4c 22 bd
       0.02609033 0.061555035 -0.03448165 -0.039623834
000080 cd 93 12 bd f2 00 84 3b c4 4c c7 3c cb f3 5b bd
       -0.035785485 0.004028433 0.024328597 -0.053699296
000090 7a da 17 3d 90 1b 47 bd 1a cd 53 bd 0c 25 04 bd
       0.03707359 -0.04861027 -0.051709272 -0.032261893
0000a0 9d 4c e4 bb c4 5e 17 bd 39 89 83 bd 17 5d 5c bd
       -0.006967141 -0.03695561 -0.064226575 -0.053799715
0000b0 b8 8a bf bd bc 46 2d bd eb 4b da bb db 17 28 bd
       -0.093526304 -0.042303786 -0.006661882 -0.041038375
0000c0 f8 e1 d6 bc 2e ca 94 3e 62 4f 5f bd 36 a3 42 bd
       -0.026230797 0.290605 -0.054519065 -0.04751893
0000d0 7f 02 fc bb 09 2c d5 bb 5c de 0b bd 94 5b d0 bb
       -0.0076907272 -0.0065054935 -0.034147605 -0.006358573
0000e0 5e d2 b6 3e 3f 64 72 3d 49 cd 20 3e e3 d7 93 3f
       0.35707372 0.059177633 0.1570331 1.1550258
0000f0 89 52 22 3e 0c 61 19 3e 61 b4 00 3f d1 a0 c7 3c
       0.15851797 0.14978427 0.50275236 0.024368675
000100 fa 76 32 bd 52 6b 46 3c 7c 4c 52 3c b1 7e 68 bb
       -0.043570496 0.012110548 0.012835618 -0.0035475905
000110 fc 22 d8 3c f6 68 99 3b 04 a1 24 be dd 5a a7 bd
       0.02638387 0.004681702 -0.16077048 -0.08171628
000120 81 3d bf bd e7 62 a9 bd e2 2b c8 bd cb d2 a2 bc
       -0.09337903 -0.08270817 -0.09773995 -0.019875905
000130 97 8c 67 3c 27 7e b8 bd 32 28 7c bd 05 f5 51 bd
       0.01413264 -0.09008437 -0.06156177 -0.05125906
000140 64 cf 70 bc 9a 3b c0 bd 11 fa 2a 3c 60 b5 16 3d
       -0.014697883 -0.09386368 0.010435597 0.036794066
000150 75 a8 0d 3b 85 f0 33 bd 1e 69 96 3a 7d 7b 59 3c
       0.00216153 -0.04393055 0.0011475419 0.013274071
000160 fb 87 7f bd f9 8c 47 bd b4 79 8f 3d 7e 9f 0e bc
       -0.06238554 -0.048718426 0.07005635 -0.008705018
000170 00 4d 0e 3c 38 72 ac b9 19 3c 6c 3c 7a ea 24 3c
       0.00868535 -0.00032891496 0.014418625 0.010065669
000180 1d 40 23 3c ad 3a 7f 3c b7 31 6f bd 85 a7 ec bd
       0.009964016 0.015577954 -0.05839702 -0.11555389
000190 7f e2 07 be 8e c4 54 be 2d 41 bc bd 43 0a d6 bd
       -0.13269995 -0.20778105 -0.09192119 -0.10451176
0001a0 d8 5c cb bc 8d 05 85 3e e2 4d 1e 3e 24 9c 48 3d
       -0.024824545 0.25980797 0.15459397 0.048977032
0001b0 81 9b 63 3e bb 08 5e 3e 2a 9b 0d 3e 11 92 ec 3e
       0.22227289 0.21683018 0.13828722 0.4620519
0001c0 47 8b 00 bc bb b9 53 bb 43 16 ed 3c 95 f4 75 bd
       -0.007845706 -0.003230675 0.02894128 -0.060047705
0001d0 35 ba 1a 3d 82 f5 62 3c 6d 5f 36 3d b6 29 b9 bc
       0.037775237 0.013852479 0.0445246 -0.022602897
0001e0 fe fc a5 3c df e5 4e 3d 89 33 3a bc 22 9a bb bc
       0.020262238 0.05051219 -0.011364826 -0.022900645
0001f0 bb e4 ec bc 0d e3 78 bd 21 49 6f 3d 6e 03 6e bc
       -0.028917661 -0.060763407 0.05841935 -0.014527185
000200 8c 71 cd 3b 21 fe 70 bc 1c ef 06 3d 76 cf 11 bd
       0.0062696394 -0.014709027 0.032942876 -0.03559824
000210 8d ff 4e bd fb e6 4c 3e 13 6e 1c bc f4 3f e5 3b
       -0.05053668 0.20009987 -0.009547728 0.006996149
000220 20 69 61 bb 0f 40 fc 3b 7d d3 3f 3d 44 09 82 3d
       -0.0034394935 0.007698066 0.04683255 0.063494235
000230 0c d3 98 bc 19 fb 4a bc 68 f7 92 3c 8b ff 6b bc
       -0.018655322 -0.012388968 0.017940238 -0.014404188
000240 42 82 47 bc 57 57 83 bc d0 f5 1d 3d d5 96 8b bd
       -0.012177052 -0.016032858 0.038564503 -0.06815878
000250 0d f4 4b bd 60 c4 02 3d ee 80 20 bc 15 07 0b 3d
       -0.04979329 0.03192556 -0.009796364 0.0339423
000260 34 49 4b 3d a9 29 1d 3d e4 f6 c1 3d 65 bf 0f bd
       0.04963036 0.03836981 0.09470919 -0.035094637
000270 9f 11 6a 3c b6 d4 5f 3d 89 e2 3f bc 97 59 f5 3b
       0.014286428 0.054646216 -0.011711725 0.0074874866
000280 dc 49 a4 bd a9 05 2d be 32 b8 0d be 41 ee 54 bd
       -0.080219 -0.1689669 -0.13839796 -0.05198503
000290 3c f4 d6 bd 53 a9 ba bd 88 b5 2b bd 3d ed de bd
       -0.10495803 -0.09114327 -0.04192117 -0.10885093
0002a0 06 c4 17 be 43 01 be bd 90 9f a0 bd 53 31 c7 bb
       -0.14820871 -0.092775844 -0.07842934 -0.006078878
0002b0 bc 1b 97 bd 70 8d 35 bd 05 35 24 be d9 1b 21 be
       -0.07378337 -0.04432434 -0.1603585 -0.1573328
0002c0 b1 7a 47 bd 1f eb 0a bd 06 38 21 bd b4 db 93 bd
       -0.048700992 -0.033915635 -0.03936007 -0.072196394
0002d0 78 c2 48 bd 13 da 6f be 84 a9 64 bd dc 70 19 bd
       -0.049013585 -0.23423032 -0.055825725 -0.037461147
0002e0 6b 2c 85 bd 98 0c bb bd 8c 16 c2 bd 63 ae c1 bd
       -0.06502613 -0.091332614 -0.09476957 -0.0945709
0002f0 1f e4 1e be a9 29 b3 3c 87 2d 87 bc b2 df b5 bd
       -0.15516709 0.021870451 -0.016501201 -0.08880557
000300 c7 0a 19 bc af 52 88 3c ee 07 0c bd 3e 62 6f bd
       -0.009340948 0.01664099 -0.03418725 -0.0584433
000310 fd 1b f3 3d 48 2d 24 bb 95 cf ae bc d2 ce 1e 3c
       0.11870573 -0.0025051404 -0.021339217 0.0096928645
000320 ae e0 48 3b 5f 44 a7 bc f3 ba 20 be 0b 5e 85 bd
       0.0030651498 -0.020418344 -0.15696315 -0.06512078
000330 24 98 66 3d 17 ab 06 bc 6d 74 a4 bc 05 4a 20 3d
       0.056297436 -0.008219502 -0.020075047 0.03913309
000340 b1 c2 14 bd 58 ae 26 bc 47 3b 84 3d 5e 43 43 3d
       -0.036318485 -0.010173403 0.06456619 0.04767167
000350 88 e5 3d bc 67 8b 65 3d 06 d7 53 3d 78 b0 05 3d
       -0.011590369 0.056041148 0.051718734 0.032638997
000360 8a 88 81 3d 62 e0 3d be f4 a3 b9 bd 80 a9 96 3c
       0.06324871 -0.18542627 -0.09064475 0.01839137
000370 09 68 c9 bd 0c 5e dc bd 5c 70 22 be 76 49 f0 3d
       -0.09834296 -0.107601255 -0.15863174 0.117327616
000380 3d e7 04 bd c4 75 f1 3c 6c 2a 09 3d df 78 56 bd
       -0.03244709 0.0294751 0.033487722 -0.052361365
000390 bc b5 ea 3d 99 74 d0 3c 50 ff a0 bc c2 04 84 be
       0.11460444 0.025446223 -0.019652992 -0.2578488
0003a0 5a aa 2e 3c d9 2f 86 bb 86 6b 79 ba 5f d3 37 3d
       0.010660732 -0.0040950594 -0.00095146184 0.044879314
0003b0 d2 f2 5d bc 40 95 ac 3d fc d1 18 bd c2 a5 d7 bb
       -0.013546662 0.08426905 -0.03730963 -0.006581039
0003c0 dd 57 d2 bd 49 5b 29 bc 17 38 63 bc bf 0e 69 bd
       -0.10270665 -0.0103367055 -0.013868353 -0.05689883
0003d0 dd fe 1d bc 14 0c 92 bd 51 57 23 be 58 ec 9b bd
       -0.009643284 -0.0713121 -0.15951277 -0.07613438
0003e0 30 ee e9 bd 48 12 b7 bd 39 70 c5 bd 5a 01 bd bd
       -0.11422384 -0.08939034 -0.096405454 -0.092287734
0003f0 7f 9b f5 3c f0 67 71 3c f4 75 c1 ba a2 23 dc 3c
       0.029981373 0.014734253 -0.0014759884 0.02687246

advantage.weight f4 [4, 3136]
000000 7a f5 bd 3c 65 09 07 bd ac 27 6e bc 23 69 bb bc
       0.023188341 -0.032967944 -0.014535826 -0.022877282
000010 13 ef 7d 3c 0d 7d e9 3b fa 79 f1 3c da 27 53 bd
       0.015498894 0.007125503 0.029477108 -0.051551677
000020 2e 79 4b bb d9 cb 42 3d 07 46 86 bd 06 08 a2 bc
       -0.003104757 0.047557686 -0.065563254 -0.019779216
000030 78 4f a5 bc 35 78 7c bc d1 77 8a bb 4b 9b 09 3c
       -0.020179495 -0.015409519 -0.004225709 0.008398841
000040 f8 c2 1e bd b7 fc 5a bd 5b fd 15 3d 2a 20 e9 bb
       -0.038760155 -0.053463664 0.03661857 -0.00711443
000050 e3 23 4b bd 23 f9 07 3c b9 2e 1e 3a 88 30 71 bc
       -0.04959477 0.008299145 0.0006034184 -0.014721043
000060 40 96 81 bd c6 b3 56 3c cd 4d bb bc 67 da 77 3c
       -0.06327486 0.013104385 -0.022864247 0.015127755
000070 df 82 17 3d b2 3f 74 3d bc ef 62 bb fc 91 98 3c
       0.036990043 0.059631057 -0.0034627756 0.018624298
000080 66 59 da bc b0 24 61 3c 54 31 8b bc 8b 2c c0 3a
       -0.026653957 0.013741657 -0.016991295 0.0014661712
000090 ae 6f fb 3b 56 35 d8 3b bf b7 f7 bb 8e 5e 40 3c
       0.0076732254 0.006598155 -0.007559746 0.011741294
0000a0 12 8c 49 bc be ed 55 3d 4c 0c 95 b8 21 e0 12 bd
       -0.012301462 0.05222868 -7.107164e-05 -0.035858277
0000b0 cd 8d 11 bd d9 dd 63 bd 04 d0 9b 3c a8 a6 2c bd
       -0.035535622 -0.055631492 0.019020088 -0.042151123
0000c0 cd d5 b2 bc 9b f9 f0 3d eb 86 0e bd 86 87 87 bd
       -0.021830464 0.117663585 -0.034796637 -0.06617646
0000d0 87 d2 3d 3c 09 fd a3 bc 30 8d 3a 3c d1 fa a9 3c
       0.011585838 -0.020018118 0.011386201 0.020749481
0000e0 26 4d 8b 3d 5d 31 2b 3c 56 90 b5 3d 4a 27 8f 3e
       0.06801824 0.010448781 0.088654205 0.27959663
0000f0 a4 19 eb 3d 3b 29 4c 3e 95 05 6a 3d fc 86 fa 3b
       0.114795 0.19937603 0.05713423 0.007645486
000100 a5 78 79 bc 9a e6 7e bc 48 ba b7 bb 2c 56 14 bd
       -0.015226518 -0.015557909 -0.0056069233 -0.036214992
000110 93 c7 43 bd 7b a0 dd bc ae 86 8c bd 06 a5 b4 3c
       -0.04779775 -0.027054062 -0.068616256 0.022051346
000120 11 fb 7a 3b d0 8b 08 bd 18 e2 43 bd a0 64 6b 3d
       0.003829662 -0.03333646 -0.04782304 0.05746901
000130 f3 12 de 3c 9d e8 d5 bc c0 89 27 bd 1c 5d 0c bc
       0.027108645 -0.026111895 -0.040902853 -0.008567121
000140 8f bb fc 3b 2c 47 91 bd 22 aa 86 bc a9 01 2c bd
       0.0077127884 -0.07093653 -0.016438548 -0.04199377
000150 ff 44 f8 bc 05 84 93 bd de 45 17 bd 92 04 81 bc
       -0.030306337 -0.07202915 -0.036931865 -0.01574925
000160 98 61 93 bd cf df ca bd 46 35 3f 3b b4 62 33 bc
       -0.07196349 -0.09905969 0.002917604 -0.010948826
000170 41 4e 7c ba f2 77 16 3c 76 05 db 3b 3d 95 84 ba
       -0.0009624698 0.009183871 0.0066840006 -0.0010115277
000180 8e 12 69 3c 58 5d 09 3d e2 66 f7 3c 2a fc 56 3d
       0.014225615 0.033536285 0.030200426 0.052486576
000190 f2 4e 08 bd c2 2a c8 bd 14 e2 cf 3c ba 20 1e 3d
       -0.033278413 -0.097737804 0.025376357 0.03860543
0001a0 0d 7f c1 3c bd f7 63 3d 07 07 e0 3a 16 b3 bf bd
       0.023620153 0.055656184 0.0017091938 -0.0936033
0001b0 5a 84 c0 3c 97 1e ad 3c f1 35 2c 3c 05 ff fc 3d
       0.02350061 0.02113275 0.0105109075 0.123533286
0001c0 ab 88 05 bd d3 e5 d6 3b bb 6d b6 3b 63 d5 fe bc
       -0.03260104 0.006558159 0.00556728 -0.03110761
0001d0 00 c1 7c 3a 64 2a a8 3c 43 1a 2b 3c 59 2c 97 bc
       0.00096417964 0.020528026 0.010443273 -0.018453764
0001e0 50 1b 11 bc 9c d4 8c 3c 8e 6a f8 3b 9c 74 16 bd
       -0.008856609 0.017191224 0.0075810617 -0.0367323
0001f0 8f fd ee bc c0 e3 0b bd d5 f4 ec bc bb 68 c9 bc
       -0.02917364 -0.034152746 -0.028925339 -0.024586072
000200 b3 e2 f4 ba c2 2c 89 3c 90 8e 16 3c 6b b1 8b bd
       -0.0018683284 0.016744975 0.009189263 -0.06820949
000210 6c 5e 05 bd 63 19 5c 3c d2 b4 5c bd f6 c1 6b 3c
       -0.03256075 0.013433787 -0.05388338 0.014389506
000220 47 7e 25 bd dc 1a 8c bd 3f df e6 bc 25 7d 3c bc
       -0.04040363 -0.068410605 -0.028182624 -0.011504446
000230 4b f9 cc 3b 0a ac dd bc e3 6b 3a bc cb 8e dc bc
       0.006255304 -0.027059574 -0.011378261 -0.026923558
000240 87 0c 06 bb be d9 17 bc 70 35 d4 3b 20 d9 a2 bd
       -0.0020454244 -0.009268222 0.006476097 -0.079515696
000250 6d 29 9e bc c1 b6 50 bc a3 6d 85 bc 7a 42 ce bc
       -0.019306863 -0.012738884 -0.01628763 -0.025178183
000260 71 24 35 bc d1 f3 06 bd e2 bd 73 3d da cb 99 3b
       -0.011056052 -0.032947365 0.05950726 0.0046934905
000270 3e 32 54 3c 7a fc 6b b9 30 4f ce bb cf 28 fc 3b
       0.012951432 -0.00022505401 -0.006296061 0.0076952945
000280 b5 57 bf 3b 83 4a f8 bd 1d 84 81 bd 20 09 18 bd
       0.005839313 -0.12123587 -0.06324027 -0.037118077
000290 b1 86 d4 bc ec 99 ce 3c 81 23 c9 3c 89 cc c5 3c
       -0.025943132 0.02521988 0.024553062 0.024145382
0002a0 eb 1c 7f bd 42 d7 18 bc 55 88 c1 3a 40 70 90 3b
       -0.062283438 -0.009328665 0.0014765362 0.0044079125
0002b0 e5 30 1b bc 54 34 9d 3b a1 cf 1b bc 0c 35 4a bd
       -0.009472107 0.0047974978 -0.009509952 -0.049366996
0002c0 e4 c5 e9 3c c9 e1 0f bb ba ad ef 3c 90 87 e2 b9
       0.028536744 -0.0021954647 0.029257644 -0.0004320708
0002d0 d9 af b0 3c 5a 9e 49 bd b2 c0 1f bd 58 6d c0 3c
       0.021568226 -0.04922328 -0.039002128 0.02348964
0002e0 34 4b ec bc 46 0e e2 3b a8 3e 92 bc 72 12 99 3b
       -0.028844453 0.006898674 -0.017852142 0.0046713883
0002f0 95 a7 c5 bc b2 55 03 3d 25 b5 ab 3c 19 12 2b bd
       -0.02412776 0.032064147 0.0209604 -0.041765306
000300 a0 61 36 3d 36 8d ae 3b 14 a6 79 bc e5 77 52 bc
       0.044526696 0.0053268922 -0.01523735 -0.012845968
000310 b0 2c 27 bc 7d c5 4d 3c af 63 38 bd 51 dc 03 bd
       -0.010203525 0.012559292 -0.04501694 -0.032192532
000320 32 a2 8a 3c d8 a9 4f bd 73 0b c7 bd f0 8e 2d bc
       0.016923044 -0.050699085 -0.09718981 -0.010593161
000330 32 f1 fa 3c b0 9a d7 3b 12 aa 09 3c 4e dd ef 3c
       0.030632589 0.0065797195 0.008402364 0.029280331
000340 bc ce b4 bc 33 cc 92 3d a3 6c 4c 3d c2 bf 6f 3c
       -0.022071235 0.07167854 0.04990829 0.014633121
000350 da 9d e8 bb 85 2e e5 3c 94 47 4e bc 9c ee cf 3c
       -0.0070988955 0.027976284 -0.012590308 0.025382333
000360 f4 c5 b9 3c 14 c4 00 be f4 66 20 bc ba b5 8b 3c
       0.0226774 -0.12574798 -0.009790171 0.017054427
000370 d4 a1 53 bc 4f e2 5d 3c 6d f8 b1 bd 74 2f 17 3d
       -0.012917001 0.013542726 -0.086899616 0.03691049
000380 98 4b 88 3c de 4e 99 3d 0a 1c ea 3c 78 31 4e bd
       0.016637608 0.07485746 0.028577823 -0.050340146
000390 bd ab 88 3d 7e 11 5e bb f4 54 4d bd f8 37 9e bd
       0.066733815 -0.0033884938 -0.050129846 -0.07725519
0003a0 51 de 2e 3b c1 da 23 3a 6f a6 e0 bc 7d 78 ae ba
       0.0026682804 0.00062505534 -0.027423112 -0.0013311055
0003b0 6f 5b b6 3c 98 a2 ae 3d d2 56 b2 bc fb 41 3d bc
       0.022260396 0.08527106 -0.021769915 -0.0115513755
0003c0 08 74 5f bd dd ce 03 3d 89 61 82 3c f0 32 24 bd
       -0.054554015 0.032179702 0.015915649 -0.04008764
0003d0 c0 c6 fa bc c1 a6 08 3d 5d 08 38 3d 02 bc 56 3c
       -0.03061235 0.033362154 0.04492985 0.013106348
0003e0 ef 3c 3c 3d 7e e1 52 bc 24 27 0f 3d 0b fd de 3c
       0.04595655 -0.012871144 0.034949437 0.02722027
0003f0 ad ac d3 3c 21 ce 9f 3c 98 c5 7c 3c 12 cc 47 b6
       0.025839174 0.01950747 0.015427969 -2.9772095e-06

advantage.bias f4 [4]
000000 a0 3e 80 3b 9a b1 65 bc e8 bd 3f 3c 44 21 fb 3b
       0.0039137155 -0.014019394 0.011702992 0.0076638777
