breakout/model/target_net_state_dict.pt (torch_old, 375293 bytes, 6 tensors)

conv1.weight f4 [32, 4, 8, 8]
00000000: 70fe 8bbc f0a5 2fbd b567 03bc 96ec 083d
00000010: 7038 66bd 46ac 8f3a 982a 4bbd 28f6 1dbc
00000020: 5b6f c63c 2b60 72bd 9821 cabc c9a6 09bd
00000030: b03d eabb 3793 eabc 1ca5 e73c ff64 eebc
00000040: 6602 fc3b a479 3dbc 4066 4bbc 660f 323b
00000050: e22f c4bc bece 87bd faf8 ffbc 82d4 303c
00000060: c2d4 bb3a d7db d0bb 41a9 0bbc 643d 113d
00000070: 3339 a53c 842d c53c 9037 233d 8a91 9aba
00000080: 1311 d4bc a71e 613d 9b7a debc a811 483d
00000090: c3be 4abb 5f60 4d3d 9e7c a7bd 94fd f0bc
000000a0: 5790 a93c ef13 0a3d e374 12bc 6e6a b63b
000000b0: 56b2 8d3d b05f b03c e89d df3b e809 d13d
000000c0: e0bd c3bc f45b aebd 93da a6bd a98f 85bd
000000d0: 22a9 0ebc 783c 57bd 1af1 7e3c e0ea 703b
000000e0: 2e2c 2abd 0393 cc3d d3ea f03b af1f 243c
000000f0: e0ea 14bb 2821 f83b ea72 60bd c230 683c
00000100: 5cdd d33b 8ac1 9fbc 9a02 a53a 924d c6bb
00000110: a008 783a 0b14 42bd 220d 853c 635f 6ab9
00000120: 90b8 8d3d 07c2 71bc 3dd6 8cbd cfa9 8fbd
00000130: dadd b73c 4e42 f33c 4ebf 61bc b889 d9bb
00000140: d754 32bd 6efa ac3d a37e 3dbc f79e b83d
00000150: f507 a4bb 1aad b9bc 9d0e 053b 0fe9 2cbc
00000160: 0923 863d 4630 92bb 7fd5 213c feb3 053d
00000170: 8d56 9b3d 28ae 98bc 2bb0 fabb 80c9 a6bc
00000180: eae8 efbc e345 ee3c 7c85 b33c 83ea fabb
00000190: 1685 4abb 866f 4ebd 3ec8 95bb 7228 5e3c
000001a0: fc85 96bd 5f7b 6ebb 1f57 cabb 3ee6 483d
000001b0: aa50 9fbd 5b21 6b3c d55e 033d b6f5 4cbd
000001c0: dca8 0abd ee07 c3ba eabc 2e3c 681c 12bd
000001d0: 5888 83bd a6b8 d3bc 8e81 e3bc f02e 2e3d
000001e0: f422 2cbb 3e5d 3c3d 03e7 8d3d d0ad 14bc
000001f0: c5bb 8e3d 627b 2cbc 3a78 6fbd 6a92 5abd
00000200: 11e4 913c 366e 523c 8d75 22bd a666 40bd
00000210: 577a 4d3d 6f28 fc3c 605f 8d3c fab2 1c3c
00000220: 10c8 4fbd 50d6 a73c 8a32 a13c f908 8ebd
00000230: 6e6f 113d d094 6d3d 3a78 3dbc f425 04bd
00000240: 0070 0f3b 48c6 26bd 84b1 cfbc 97b6 383d
00000250: 08fa a33c d8f0 07bd 2ac0 45bd 0e94 633d
00000260: ad64 9a3c 7036 e73b 0375 7dbb dbe8 61bd
00000270: 48fd 363d e06f 31bd 4039 96bc efef 27bd
00000280: 37ef f7bb c8f8 bfbd ce64 483d 02d7 98bc
00000290: ae2d 63bd a6a1 fbbc 0859 bd3b c44b 263d
000002a0: 9cc2 883d d131 8f3c dd86 963c 1686 98bd
000002b0: b336 7f3d 7295 85bc ff43 383d 94dd 553b
000002c0: d2db 0dbd 6464 89bd 1436 d33c 604a 02bc
000002d0: 675f d23d d8bb 52bd 6a89 603d 17ae 7a3d
000002e0: d0a6 953b f2e8 853b 7ace 643c e47e 263b
000002f0: 70ee e4bb cb2e 8a3c dedc 9ebc 9b7d 5f3d
00000300: 8ec9 013c 9729 5fbd 3a46 063e 742e febc
00000310: 36ae 20bd d3d0 7dbd c843 0ebd 9bdb 6d3d
00000320: bd45 29bd 40eb afbc 064d 59bd a7ff e73c
00000330: 07c1 36bb 402f 973a b63b f93c daa6 eebc
00000340: 08a2 5c3d d2f5 8f3d 2f0c b03c a460 9c3d
00000350: 6cfc 453d 34ad 133d cadf 533d b3a8 d3bc
00000360: bc70 ce3c 155e a9bb f319 f33c 6305 f2bc
00000370: 8c1b a03c 4063 6bbc 30a1 83bd 0dd8 22ba
00000380: 904d 493b d49f 8c3c 54bf 333d 421f 0f3b
00000390: 0fdc 653d bb67 513b 4afd b8bb 1b81 423d
000003a0: e0ea 313d 9fca 3e3d 96ec d53c d43e 90bc
000003b0: aabe b7bc 4338 ffbc fe43 e5ba 0c2f b53c
000003c0: d7d8 d9bc f388 ae3d e780 98bc 0d94 a4bd
000003d0: b423 f3bc 9a52 6b3d 44ff 0c3d a6a6 133d
000003e0: a7be 8d3c c064 f9bc d243 efbc 109a 003d
000003f0: 46c4 0c3d 8b59 71bd 8f62 f3bc 2079 9f3b
-0.017089099 -0.04288286 -0.008020331 0.03342875 -0.056206167 0.0010961376 -0.049601167 -0.009641208
0.02422302 -0.059173744 -0.024674222 -0.033606324 -0.007148467 -0.02863465 0.028276972 -0.029100893
0.0076907156 -0.011564646 -0.012414515 0.0027169823 -0.023948614 -0.0663123 -0.031246651 0.010792853
0.0014330375 -0.006373863 -0.00852424 0.035458937 0.020168876 0.024069555 0.03984791 -0.0011792642
-0.025887048 0.054960873 -0.027158072 0.048844963 -0.0030936457 0.050140735 -0.08178066 -0.02941779
0.02069871 0.033710416 -0.008939001 0.0055668866 0.069187805 0.021530002 0.006824244 0.102069676
-0.02389425 -0.085136324 -0.081471585 -0.065215416 -0.008707317 -0.052547902 0.015560413 0.003676109
-0.04154604 0.09988978 0.007352212 0.01001732 -0.0022723004 0.007572312 -0.05479709 0.014171781
0.006465597 -0.019501466 0.0012589276 -0.0060517276 0.00094617344 -0.047382396 0.016241614 -0.00022351513
0.06919968 -0.014755732 -0.068768 -0.0701481 0.022444654 0.029694702 -0.013778521 -0.006638732
-0.04353794 0.08446203 -0.011565837 0.09014695 -0.0050058314 -0.02266555 0.00203029 -0.010553612
0.06549651 -0.004461321 0.009877562 0.032642357 0.075848676 -0.018637732 -0.0076503954 -0.020359755
-0.029285867 0.029086059 0.021914236 -0.0076573505 -0.003090208 -0.050399326 -0.00457099 0.013559448
-0.07349774 -0.0036389453 -0.0061749364 0.0490477 -0.07779057 0.014351214 0.03207286 -0.050039016
-0.033852443 -0.0014879683 0.010665158 -0.03567162 -0.0642249 -0.025844883 -0.027771737 0.04252523
-0.002626595 0.04598736 0.069288276 -0.009074643 0.06969408 -0.010527464 -0.058464266 -0.053362288
0.017808946 0.012843659 -0.039662886 -0.046972893 0.0501655 0.030780999 0.017257392 0.009564156
-0.050727904 0.020487934 0.01967742 -0.06935305 0.03550666 0.058003247 -0.011564309 -0.032262757
0.0021886826 -0.04071644 -0.0253532 0.045096006 0.020016685 -0.03318867 -0.048278965 0.055561118
0.018846834 0.00705605 -0.003867448 -0.05515371 0.04467514 -0.043319583 -0.018337846 -0.041000303
-0.0075663584 -0.09373623 0.04892426 -0.018657211 -0.055463485 -0.030716728 0.0057784356 0.0405996
0.06677744 0.017479809 0.018374855 -0.0744745 0.062308025 -0.016306613 0.04498672 0.0032633292
-0.034633465 -0.06708601 0.025782622 -0.007952303 0.10272103 -0.051448673 0.05481855 0.06120118
0.0045670047 0.004086607 0.0139652435 0.0025405223 -0.006986432 0.016868016 -0.019392427 0.054563146
0.00792159 -0.054483023 0.13112727 -0.03102801 -0.03922864 -0.06196673 -0.03473261 0.05807076
-0.041326273 -0.02147448 -0.05305197 0.028320147 -0.002788605 0.0011534467 0.03042398 -0.029132295
0.053865463 0.070293084 0.021490185 0.0763562 0.04833643 0.03605385 0.051727094 -0.025837278
0.02520024 -0.005168686 0.02967546 -0.029543584 0.019544385 -0.014366925 -0.064272285 -0.00062120036
0.0030716397 0.017166056 0.043883637 0.00218387 0.056118067 0.0031952697 -0.005645429 0.047486406
0.043436885 0.046579953 0.02611379 -0.017608084 -0.022429783 -0.031154757 -0.0017491577 0.02211716
-0.026592655 0.08522215 -0.018616153 -0.08036051 -0.02968011 0.057451822 0.034423128 0.0360476
0.017302824 -0.03044355 -0.029207144 0.031396925 0.03436687 -0.058923285 -0.029710082 0.004866734

conv2.weight f4 [64, 32, 4, 4]
00000000: 9c38 d7bc 85b5 0bbb aad7 0ebd c624 8abd
00000010: 6545 81bc bea7 12bd 05d0 27bc b959 493d
00000020: b1d8 0e3c 7046 b33d 3259 cdbb 715d 793c
00000030: afe7 053c ec89 00bd b6c3 07bd 6ad3 32bd
00000040: f55b 443d f4ed 90bd 83d0 f2bc bd1a 5e3d
00000050: 1987 a4bd f9d5 4ebc 15dd cabc 71a3 1e3e
00000060: 472e 2b3d c06c 3dbc 5634 003d fe07 433d
00000070: 516b 033a e8d8 10bd f8a1 853d 28b1 e63c
00000080: 60c2 413d eb46 67bd 785a c73d ac40 afbc
00000090: 8fc5 ee3c ce88 eebc c31b 2c3d 7d96 803d
000000a0: e35f 9fbb 6b3d 833d 5c1d bf3c 27d1 0cba
000000b0: ab9e 193d fe29 403d dfa2 523c 1498 853d
000000c0: c887 2cbd cd0b 98bd 21c9 bdbc ae8c 043d
000000d0: bf5c 6e3c 2ded 35bc 4221 463d de94 00bc
000000e0: 821c 9c3c 5372 ed3c b37f 5b3d 32ee 563d
000000f0: 8ad8 e6bc e7af 203d 5ce1 ccbd 547d 5cbc
00000100: 0749 1bbd 4e9e 12bd 0357 dcbc 5aa3 583d
00000110: cc01 17bd f18a acbc c954 d8bd 76e6 8abd
00000120: d474 e43c 74c4 00be 248b 2ebd 3fd7 e53b
00000130: b471 dd3c 9232 f7bc 08d1 cfbc 36e8 74bc
00000140: e20a 0c3c 354f 693c bd0f 03bc b00e 653d
00000150: c2e6 96bd adab 66bd bfac c3bd be9c 6bbd
00000160: d97b a5bc 9bc6 babd d838 2e3c 1360 7dbc
00000170: 6d3d aebd 75cb 923d 9ef5 743c 4433 dcbd
00000180: 1a30 1dbd d2f7 e83c e44e f13c 948c 023d
00000190: 1cb6 0c3b eac7 143d 2ff8 10bc 98be 97bd
000001a0: 9338 363d 6ce7 6fbd 8ec9 cd3d 88b9 7cbd
000001b0: 6a1c 6fbc edbe b83c ad99 68bd 3e41 063d
000001c0: 2d09 16bc f10d b83c e5b5 f6bb 4954 38bd
000001d0: c2f5 143c 0002 473d 321f 083d f4cf 6fbd
000001e0: 4774 393d 75ed 05bd bfd6 d83d 2e85 c1bb
000001f0: 1ebd 853c d784 3e3c b7da c3bc 5261 fe3c
00000200: 6d14 2a3d 7970 4ebd 5a3a a2bd 9d93 aebb
00000210: 5728 e43c 92b4 103d 1f5d 373d c62f abbc
00000220: fb71 da3c 600c 3fbd 342b 3cbb 18d1 a03d
00000230: d4f6 9f3d 8a4b 89bc 1077 50bd 1de5 ec3c
00000240: 6eee 19bd f839 113d a1be 1b3e cb13 563c
00000250: 59f6 d33c 2b3c 253d d649 903b 4def c03c
00000260: e3a0 343c f35f 67bc 4b63 3abb 5504 a9bd
00000270: b1e0 a13c 61ab 513d e4a8 9bbc 5491 d5bd
00000280: 8576 97bb cc52 c6bc 13c1 cf3c 19e6 6cbc
00000290: 1a6b 0abc da2c 113d 164e 86bc b6aa 45bd
000002a0: a921 98bd 4e43 a83d 4bd6 f4bc ad18 eebd
000002b0: ca8f 9ebd 6ab3 9a3c 1900 1abd 6051 8ebd
000002c0: 7db4 153c 41de e8bc 605a 5d3d af6e 1fbd
000002d0: e910 39bd 1ff8 cbba 568f 28bb fcf5 1abd
000002e0: c1a7 a73c a54d 6dbd d426 bbbc d335 9dbd
000002f0: 91da 403d 1a99 583d 6a44 9d3d cbc6 b93c
00000300: e654 dfbd a466 133d e5a7 c3b9 99b2 3fbd
00000310: 7259 90bd 953a 14bd 6495 b13d 5de3 e4bb
00000320: 18af 1ebb f8b5 03bc dbe4 95bc 6544 4fbd
00000330: 51f4 0b3e 04c7 98bd d848 863d 2b6c fd3b
00000340: a4a3 9b3d d55f dd3c 1c21 f5bd 7a89 7b3c
00000350: 553b 2c3c e2ee 91bd 077a 54bd 5d0c 18bd
00000360: 3a60 c7ba 2459 cd3d c0d1 c73c f7b3 843d
00000370: 861a dd3c 0cd5 04bc 31fc 003b d4e2 ae3c
00000380: 625a e8bb ffb4 833c f3bc 90bd 947d 20bd
00000390: 955f cb3c da2d 01bc cd7e 33bc 6b40 f7bc
000003a0: 4f33 11bc d8f3 573d da90 03bd 2b59 26bd
000003b0: 5404 33bd 5782 3fbd 6bc8 c9bc 5090 7fbc
000003c0: ba26 973d 5c61 343d 4134 b9bd efc2 923d
000003d0: 9cbe aebd d86f c23c f2d5 9d3c 7f7f 1f3d
000003e0: 285f b7bc d987 3ebd c67d 323c bba6 903d
000003f0: bf51 bf3c ab3b 97bd c728 8b3d d5e0 dcbd
-0.02627211 -0.002131791 -0.034873642 -0.06745295 -0.01578016 -0.035804503 -0.010242467 0.04915783
0.008718655 0.08753669 -0.0062667364 0.015220032 0.008172913 -0.031381533 -0.03314563 -0.04365865
0.04793926 -0.07076636 -0.029640442 0.05422472 -0.0803358 -0.012624257 -0.024763623 0.15492035
0.04179218 -0.011561573 0.03129991 0.047615044 0.0005013245 -0.035363108 0.06525034 0.028160647
0.04730451 -0.056464117 0.097340524 -0.021393143 0.029146938 -0.029117968 0.042018663 0.06278703
-0.0048637255 0.06408199 0.02332943 -0.00053717423 0.037504833 0.046915047 0.012856214 0.06523147
-0.04212168 -0.07424126 -0.023167195 0.032360725 0.01454848 -0.01110391 0.04837156 -0.007847993
0.019056562 0.028985178 0.05358858 0.052473255 -0.028179426 0.039230254 -0.100039214 -0.013457615
-0.03791144 -0.035795502 -0.02689696 0.05289016 -0.036866948 -0.021062346 -0.105630465 -0.06782238
0.02788774 -0.12574941 -0.042613164 0.0070141847 0.027031757 -0.030175481 -0.025368229 -0.0149479415
0.008547517 0.014240076 -0.007999358 0.05592221 -0.07368232 -0.056316067 -0.09554433 -0.057522528
-0.020200657 -0.09119912 0.01063367 -0.0154648 -0.0850781 0.071677126 0.014951138 -0.10751966
-0.03837595 0.028438482 0.029456563 0.031872347 0.002147085 0.036323465 -0.008848234 -0.074094
0.044487547 -0.05857031 0.10048209 -0.061700374 -0.014594177 0.022551978 -0.05678718 0.032777064
-0.009157461 0.022467585 -0.0075290077 -0.045002256 0.009091796 0.04858589 0.033232875 -0.05854793
0.045276906 -0.03269716 0.105878346 -0.005905769 0.01632553 0.011628351 -0.023908002 0.031052265
0.041523386 -0.05040023 -0.07921286 -0.0053276555 0.027851267 0.035328455 0.04476654 -0.020896804
0.026665678 -0.04664266 -0.0028712275 0.078523815 0.078107506 -0.016759653 -0.050894797 0.028917843
-0.0375809 0.035455674 0.15209438 0.013066242 0.025874304 0.040340584 0.004403333 0.023551608
0.0110246865 -0.014121997 -0.002844053 -0.082527794 0.019760462 0.05118883 -0.019001432 -0.1042811
-0.004622283 -0.024209403 0.02536062 -0.014459156 -0.008448387 0.035443164 -0.016394656 -0.048258506
-0.07428295 0.08215962 -0.02988734 -0.116258 -0.07742269 0.01888438 -0.03759775 -0.06949115
0.00913727 -0.028426291 0.054041266 -0.038923915 -0.045182142 -0.0015561617 -0.00257202 -0.037832245
0.020465733 -0.057935376 -0.022845663 -0.07676282 0.04708344 0.052880384 0.076790646 0.0226778
-0.10904865 0.035986558 -0.0003731839 -0.046801183 -0.0704831 -0.03618868 0.08671072 -0.0069851116
-0.002421325 -0.00803899 -0.018297603 -0.050602335 0.13667418 -0.07459834 0.065568626 0.007733842
0.07599571 0.027023235 -0.11969206 0.015352601 0.010512193 -0.071256414 -0.051874187 -0.037121166
-0.0015211173 0.10026768 0.024392009 0.06479638 0.026990186 -0.008107435 0.0019681568 0.021348394
-0.0070908526 0.016077517 -0.07067289 -0.03918226 0.02482585 -0.007884467 -0.010955525 -0.030182084
-0.008862331 0.052722782 -0.032120563 -0.04061238 -0.0437053 -0.04675516 -0.0246317 -0.015598372
0.073804334 0.04403816 -0.0904317 0.07166087 -0.085324496 0.023734972 0.019267056 0.03893995
-0.022384241 -0.046516273 0.010894245 0.07063051 0.02335441 -0.07384428 0.06794887 -0.10785071

conv3.weight f4 [64, 64, 3, 3]
00000000: 1888 c0bc 55fd 923c 7866 8abd c2d3 143d
00000010: 0332 d63b 5cd9 85bc 0878 a83d ebd8 0c3e
00000020: fca7 b63d 8b52 a03c a727 5cbc 7aa5 df3c
00000030: 8f1a fdbc ce09 f13c 64e6 d8bc 534f 023d
00000040: 038d 713d 3a69 503d 3bae 83bc bba0 01bd
00000050: 6b61 08bd 282a 993d 79a5 2a3c 3762 3dbd
00000060: f222 12be 123f b0bc e9a5 f93d 68f9 abbd
00000070: aaef 80bc 4f3f 5dbd c6b5 96bb 5b5d c23d
00000080: d005 8e3c b78a d4bc 3f48 85bd f838 c9bc
00000090: 7df9 8b3d 055d 643d 91e5 64bd 5044 ab3c
000000a0: 2fdc 0abb ea32 823d 894c f93c 0534 e33d
000000b0: 96c4 d8bc bf18 0bbd dca6 6cbd 22b6 0cbd
000000c0: e12b 18bd 11ed c33d f7ea 06bd 7957 b8bd
000000d0: a2ad 0b3d 4310 99bd 12f9 9e3d 18f7 433d
000000e0: e16c dfbc 3d78 a83d 233d 64bd 1e88 22bd
000000f0: a9f4 89bb 7fba 0d3c 4273 b03b 2a70 843d
00000100: d606 e9bc c21a aa3c d497 dfbd 98b7 ff3d
00000110: 8b35 a63d 4c2c e2bd c20d cebd d69a 083d
00000120: 0ef8 9fbd 714e 82bd a485 b33c e627 5f3d
00000130: 20c8 8bbd 0ecb 5abc 2404 4f3c d1a1 13bd
00000140: 7d08 e9bc 3896 da3d 3925 6bbd 17a5 21bc
00000150: d30d 7d3d 94bd 13bd 4fae 7e3d b14e 553c
00000160: 9cfc 6fbd 38b2 d63d b49f 9f3d b957 1b3d
00000170: 2fd0 48bd 11ae 5abb e298 81bd d15f a03c
00000180: 79cb 523c aed1 6b3d 3fbf c5bd 8586 f4bc
00000190: 8ab3 553b f6ed 7c3d 1666 e03d ff54 e9bc
000001a0: 2fce e13c 1c16 aa3c 0aba b13b e66e 6e3d
000001b0: 366d 4dba 4c28 48bd 9eba adbd 655b 303c
000001c0: 2c18 cebc aaad e6bc 3bcf 92bd e783 f6bd
000001d0: 9455 c03b 9626 a83c 7596 8abc 6026 e7bd
000001e0: 9908 febd f31e a63d 584e 073e 7de4 143e
000001f0: 81ed abbd 84eb cfbc 120d 00bc 3d56 5c3d
00000200: 8832 8fbd 8647 16bd ef10 7e3b c7be 28bc
00000210: 5e5c d7bd 0884 01bc c904 25bd a6bd e93c
00000220: 8da2 e1bc 775b a6bd 62e1 12bc ff05 203d
00000230: 5130 ebbc 3963 cfbc 52a3 ae3c f340 953d
00000240: 91fd ed3c c766 c8bc 9f10 14bd f2cb 89bb
00000250: 90eb 8fbd 8650 60bd 3e06 983d c043 a43d
00000260: 5f60 953c 5678 cc3d 4ff7 9c3c 57a8 003e
00000270: 81fc 493b 611b ffbc 9fa8 21bd 243a 433c
00000280: 7832 e13c 2cdd 06bd f75a 3dbd fecc 75bb
00000290: 1130 f2bc b32d 3dbc d2fb 133c 7e5e af3c
000002a0: 43cc 0a3d 262a 1dbd c877 d4bc 27bb 84bd
000002b0: 09da 5fbc 5f9f aebc a3c8 00bd dde1 a63c
000002c0: b968 55bd 7abb 203d e224 3a3d 7441 53ba
000002d0: 8e66 14bd 229a d03c 0fc0 b8bc 0110 f9bc
000002e0: 2281 e63d 9959 89bc 00ba 3a3c 454e 833c
000002f0: 1f93 583c e78b d0bd c2a1 293d 2c92 dabd
00000300: d017 aa3d 84de 10bb 9e80 b9bd 5185 c33c
00000310: 7731 20ba 0b1e ae3d bb6e 54bd e55a 583b
00000320: 789c d8bd 97fe 87bd 4e6e cb3d 93c8 1ebd
00000330: d0b1 88bd bcfb 623d 85d2 803d 9013 3e3d
00000340: 86a0 08bc 0cc9 bf3b 4833 e7bb 8365 e53d
00000350: a946 a5bd 3a24 62bc 57a0 f83c 3d53 b33b
00000360: d4f9 88bd 288b 32ba 0df7 313d 9c71 233c
00000370: 2aa8 073e 4b4e 29bc 1468 d3bb 86dc 413d
00000380: 7ef8 8dbd b96d 61bd b896 cd3c 6785 e13b
00000390: 4a31 043e 857a ebbb f17f 97bc c94f 87bd
000003a0: 646c 90bc 54f2 443c 8171 79bc e8da dd3c
000003b0: 845c 7fbd de54 7dbc 6713 ee3d d794 8e3d
000003c0: 9b6e ae3d 1b4b 87bc 87a4 2a3b b038 b3bd
000003d0: f196 bab8 8b08 973d 16e6 473d d506 2abd
000003e0: 7897 13bd 7689 efba e3b0 303c 49a5 7a3c
000003f0: 7972 a3bd 14ab 09be af45 8fbd cfd8 703c
-0.023502395 0.017943064 -0.067578256 0.03633476 0.0065367236 -0.016338997 0.08226019 0.13754623
0.08918759 0.01957061 -0.013437188 0.027300585 -0.030896453 0.02942362 -0.026477046 0.03181393
0.05897237 0.050881602 -0.01607429 -0.031647425 -0.03329603 0.07478744 0.010415428 -0.046236243
-0.14271143 -0.02151445 0.12189848 -0.0839718 -0.01573928 -0.054015454 -0.004599306 0.094904624
0.017336756 -0.02594505 -0.065079205 -0.024563298 0.068346955 0.055752773 -0.055882994 0.020906597
-0.0021188369 0.06357367 0.030432003 0.11093906 -0.026460927 -0.033959147 -0.057776317 -0.034353383
-0.03715122 0.09566701 -0.032938924 -0.09001059 0.034101136 -0.07473805 0.0776235 0.04784307
-0.027273597 0.08226059 -0.055722367 -0.039680593 -0.004210074 0.008650421 0.0053848336 0.06466706
-0.028445642 0.020764712 -0.10917631 0.124861896 0.08115681 -0.11043605 -0.10061218 0.033350788
-0.078109846 -0.06362618 0.02191431 0.05448141 -0.0682528 -0.013354076 0.012635265 -0.036042992
-0.02844643 0.10673183 -0.057408545 -0.009866021 0.061780762 -0.036069468 0.062177952 0.01301925
-0.058590516 0.10483211 0.07794133 0.037925456 -0.049026664 -0.0033367912 -0.06327988 0.019576939
0.0128658945 0.057573013 -0.09655618 -0.0298493 0.0032608234 0.061750375 0.10956971 -0.028482912
0.027564136 0.020762496 0.005423789 0.05821123 -0.0007836403 -0.048866555 -0.0848286 0.010763978
-0.02515801 -0.028158981 -0.07168432 -0.12036877 0.0058695767 0.020526212 -0.016917447 -0.11286616
-0.124039836 0.08111372 0.1321348 0.14540286 -0.0839491 -0.025380857 -0.007815616 0.05379318
-0.0699206 -0.036689304 0.0038767417 -0.010299391 -0.105156645 -0.007905014 -0.040287767 0.028532814
-0.02754333 -0.08122914 -0.008964868 0.03906822 -0.028709562 -0.025315868 0.021318112 0.07287779
0.029051574 -0.02446307 -0.036148664 -0.0042052204 -0.07027352 -0.054764293 0.074230656 0.08020735
0.01823443 0.0998389 0.019160895 0.12564217 0.003082067 -0.031140985 -0.03946745 0.011915717
0.027489886 -0.03292577 -0.04622933 -0.0037506218 -0.029563935 -0.01154654 0.009032207 0.021407362
0.033886205 -0.038370274 -0.025936022 -0.06481009 -0.0136628235 -0.021316228 -0.031441342 0.020371372
-0.052101824 0.03924129 0.04544533 -0.00080587645 -0.036230616 0.025464121 -0.022552518 -0.03040314
0.11255099 -0.016766356 0.011396885 0.016028533 0.01321867 -0.10182934 0.04141403 -0.10672411
0.08305323 -0.0022105286 -0.09057735 0.023867281 -0.00061108865 0.08501824 -0.051863413 0.0033013162
-0.10576719 -0.06640356 0.09933148 -0.0387655 -0.0667454 0.055415854 0.062901534 0.046405375
-0.008339053 0.005852824 -0.0070556737 0.112010024 -0.08070118 -0.013802582 0.030349893 0.0054725693
-0.06688276 -0.0006810897 0.043448497 0.009975817 0.13247743 -0.010333608 -0.006451616 0.04732945
-0.06932162 -0.05503628 0.025096282 0.006882358 0.12909427 -0.0071862363 -0.018493624 -0.06607015
-0.01762981 0.012020666 -0.015224815 0.027081922 -0.06234409 -0.015462128 0.116247945 0.06961983
0.0851719 -0.016515305 0.0026038007 -0.08751047 -8.897286e-05 0.07374676 0.04880341 -0.04151042
-0.036033124 -0.001827522 0.010784361 0.015298196 -0.07980818 -0.13444167 -0.06995713 0.014700129

value.weight f4 [1, 3136]
00000000: 48b3 013b 2e42 653c 26a8 afbb b0d9 e03a
00000010: 1ae2 41bc 000e b7b8 4c35 3dbc 10d8 faba
00000020: 48a6 14bb 1bfb 89bc 7eb4 46bc 0321 16bc
00000030: dc36 8fbb 4072 083c 53b2 77bc c055 8439
00000040: e027 583b e0f2 e8ba 607b 5a3c 83d6 35bc
00000050: e0ce 7e3a 7ab1 5e3c 7556 42bc ac49 3bbc
00000060: b6a6 413c 3857 123b 0096 7b38 30c5 87ba
00000070: dc18 58bb 338f 58bc ce1e 37bc 6b3a 8d3c
00000080: ce8c e6bb 3c58 30bc bec2 743c c6d1 773c
00000090: 637c 32bc f02d 583b f8bb 423c f4b4 c23b
000000a0: 08ba 11bb f3e5 8cbc 8074 5a39 640e 6bbb
000000b0: e3b8 47bc 0a06 ecbb dcc7 1abc da2e 043c
000000c0: fe7b 203c d3c6 8fbc 84ea bf3b 00a1 a238
000000d0: f61d 8abc 0037 cd3a 62b1 453c 2857 36bc
000000e0: 521d 82bb 735c 873c 1b70 91bc 964e 6c3c
000000f0: 9043 25bc 60a9 1a3c 6e7e 48bc c0a2 b3bb
00000100: baeb 033c a090 3cbc 0e6c f8bb 78bf 163c
00000110: 3057 24bb 82e1 0d3c 7829 54bc c004 9439
00000120: 838f 17bc 4c68 3b3c e039 633b b011 253b
00000130: ecf5 273c 48b1 803b 50c8 5a3b 8021 4bb9
00000140: ddd2 88bc 64f6 2dbb a020 91ba 6463 64bb
00000150: bcc6 b53b 382d 6cbc 2e92 1d3c 638b 2ebc
00000160: a028 06bc 40bc bbb9 78ce f23b d450 cc3b
00000170: 0723 20bc 28f7 773b a3e5 8d3c bc78 943b
00000180: b4de b03b 0aca a7bb a2c0 023c 4089 15bc
00000190: 24e7 0b3c bcd4 1d3c b00e 8c3a ceb6 acbb
000001a0: 5acd 193c 2e93 773c 55cc 01bc 2edc ddbb
000001b0: 90cb a03a cee3 52bc c007 a4bb 0066 6c38
000001c0: ff2b 8b3c 23f4 35bc 00db e838 f22c d5bb
000001d0: fa44 22bc 0ec6 ebbb 8a93 4e3c ae48 133c
000001e0: 4867 8c3b 34a7 f13b 98bd efbb 2024 90ba
000001f0: f28b 5c3c ee28 76bc d868 6bbc 3c1f 033c
00000200: f69f 503c 8002 a6bb e6f8 f4bb 2066 45bc
00000210: a453 66bb 6244 0c3c c253 89bc 5690 473c
00000220: b8f9 71bb 0093 ed3b e0cd 1e3c 1d97 81bc
00000230: 804d daba 088e b43b b045 f9ba 7054 713b
00000240: c07b 093c 9585 80bc cacd e2bb 3067 ecba
00000250: 05cf 76bc 9cfa 373c d7a3 8b3c e850 3e3b
00000260: 8f81 863c 920a 85bc 6c72 393c 9654 7f3c
00000270: 9003 463b f808 dbbb 0097 593b ecc8 09bc
00000280: c82d 823b 0a74 93bb 15b5 01bc 8db8 803c
00000290: 9401 f63b 6acc fbbb f831 90bb e027 4e3a
000002a0: d00a 2a3c b7a7 88bc 7c5a debb 34ca d53b
000002b0: 8066 92ba 2ca6 58bc 4acd 423c 3069 fa3a
000002c0: ca58 68bc f5f0 1abc eed6 7bbc 0697 553c
000002d0: a04e c73b e8c4 923b c072 fdb9 8e6b aebb
000002e0: ce0a 0d3c 00f4 63ba f2c8 613c f04a 743b
000002f0: 1e3d 713c f654 123c 28bd 123b 5026 fd3b
00000300: 07d6 843c ea8b 75bc fd21 8cbc ee80 2a3c
00000310: 4685 413c 55c8 03bc 102d 133b ceba 533c
00000320: d01a c33b 5257 613c ae61 433c 6afd e5bb
00000330: 08c8 56bc 5c8c 1cbc 88aa f13b a50f 69bc
00000340: 0579 1dbc ac02 7abc 1c3c 2fbb 7c43 d53b
00000350: 3885 283c 16b8 7f3c c3b4 79bc 0000 2035
00000360: 30d0 fb3a 3055 1f3c d927 883c 8e09 693c
00000370: e430 92bb 80e3 de3a 73d6 55bc ded6 18bc
00000380: 2eef 57bc 1854 f33b 0588 59bc 142c b73b
00000390: d754 02bc c683 5d3c 201f 6b3b d024 403c
000003a0: 646a 2dbb 1cd5 273c 5eaa 3f3c 6e0d 6bbc
000003b0: 80a2 8cbc c030 2b3c a3a2 74bc 1234 e3bb
000003c0: a0c3 04ba c3a5 18bc a8a4 d93b b5f3 59bc
000003d0: b425 983b 403a d339 6eae 05bc a692 1f3c
000003e0: 6008 633b 1861 3a3b 1a48 663c dc17 19bb
000003f0: 2440 883b c065 d33b 0035 e73b d461 1cbb
0.0019790698 0.013992829 -0.005360621 0.001715472 -0.011833692 -8.728728e-05 -0.0115483515 -0.0019137878
-0.002268212 -0.01684337 -0.012127994 -0.009163144 -0.0043705534 0.008328021 -0.015118199 0.0002524089
0.0032982752 -0.0017772578 0.013335079 -0.011098507 0.0009720158 0.013592118 -0.011861433 -0.011431139
0.011819532 0.0022329818 5.998276e-05 -0.0010358449 -0.0032973802 -0.013217735 -0.011176778 0.01723977
-0.007035828 -0.010763224 0.014939008 0.0151256975 -0.010893914 0.0032986365 0.011885636 0.0059419814
-0.0022236127 -0.017199492 0.000208335 -0.0035866732 -0.0121900765 -0.0072028683 -0.009447064 0.008067811
0.009795187 -0.017550861 0.005856814 7.7547505e-05 -0.01685999 0.001565665 0.012066217 -0.011129178
-0.0039707804 0.016523575 -0.017753651 0.014423033 -0.010086909 0.009439796 -0.012237174 -0.005482048
0.008051807 -0.011509091 -0.0075812405 0.009200923 -0.0025076382 0.008659722 -0.01294934 0.000282323
-0.009250524 0.0114384405 0.0034671947 0.0025187545 0.010251503 0.0039273836 0.0033383556 -0.00019372068
-0.01670211 -0.0026544565 -0.0011072345 -0.003484928 0.0055473726 -0.014415078 0.0096173715 -0.01065335
-0.008188397 -0.00035807677 0.007409867 0.0062352214 -0.009773976 0.0037836526 0.017321413 0.004530994
0.005397642 -0.0051205205 0.007980498 -0.009126961 0.008538995 0.009633239 0.001068553 -0.0052708155
0.0093873385 0.015110774 -0.007922252 -0.006770632 0.0012267698 -0.012871696 -0.0050058067 5.636178e-05
0.016988752 -0.01110557 0.00011103414 -0.006505602 -0.009904141 -0.007195241 0.012608418 0.008989496
0.004284773 0.0073746685 -0.0073163025 -0.0010997094 0.0134611 -0.015024407 -0.014368258 0.008003052
0.01273345 -0.005066216 -0.00747596 -0.012048274 -0.0035145069 0.008561226 -0.016763572 0.012180408
-0.0036922526 0.00725019 0.009692639 -0.015819127 -0.0016655177 0.0055100955 -0.0019017961 0.003682401
0.008391321 -0.015688697 -0.0069215046 -0.0018036123 -0.015064006 0.0112291835 0.017045898 0.0029039923
0.0164192 -0.016240392 0.011318784 0.015584132 0.0030214526 -0.006684419 0.0033201575 -0.00840972
0.0039727427 -0.004499917 -0.0079167085 0.015713 0.0075075123 -0.00768428 -0.004400488 0.0007864218
0.010378554 -0.016681535 -0.006785689 0.0065243486 -0.0011169463 -0.013223212 0.011889765 0.0019104835
-0.014181325 -0.009456863 -0.015371067 0.013036495 0.006082371 0.0044790395 -0.00048341416 -0.00532288
0.008608533 -0.00086957216 0.013780819 0.0037276112 0.014724044 0.008931389 0.0022390578 0.0077255145
0.016215337 -0.014986971 -0.01710605 0.010406716 0.01181156 -0.008043368 0.002245728 0.012922956
0.005954124 0.013753729 0.011925144 -0.0070187347 -0.013109215 -0.009554949 0.0073750652 -0.014224921
-0.009611373 -0.015259426 -0.002673871 0.006508289 0.010285668 0.015607854 -0.015240851 5.9604645e-07
0.0019211825 0.0097249 0.016620563 0.014223469 -0.0044613946 0.0017005056 -0.013051617 -0.009328572
-0.0131795835 0.0074257962 -0.0132770585 0.0055899713 -0.007954798 0.013520187 0.0035876706 0.011727527
-0.0026461119 0.01024368 0.011698334 -0.014346464 -0.01716733 0.010448635 -0.014931354 -0.0069336975
-0.0005064551 -0.009316864 0.006641943 -0.013302733 0.0046431664 0.00040288456 -0.008159263 0.009739554
0.0034642443 0.002843922 0.014055276 -0.0023360169 0.004158037 0.0064513385 0.0070558786 -0.002386202

advantage.weight f4 [4, 3136]
00000000: 78e0 853b 80aa 4ebc c049 42bb 1ab5 603c
00000010: bc5b 3e3c 78bd c63b e922 823c c08d 7fbb
00000020: 9cc5 283c 8c13 19bc c66d 9bbb 32ca 94bb
00000030: 0fea 8ebc 1cdb 4cbc 6078 dc3a 033e 53bc
00000040: b32d 60bc b279 003c a372 1cbc 68e4 1a3c
00000050: 98d8 35bc 8051 5fb9 00bb 1abc 8c88 32bc
00000060: bc3c e53b e816 0e3b 7854 7bbb ae22 d8bb
00000070: 14e8 053c 703d 473b fa6b 743c 109f 2b3b
00000080: 4308 91bc c51e 913c a660 253c 70ac c73a
00000090: 88c6 61bc a8ef ca3b d0b8 a23a b060 9e3a
000000a0: bcdb 79bc dae4 033c ea52 213c f046 043b
000000b0: 18ba 3a3b 3898 923b 72f4 d2bb 409c 673b
000000c0: e659 363c b146 853c beb6 72bc 78d9 623b
000000d0: 8736 0cbc c0c2 1c3c fed5 373c 2019 7d3a
000000e0: 0c0f 66bc b226 063c 58f7 0e3b 0aa5 4e3c
000000f0: 9c1d 8f3b 5ca4 d2bb a619 f3bb 34f8 833b
00000100: 536e 31bc f526 1bbc 208b ebba a453 6dbb
00000110: 38b9 c23b 10eb c9ba c33b 2ebc bacf 0ebc
00000120: 4257 6f3c 787b 3a3b 6abb 5e3c 253e 64bc
00000130: 62bb 7a3c bc68 913b cec8 563c cacc 29bc
00000140: 4314 3fbc 20a4 babb 942e 91bc 9084 47bc
00000150: 7971 8e3c 1c08 233c c78b 11bc dcc4 11bc
00000160: 407f 53ba 203f a3ba 1c3b d6bb 963e 553c
00000170: f203 7b3c 6711 8fbc 40e2 b93b 5c3f 7dbb
00000180: e8b9 723b 70c1 6ebb 6463 5abb c275 1d3c
00000190: a884 75bc b8d0 233b 0a12 32bc 6ebb 0fbc
000001a0: a525 2ebc dee1 04bc 48b0 473b 9efd 1ebc
000001b0: 2693 b2bb 6845 1d3b 8631 ebbb 0070 dab6
000001c0: 80b1 eb3a eefd 303c c0d7 cfbb e62b 693c
000001d0: 25f4 3ebc 8580 13bc 6e29 dabb 00fa 63bc
000001e0: 57a4 843c d8d1 3d3c 62be 073c 3027 45bc
000001f0: 5118 65bc d86e 5fbc 40e4 64bb 9d02 893c
00000200: c05e 5b3c 1cf3 083c edbc 823c bf62 8a3c
00000210: d33e 49bc ccd5 0c3c 834e 863c 2258 733c
00000220: 3c3e e53b 8fd6 8e3c e065 0eba 769d 183c
00000230: 92cc 80bc 0e69 5f3c 4ab7 543c c156 6ebc
00000240: 184d 433c 6030 a53b ae62 4bbc c8be f33b
00000250: 0016 bfb8 c8f3 293b dc47 65bb 6cbe 273c
00000260: a31f 07bc e4d6 063c 35ff 2abc 88cc 42bb
00000270: 90e3 ecba 3286 cfbb b5e1 16bc 19c8 873c
00000280: dcb3 283c 4463 063c 26b5 88bc b8aa 713b
00000290: 834e 883c f046 513b 6a5a c5bb d539 863c
000002a0: 03af 35bc 7048 7a3b 0277 5f3c 6aac 4f3c
000002b0: 92e1 153c 7003 c0ba 5c65 d53b 868b 6f3c
000002c0: 34db a63b 20a5 e83b 327f 103c ee9f 35bc
000002d0: 2883 133b 40c6 ff3b b6eb 5a3c f831 163c
000002e0: de92 453c 12f9 c7bb 0067 07bb 43c0 803c
000002f0: 20a9 deba 6c8f 6abc 8b7e 893c febf 333c
00000300: 9c0f 74bb 9c48 40bb 99a2 8b3c a4ee 923b
00000310: 00dc aabb 63fd 79bc f09c 87bc 8032 193b
00000320: d03c d6ba 9a0f 083c 50d2 8b3a c019 2fbc
00000330: 8e30 0fbc eeee 0cbc 743b c33b 47a3 893c
00000340: 5024 8e3a de18 533c ec2c 0c3c b825 073c
00000350: 2a7d 6b3c 9e56 52bc 4283 773c aa6a 62bc
00000360: a006 aebb fe27 393c 0613 313c 52a6 a3bb
00000370: 9003 3ebc f83a 7fbb 3634 6a3c 0694 bdbb
00000380: 5ef5 09bc fab7 253c 0807 403c 9007 56bc
00000390: 9082 613b c42b a63b 9c68 d5bb 30fb 75bb
000003a0: b06f 07bb f822 5e3b 3dd0 8cbc c653 333c
000003b0: e03a d43a 8abe 87bb 2a70 383c b174 7cbc
000003c0: d82f dd3b a065 96ba fa2b 04bc c04e 16ba
000003d0: eaf4 85bc c022 503c b89e 17bb eec0 ddbb
000003e0: ce34 773c 50db e93a 983b 80bb ed67 863c
000003f0: e491 f53b 184b 0bbb c053 413c 6a13 233c
0.0040855967 -0.012613893 -0.002964601 0.013715053 0.011618551 0.006065067 0.015885787 -0.0038994402
0.01030102 -0.009343039 -0.0047433106 -0.004540705 -0.017445592 -0.012503412 0.0016820543 -0.012893203
-0.013682771 0.007841514 -0.009548816 0.00945387 -0.011099003 -0.00021297298 -0.009443998 -0.010896813
0.0069957655 0.0021681134 -0.0038349908 -0.006595931 0.0081730075 0.003040161 0.014918322 0.0026187338
-0.017704135 0.017714867 0.010093844 0.0015233885 -0.013780244 0.00619312 0.0012414698 0.0012083258
-0.015250143 0.008050168 0.009846428 0.0020183884 0.0028492268 0.0044737123 -0.0064378316 0.0035340935
0.011129832 0.01626906 -0.014814077 0.0034614485 -0.008557922 0.009567916 0.011220453 0.0009654928
-0.014041673 0.008187937 0.0021814909 0.012612591 0.0043675434 -0.0064282846 -0.007418829 0.004027391
-0.010829526 -0.009469737 -0.001797054 -0.0036213184 0.00594249 -0.0015405137 -0.0106343655 -0.008716518
0.014608206 0.002845494 0.013594488 -0.013930832 0.015303465 0.004437534 0.013109399 -0.010363767
-0.011662546 -0.0056958348 -0.017722405 -0.012177601 0.017388092 0.009950664 -0.008883423 -0.008897033
-0.0008067973 -0.0012454726 -0.006537808 0.01301541 0.015320765 -0.017464353 0.005672723 -0.0038642501
0.0037037078 -0.0036431216 -0.0033323402 0.009610595 -0.014985241 0.0024996232 -0.010868559 -0.008772714
-0.010629092 -0.008110492 0.0030470062 -0.009704022 -0.0054496704 0.0023997668 -0.0071775345 -6.509945e-06
0.0017981976 0.010802729 -0.006342858 0.014231658 -0.011654888 -0.009002809 -0.006657771 -0.013914585
0.016191645 0.011585675 0.008285137 -0.012033269 -0.013982848 -0.013637267 -0.0034926087 0.016724879
0.013389289 0.008358743 0.015959227 0.016892789 -0.012283045 0.008595895 0.01639486 0.0148525555
0.0069959443 0.017436294 -0.00054320507 0.009314885 -0.015722547 0.013635887 0.012983153 -0.014547051
0.011920236 0.005041167 -0.012413664 0.0074385144 -9.1116875e-05 0.0025932658 -0.0034985458 0.010238271
-0.008247289 0.008229945 -0.010436823 -0.002972396 -0.001807319 -0.006333136 -0.009209086 0.016574906
0.010296788 0.008202378 -0.01668794 0.0036875438 0.016639 0.0031933151 -0.006022741 0.016384998
-0.011089089 0.0038190149 0.0136392135 0.012675384 0.009148018 -0.0014649462 0.006512327 0.014620667
0.005092049 0.0070997626 0.008819388 -0.0110854935 0.0022508595 0.0078056157 0.013361862 0.009167187
0.012058942 -0.0061026895 -0.0020660758 0.015716678 -0.0016987659 -0.014316421 0.016783973 0.0109710675
-0.003724075 -0.0029340154 0.017045306 0.0044840146 -0.0052142143 -0.015258166 -0.016554326 0.0023376048
-0.0016345028 0.008304501 0.0010667536 -0.010687292 -0.008739604 -0.008601887 0.005958015 0.01680149
0.0010844562 0.012884347 0.008555632 0.008248739 0.014373103 -0.012838034 0.015106978 -0.013819376
-0.0053108484 0.011301039 0.010807758 -0.004994192 -0.011597529 -0.003894506 0.014294675 -0.005785468
-0.0084203165 0.010114664 0.011720426 -0.0130633265 0.0034410097 0.0050711352 -0.0065127145 -0.0037533753
-0.0020665936 0.0033895355 -0.01718914 0.010945266 0.0016191863 -0.004142587 0.011257211 -0.015408681
0.006750088 -0.0011474378 -0.008067125 -0.00057337806 -0.016352136 0.012703598 -0.0023135375 -0.006767384
0.015088273 0.001784185 -0.003913354 0.016406978 0.007494198 -0.0021254476 0.011799753 0.009953359

advantage.bias f4 [4]
00000000: fe74 393c 9c2f cdbb 92fd 793c 566b 253c
0.011319397 -0.006261779 0.01525821 0.010096392
