breakout/model/target_net_state_dict.pt (torch_old, 375362 bytes, 6 tensors)

conv1.weight f4 [32, 4, 8, 8]
0	0x3d40d15b	0.047074657
1	0x3da040aa	0.07824834
2	0x3c42bc94	0.011885781
3	0xbc547b27	-0.012968815
4	0x3aa1c6ce	0.0012342574
5	0x3c1e0f14	0.00964715
6	0x3c9de425	0.019273827
7	0x3ca210f1	0.019783469
8	0xbd47dfb3	-0.04879732
9	0x3be905eb	0.007111301
10	0xbd5d8290	-0.054079592
11	0x3da79053	0.081818245
12	0x3c833200	0.016015053
13	0xbc90b93f	-0.017666457
14	0xbd1e12f4	-0.038592294
15	0xbd4a61b6	-0.04940959
16	0xbc8c4e3e	-0.017127153
17	0xbc00a067	-0.007850743
18	0xbce4e316	-0.027940314
19	0x3db536f2	0.088483706
20	0xbdb507d6	-0.08839385
21	0x3c54e256	0.012993416
22	0x3d01ab2c	0.031657383
23	0xbd8a18da	-0.06743021
24	0xbced4d67	-0.028967572
25	0xbd00d44c	-0.031452462
26	0x3cc775c2	0.024348143
27	0x3c49f1ba	0.0123256985
28	0xbcf15c6e	-0.02946302
29	0xbce62e2a	-0.028098185
30	0xbd80b68c	-0.06284818
31	0xbc132a4c	-0.008982252
32	0xbd2b98d7	-0.041893806
33	0xbd180e95	-0.03712328
34	0xbd10f6a7	-0.035391476
35	0xb80c143f	-3.3397457e-05
36	0x3bf090fa	0.0073415013
37	0xbcb03293	-0.02150849
38	0xbcdce968	-0.026966766
39	0xb9ab7277	-0.00032700945
40	0x3cf2cf6a	0.029639918
41	0x3baedc90	0.0053363517
42	0x3bcf9880	0.006335318
43	0xbda9c1f6	-0.08288948
44	0xbb41a428	-0.0029547308
45	0x3bb4b1b3	0.0055143475
46	0xbd759127	-0.05995288
47	0xbd917b89	-0.071036406
48	0xbc8c9400	-0.017160416
49	0xbc98a3e2	-0.018632833
50	0xbc9176a3	-0.017756766
51	0xbd851454	-0.06498018
52	0xba636872	-0.00086749264
53	0x3dd4b94b	0.10386904
54	0x3c3e868b	0.011628757
55	0xbd50410b	-0.05084328
56	0x3d95e91a	0.07319851
57	0xbd3f27c2	-0.046668775
58	0x3cd637a7	0.026149584
59	0xbc9f62c0	-0.019456267
60	0xbcffc06f	-0.03121969
61	0xbbf88bae	-0.0075850105
62	0x3d829a3a	0.06377073
63	0xbc79797f	-0.015226721
64	0xbda19d5c	-0.07891342
65	0xbb780533	-0.0037844896
66	0xbcd9b80c	-0.026577018
67	0x3d50b12f	0.050950225
68	0xbd092728	-0.033484608
69	0x3c0d613e	0.008629141
70	0x3d85c626	0.065319344
71	0x3c926066	0.017868232
72	0x3d04410e	0.032288603
73	0x3bc1714c	0.0059033986
74	0x3bf677cc	0.007521605
75	0xbd88b9cc	-0.06676063
76	0x3b331cff	0.0027330515
77	0x3c79f4c3	0.01525611
78	0x3d635a9a	0.055506326
79	0x3d9c9ab5	0.076466955
80	0x3c0efade	0.008726804
81	0xbce03a0a	-0.027371425
82	0xbb9f34c2	-0.004858584
83	0x3c47e188	0.012199767
84	0x3d83e5be	0.06440304
85	0x3d3f707f	0.046738144
86	0xbbcb5dab	-0.0062062345
87	0x3d3260a8	0.04354921
88	0xbcf73824	-0.030178137
89	0x3d3824d2	0.04495699
90	0x3cd85168	0.026406005
91	0xbc8b1d35	-0.0169817
92	0xbd38882a	-0.04505173
93	0xbce5d42e	-0.028055277
94	0xbcba781b	-0.022762349
95	0xbcd28196	-0.025696557
96	0x3d5a8874	0.053352788
97	0x3d321038	0.0434725
98	0x3cb494c8	0.0220436
99	0xbcc8e88e	-0.024524953
100	0xbc8050ab	-0.015663465
101	0x3dbe88b2	0.09303416
102	0x3bbdc1b0	0.0057909116
103	0xbd16d7ca	-0.036826886
104	0xbd637cca	-0.05553893
105	0xba23e690	-0.0006252313
106	0x3c1c9178	0.009556167
107	0x3c4ca3a8	0.012490191
108	0x3d8a07ac	0.067397445
109	0xbd41a694	-0.047278002
110	0x3d05b837	0.032646384
111	0x3d91ea6f	0.07124793
112	0x3bdfb1f7	0.006826635
113	0x3b8891d1	0.0041677733
114	0xbd84708f	-0.06466781
115	0xbcea4ca8	-0.028601006
116	0x3cba3f43	0.022735244
117	0xbc5cd650	-0.01347883
118	0xbcaac417	-0.020845456
119	0xbc98d2e8	-0.018655255
120	0xbb90ca32	-0.004418635
121	0x3d7f62dc	0.06235014
122	0x3d35b54f	0.044362362
123	0x3d4503ac	0.048099205
124	0xbd9d94a7	-0.07694369
125	0x3c857d85	0.016295204
126	0x3cf0f487	0.029413475
127	0xbcef6943	-0.029224997
128	0xbd1ff8cd	-0.039055634
129	0x3d223bc0	0.039607763
130	0x3d9b16e7	0.07572728
131	0xbd9df8b6	-0.077134535
132	0xbdaa840a	-0.08325966
133	0xbda6b48b	-0.081399046
134	0x3cba4768	0.022739127
135	0xbd4bf553	-0.049794506
136	0xbd9f28f8	-0.07771486
137	0xbcfa501e	-0.030555781
138	0x3d66c9ff	0.056344982
139	0x3baf95af	0.00535842
140	0x3d15f394	0.036609247
141	0xbd71fd90	-0.059079707
142	0xbd16aa34	-0.036783412
143	0xbd243da5	-0.04009785
144	0x3d722860	0.059120536
145	0x3c43f5ba	0.011960441
146	0x3db8e86a	0.090287045
147	0x3c5869a0	0.013208777
148	0xbd22b276	-0.039720975
149	0xbd46cac4	-0.048533216
150	0xbd609abc	-0.054835066
151	0xbc262125	-0.010139738
152	0xbc02a9b2	-0.007975029
153	0x3ce045f7	0.027377112
154	0xbd726353	-0.059176754
155	0x3c60dfe4	0.013725255
156	0x3ca467b5	0.020068983
157	0xbcf0750f	-0.029352693
158	0xbc0ee26e	-0.008720977
159	0xbbeccbef	-0.007226459
160	0xbdd7ca04	-0.10536578
161	0x3d6db756	0.05803617
162	0x3cd9389a	0.026516248
163	0xbd664808	-0.056221038
164	0xbcfbbf2a	-0.030730803
165	0x3de49c10	0.11162579
166	0xbd382430	-0.044956386
167	0x3d0e8513	0.03479488
168	0x3d5ebe33	0.054380607
169	0x3c9b4fb0	0.018958896
170	0x3da73eba	0.08166261
171	0x3dc20062	0.09472729
172	0xbd98a417	-0.07453173
173	0x3c428873	0.011873352
174	0xbd227b4e	-0.039668374
175	0xbd0158f3	-0.03157897
176	0xbce3f780	-0.027827978
177	0xbc88e828	-0.016712263
178	0x3d03d7c5	0.032188196
179	0xbd566cda	-0.052349903
180	0xbc2e24ca	-0.010628888
181	0xbd6322c2	-0.05545307
182	0x3d07aba4	0.033122674
183	0x3d3338ea	0.04375545
184	0xbb58389e	-0.003299273
185	0xbd589778	-0.052878827
186	0xbcca28da	-0.024677683
187	0x3c91f35f	0.017816244
188	0x3d1ebf4e	0.03875666
189	0xbc9e4b4b	-0.019323012
190	0x3cf92b3f	0.03041613
191	0xbd1f7d29	-0.03893772
192	0x3d882c34	0.06649056
193	0xbc81aefc	-0.01583051
194	0xbd74bb04	-0.059748664
195	0x3d2207ca	0.03955821
196	0x3d347bff	0.044063564
197	0xbd86977a	-0.065718606
198	0xbcfb70af	-0.03069338
199	0xbd457d1b	-0.048215013
200	0x3d9928ac	0.07478461
201	0xbdc8b9f8	-0.09801096
202	0xbc977ccc	-0.018492125
203	0x3d540624	0.05176367
204	0xbcd8397f	-0.026394604
205	0xbc2342de	-0.009964673
206	0xbd21040a	-0.039310493
207	0xbcc87d90	-0.024473935
208	0x3cbab0ab	0.02278932
209	0xbcf6b84a	-0.030117173
210	0xbd390377	-0.04516932
211	0xbd282260	-0.041048408
212	0xbbdeace8	-0.0067955144
213	0x3d0ba8c1	0.034096483
214	0x3baffeae	0.0053709364
215	0xbcc59b0f	-0.02412179
216	0x3da4fb11	0.080556996
217	0xbdc25682	-0.09489156
218	0xbc25e68e	-0.010125769
219	0xbd0787da	-0.033088543
220	0x3d03b1e4	0.03215207
221	0x3aee021b	0.0018158586
222	0xbc8420f9	-0.016129004
223	0xbd4e59b3	-0.050378513
224	0xbc677554	-0.014127094
225	0xbd00deda	-0.031462528
226	0x3b893582	0.004187287
227	0xbcbec9cb	-0.023289582
228	0x3c9e6bb0	0.019338459
229	0x3d40f524	0.047108784
230	0x3d2772b0	0.04088086
231	0x3c2c0e5a	0.010501469
232	0xbd871c2d	-0.06597171
233	0x3dc4d557	0.09611004
234	0x3ba04649	0.004891191
235	0xbd81f8a9	-0.06346256
236	0x3cab5496	0.020914357
237	0xbd1d75b0	-0.038442314
238	0xbccdb1f3	-0.025109267
239	0x3accfb5f	0.0015638879
240	0xbc0d07cd	-0.008607817
241	0xbd25f6bc	-0.040518507
242	0xbd1f3902	-0.038872726
243	0xbc5dff8b	-0.013549696
244	0x3d1428d5	0.036171753
245	0xbb1d52de	-0.0024005692
246	0xbd43f4f8	-0.047841042
247	0x3d8ff79b	0.07029649
248	0xbcdbf247	-0.026848925
249	0xbce11dc4	-0.027480014
250	0xbd258be0	-0.0404166
251	0xbb1ffd84	-0.0024412582
252	0x3c771d98	0.015082739
253	0x3c928721	0.0178867
254	0x3b08a34f	0.0020849293
255	0x3dbe9be0	0.093070745

conv2.weight f4 [64, 32, 4, 4]
0	0x3cc58262	0.024110023
1	0x3e0a841e	0.13526961
2	0x3d45c530	0.048283756
3	0x3cc31ad2	0.0238165
4	0x3bbedd0e	0.0058246916
5	0x3d29205a	0.04129062
6	0xbd46c0d3	-0.048523735
7	0x3d11de66	0.035612486
8	0xbdde29b7	-0.108478
9	0x3c98dc4f	0.018659739
10	0xbd3eb79e	-0.04656183
11	0x3d021d71	0.03176636
12	0x3d3ceaf9	0.046122525
13	0x3cb65848	0.022258893
14	0xbd932b9a	-0.07186051
15	0xbcb3e400	-0.021959305
16	0x3be330b3	0.0069332956
17	0x3d817898	0.063218296
18	0xbd10f0d3	-0.035385918
19	0x3d4686c5	0.04846837
20	0xbd04793a	-0.032342173
21	0xbdb3e204	-0.087833434
22	0xbca8d53d	-0.020609492
23	0xbc1a9f21	-0.009437353
24	0xbb65d24f	-0.003506798
25	0xbc29277c	-0.010324355
26	0x3d3a29f1	0.045450155
27	0xbd59f662	-0.053213485
28	0xbd4c2d68	-0.04984799
29	0xbdf8d7f5	-0.121505655
30	0x3d8726f8	0.065992296
31	0x3af9ef38	0.0019068485
32	0x3cb8e311	0.022569211
33	0x3cbc6753	0.022998488
34	0xbcb6a69a	-0.022296239
35	0xbcc59b1a	-0.02412181
36	0x3c080da9	0.008304038
37	0x3acbb79d	0.0015542392
38	0x3cedd87b	0.02903389
39	0x3d7aaccb	0.061199944
40	0xbb28bad4	-0.0025746124
41	0x3c81dab1	0.01585135
42	0x3d5d8a54	0.054086998
43	0x3cd6b855	0.026210943
44	0x3d06633e	0.03280949
45	0x3d2333c1	0.03984428
46	0xbd4d6f33	-0.050154876
47	0x3cd6e000	0.026229858
48	0x3b3c4582	0.0028727953
49	0xbbb27b14	-0.005446801
50	0xbcd39996	-0.025830071
51	0x3ca1ea51	0.019765051
52	0x3cdd4c01	0.02701378
53	0x3c62d67f	0.013845085
54	0xbd504e7a	-0.05085609
55	0xbd21fc95	-0.03954752
56	0xbbfe653d	-0.0077635334
57	0x3d6fb52e	0.058522396
58	0x3d33af83	0.043868553
59	0x3dbdf0a2	0.09274413
60	0xbb12684c	-0.0022339998
61	0xbd6e0795	-0.0581127
62	0x3cc05c65	0.023481557
63	0x3b9efff7	0.0048522907
64	0x3d0478ba	0.032341696
65	0x3d6c81b9	0.0577409
66	0x3b38ea0d	0.0028215677
67	0xbd8bb60e	-0.068218336
68	0xbd951469	-0.072792836
69	0x3c917f56	0.017760914
70	0x3c451e70	0.012031183
71	0xbcb37d31	-0.021910282
72	0x3da22d03	0.079187416
73	0x3c93b19d	0.018029029
74	0xbbd9b8b3	-0.0066443323
75	0xbcf52f11	-0.02992967
76	0xbc7f2b0d	-0.015574229
77	0x3da49978	0.08037084
78	0xbd0f5451	-0.03499252
79	0x3c802a32	0.01564512
80	0xbc17ddf7	-0.009269229
81	0xbd85f87f	-0.065415375
82	0x3d5e48e9	0.05426875
83	0x3d08c4ee	0.03339093
84	0xbcb1b749	-0.021693842
85	0xbabfa66a	-0.0014621739
86	0x3dcb7276	0.09933941
87	0xbda8df92	-0.08245768
88	0xbd0cb0aa	-0.034348167
89	0xbd4c855b	-0.049931865
90	0x3e13a3ee	0.14418003
91	0x3ca4f90a	0.020138282
92	0x3d72369a	0.059134103
93	0x3da1f347	0.079077296
94	0xbd6b325b	-0.05742107
95	0x3d90a7c8	0.07063252
96	0xbd8c37a6	-0.068465516
97	0xba4c461f	-0.0007792431
98	0x3cf18fd2	0.029487524
99	0xbb6da36d	-0.003626074
100	0x3d1105d2	0.03540594
101	0x3d7ea1a7	0.062165882
102	0x3cf74304	0.030183323
103	0xbd5c344e	-0.05376082
104	0x3d6c624f	0.057710942
105	0x3b84b9cf	0.0040504704
106	0xbd13fa52	-0.036127396
107	0x3d2424af	0.040074047
108	0xbdc08cb3	-0.09401836
109	0x3d55a3d8	0.052158207
110	0xbda86c91	-0.082238324
111	0x3e1b1d1b	0.15147822
112	0x3c197acc	0.009367656
113	0xbad84cf5	-0.0016502427
114	0xbd4b6a8d	-0.04966216
115	0x3d5e730e	0.054308943
116	0xbd4e9872	-0.050438352
117	0x3c7f335c	0.01557621
118	0x3d5dccbe	0.054150335
119	0xbd4df473	-0.050281953
120	0x3cb1bff1	0.02169797
121	0x3d0ca1fa	0.03433416
122	0xbd832041	-0.06402636
123	0xbd9d4508	-0.07679182
124	0xbd40f33f	-0.047106978
125	0xbdafb177	-0.085787706
126	0x3c28d653	0.010305005
127	0xbcf410b2	-0.029793117
128	0x3d25381d	0.040336717
129	0x3ca28f24	0.019843645
130	0x3d0fecca	0.03513793
131	0x3b176464	0.002310061
132	0x3d5188b0	0.051155746
133	0xbd07eee2	-0.0331868
134	0xbc8e5d7b	-0.01737856
135	0x3d663fb0	0.05621308
136	0x3cb5d4c8	0.022196189
137	0xbc5a5cd4	-0.013327796
138	0x3c8561d6	0.016282003
139	0xbdcb5794	-0.099288136
140	0x3a8dd35a	0.0010820434
141	0x3c129782	0.008947255
142	0xbd7c03c8	-0.061527044
143	0xbbebf357	-0.007200639
144	0x3c687020	0.014186889
145	0xbd02105a	-0.031753875
146	0xbd2f7e55	-0.04284509
147	0x3cfa7511	0.0305734
148	0x3cb684ae	0.022280063
149	0x3cd72256	0.02626149
150	0xbd1798cf	-0.037010964
151	0xbd997d5f	-0.07494616
152	0xbde09197	-0.10965269
153	0xbd2b3585	-0.041799087
154	0xbd535195	-0.051591475
155	0x3d83e1b2	0.06439532
156	0x3ce78f7c	0.02826666
157	0x3d8d96cf	0.0691353
158	0x3d979646	0.07401709
159	0x3c0c4587	0.0085614985
160	0x3cc5ff54	0.024169602
161	0xbd5c7702	-0.053824432
162	0x3c76197e	0.015020726
163	0x3c180580	0.009278655
164	0xbc9f0e84	-0.019416101
165	0xbd785bbb	-0.060634356
166	0xbe0c8802	-0.13723758
167	0x3d2b5d09	0.041836772
168	0x3d015eb4	0.031584457
169	0xbd81fdbd	-0.06347225
170	0x3d4b5bc5	0.049648065
171	0x3cd6f065	0.026237676
172	0x3d9663cb	0.07343253
173	0xbdc1cae8	-0.094625294
174	0x3d202d11	0.03910548
175	0x3d17d394	0.03706701
176	0x3c5c221c	0.013435867
177	0xbd55a989	-0.052163634
178	0xbd97630e	-0.0739194
179	0xbbb3bea4	-0.0054853726
180	0xbddf9e02	-0.109188095
181	0xbd9c0d64	-0.076197416
182	0x3d6f7b29	0.058467064
183	0xbd5585fc	-0.05212973
184	0xbcec5400	-0.028848648
185	0x3d99553a	0.07486959
186	0x3d9b8764	0.07594183
187	0x3c6865e1	0.014184446
188	0x3d878f3d	0.066191174
189	0x3c8f8131	0.017517658
190	0x3d103e00	0.035215378
191	0xbcc10220	-0.023560584
192	0xbb44bdff	-0.0030020473
193	0x3d2d4eaa	0.042311348
194	0xbc36e41b	-0.011162783
195	0xbd6c117a	-0.057633854
196	0xbd0414e8	-0.0322465
197	0x3d3fa6bc	0.04678987
198	0xbc9cbad2	-0.019132052
199	0x3c915f6c	0.017745696
200	0x3d13778a	0.036002673
201	0xbdd97382	-0.106177345
202	0xbc4df5f7	-0.01257085
203	0x3d4b683b	0.04965995
204	0x3d7de5e8	0.061986834
205	0x3d414050	0.047180474
206	0x3d3d253c	0.046178088
207	0x3c8a6a9b	0.016896537
208	0xbd080904	-0.033211723
209	0x3d8fb2ae	0.07016502
210	0x3d346b9d	0.04404794
211	0x3c94a092	0.018142972
212	0x3aa539f3	0.0012605771
213	0xbd091467	-0.033466723
214	0x3d5de588	0.054173976
215	0xbd5ebac1	-0.05437732
216	0xbd35bf9b	-0.044372182
217	0xbd3f2a26	-0.046671055
218	0xbd419a5b	-0.047266345
219	0xbc99bebe	-0.01876771
220	0x3d81f37a	0.063452676
221	0xbb06c584	-0.0020564506
222	0x3dad0c35	0.08449594
223	0x3dbc1691	0.09183992
224	0x3b799a7d	0.0038086467
225	0xbd5ba5dd	-0.053624976
226	0xbdf1091b	-0.11769315
227	0xbb542ea5	-0.0032376435
228	0xbc861f7e	-0.016372439
229	0x3d41bfff	0.047302242
230	0x3d020456	0.031742416
231	0xbdbacfa1	-0.09121633
232	0xbd19e78a	-0.03757433
233	0xbc367c28	-0.011138
234	0x3d4a24fe	0.049351685
235	0x3d1181cc	0.035524175
236	0x3ce6a066	0.028152656
237	0xbc764353	-0.0150307
238	0xbc1a0af3	-0.009402025
239	0x3d686c16	0.056743704
240	0xbc5b4fa1	-0.013385684
241	0x3bd1a71a	0.006398094
242	0xbcb4acf3	-0.022055125
243	0xbdae5334	-0.085119635
244	0xbc32770a	-0.010892639
245	0xbc03c2ca	-0.008042047
246	0xbd9e4f66	-0.07729988
247	0xbc3e083c	-0.011598643
248	0xbdaecd5b	-0.08535262
249	0xbc92d346	-0.017923009
250	0x3db89652	0.09013046
251	0x3caa4c87	0.020788444
252	0xbd0d8d2a	-0.034558453
253	0x3c6bc4fb	0.0143902255
254	0x3d18abe1	0.03727329
255	0x3d6a201d	0.05715953

conv3.weight f4 [64, 64, 3, 3]
0	0xbb956d94	-0.004560182
1	0xbe1cefb7	-0.15325819
2	0xbc7f8417	-0.0155954575
3	0x3c8ccb6f	0.017186848
4	0xbd10bfc6	-0.03533914
5	0xb88b7aae	-6.6508874e-05
6	0x3bcd1903	0.006259085
7	0x3cda8609	0.026675241
8	0xbd94b994	-0.07261959
9	0xbd14ef87	-0.036361244
10	0x3cf6bb67	0.030118657
11	0xbd3994c0	-0.045307875
12	0xbcacbb8c	-0.021085523
13	0xbd1a3dcc	-0.03765659
14	0x3cfbec03	0.030752188
15	0x3d3e7ad4	0.046503857
16	0x3d2b9bde	0.041896693
17	0xbc3411dd	-0.010990587
18	0xbd310376	-0.04321619
19	0xbd0d1db5	-0.03445216
20	0xbe02fddb	-0.1279215
21	0xbbd37699	-0.006453347
22	0x3d4c3462	0.049854644
23	0xbd15d3b9	-0.036578868
24	0xbcd05e49	-0.025435584
25	0x3d33a643	0.04385973
26	0xbd61c562	-0.05511988
27	0xbbbf1c9a	-0.005832267
28	0x3d6b4adf	0.05744445
29	0xbc09c3fe	-0.008408545
30	0x3d6ea167	0.058259394
31	0x3c21d935	0.009878446
32	0xbc905843	-0.017620211
33	0x3c5eff71	0.013610707
34	0x3d80c1ad	0.06286941
35	0xbdc6be29	-0.09704239
36	0xbd3a578e	-0.045493655
37	0xbd0af6aa	-0.033926643
38	0xbd62213a	-0.05520747
39	0xbd648fca	-0.05580119
40	0xbbd72ec0	-0.0065668523
41	0xbd0a0b5a	-0.033702232
42	0x3d7c1efe	0.061552994
43	0x3cdccb0b	0.026952287
44	0x3c8d31d9	0.017235683
45	0xbd97b67e	-0.074078545
46	0x3d049fe1	0.032379035
47	0x3be8fb70	0.007110052
48	0x3ca6584c	0.020305775
49	0x3d90be71	0.07067574
50	0xbd4ae768	-0.049537092
51	0x3c9a391a	0.018826056
52	0x3d889fdb	0.06671115
53	0x3c13ea8c	0.009028088
54	0x3d0b2109	0.03396705
55	0xbd9de7c1	-0.07710219
56	0x3c5bc9c8	0.013414808
57	0xbd00ea29	-0.031473313
58	0xbc4d2b81	-0.012522579
59	0xbdcd1a84	-0.10014823
60	0x3ca2292d	0.019795025
61	0x3a9eae84	0.0012106453
62	0x3cbc9a55	0.02302281
63	0x3c8d9eda	0.01728766
64	0x3dc0bdcd	0.094112016
65	0x3d65a7b9	0.056068156
66	0x3d73ad8b	0.059491675
67	0xbcde0a35	-0.027104476
68	0xbcc958fc	-0.024578564
69	0x3dad448f	0.08460342
70	0x3d482e5e	0.048872344
71	0x3d4ac4e8	0.04950419
72	0xbd3fc39a	-0.0468174
73	0x3c80719a	0.01567917
74	0x3d9bb219	0.07602329
75	0x3995ff44	0.00028609682
76	0x3d539a65	0.051660914
77	0x3d1c26bd	0.03812288
78	0x3d541946	0.051781915
79	0x3c8f5be8	0.017499879
80	0x3cc12e4c	0.023581646
81	0x3d399abc	0.04531358
82	0xbba2b02b	-0.0049648485
83	0x3d8ffa20	0.070301294
84	0x3d98681f	0.074417345
85	0xbd3b43b7	-0.045718875
86	0x3d8f24bf	0.06989431
87	0xbd839da6	-0.064265534
88	0x3c81bb48	0.015836373
89	0x3ca6006b	0.020263871
90	0x3ce0fc67	0.027464105
91	0x3b197bec	0.002341981
92	0xbda68b13	-0.08131995
93	0xbd5be2d9	-0.053683136
94	0xbddded46	-0.10836272
95	0x3d5a01e3	0.053224456
96	0x3d114efc	0.035475716
97	0x3c99085a	0.01868074
98	0x3d66d038	0.056350917
99	0xbc747321	-0.014920027
100	0x3d9885d5	0.074474014
101	0x3cd78fad	0.026313627
102	0xbcf4c636	-0.02987967
103	0x3d91d1dd	0.07120106
104	0xbc6bbb07	-0.0143878525
105	0xbd34c0eb	-0.044129293
106	0xbd1e02ac	-0.038576767
107	0xbb4cf02c	-0.0031271083
108	0x3d46e3aa	0.04855696
109	0xbd1ec85b	-0.038765293
110	0x3e13b204	0.14423376
111	0xbc8e909b	-0.017402938
112	0x3cc9cf19	0.024634885
113	0xbc9e6e05	-0.01933957
114	0xbd012733	-0.031531524
115	0xbdad06c3	-0.08448555
116	0x3da493ba	0.08035989
117	0x3d3fe3b6	0.04684802
118	0x3b9f0450	0.004852809
119	0xbc6674b8	-0.014065914
120	0x3e19c4ea	0.15016523
121	0xbd402768	-0.04691258
122	0xbe0cc1b9	-0.13745774
123	0xbca9bd43	-0.02072013
124	0x3d831987	0.06401353
125	0xbd1bda20	-0.038049817
126	0x3d968294	0.073491246
127	0xbd26839c	-0.040652856
128	0xbcabb4ab	-0.020960173
129	0x3d128408	0.035770446
130	0xbd8f3387	-0.0699225
131	0x3d079775	0.033103425
132	0x3c8f26dd	0.017474586
133	0xbd258ce6	-0.040417574
134	0xbc5f9bc1	-0.0136479745
135	0xbd4e7c68	-0.05041161
136	0xbd391f19	-0.045195673
137	0xbce99863	-0.028515046
138	0xbd2b695a	-0.041848518
139	0xbd5560f1	-0.052094404
140	0xbcd8ef38	-0.026481256
141	0xbcca4bf3	-0.024694419
142	0xb92e5cdd	-0.00016628527
143	0x3c9177d6	0.017757338
144	0xbda5f7e4	-0.08103922
145	0xbd0b8cb5	-0.034069736
146	0x3c87f1f8	0.016594872
147	0xbd262a53	-0.040567707
148	0xbc4f524d	-0.012653899
149	0xbd6b508c	-0.057449862
150	0xbd9e9776	-0.07743733
151	0xbc7396b4	-0.014867473
152	0x3d6ef53a	0.058339335
153	0x3c819466	0.015817832
154	0xbc8ee8b6	-0.01744495
155	0x3acba37c	0.0015536393
156	0xbd5ec859	-0.054390285
157	0xbd9d8c6b	-0.07692798
158	0xbd5cec4d	-0.05393629
159	0xbd307323	-0.043078553
160	0x3d4bd18d	0.04976039
161	0x3dc3da01	0.09563065
162	0xbcbf93a5	-0.023385832
163	0x3d9a1492	0.07523455
164	0x3c993614	0.018702544
165	0xbdc726d7	-0.09724205
166	0xbd73f0cb	-0.05955581
167	0x3de66580	0.11249828
168	0x3d2f0033	0.0427248
169	0x3cb70525	0.02234132
170	0x3ccfe00b	0.025375387
171	0xbc11ea7e	-0.008906005
172	0xbd7956af	-0.060873684
173	0xbd2b5ff1	-0.041839544
174	0x3a968dfa	0.0011486404
175	0xbda639f6	-0.08116524
176	0x3c89dd73	0.016829228
177	0xbcd8ee7a	-0.026480902
178	0xbd84307d	-0.06454561
179	0xbd9084b0	-0.07056558
180	0xbdb067a9	-0.086135216
181	0xbda488ca	-0.08033903
182	0x3cdfe59b	0.027331164
183	0x3cfd1d41	0.030897738
184	0xbd81de7b	-0.06341263
185	0xbd71c8ff	-0.059029575
186	0xbd9f3027	-0.07772856
187	0xbca3ee80	-0.020011187
188	0xbcbd4a13	-0.02310661
189	0x3b1c5a96	0.0023857704
190	0xbc666ae7	-0.014063573
191	0x3c8664f7	0.016405566
192	0x3d100187	0.035157707
193	0x3d7ea452	0.062168427
194	0xbd53b913	-0.051690172
195	0x3e025462	0.12727502
196	0xbd8a8948	-0.067644656
197	0xbd736eeb	-0.05943195
198	0x3d9f9b97	0.07793348
199	0xbd98250d	-0.07428942
200	0x3d049bae	0.03237503
201	0x3b85ec65	0.0040870183
202	0x3d0ed558	0.03487143
203	0x3d5ad5c4	0.05342652
204	0xbbd9e912	-0.0066500986
205	0xbcacf507	-0.021112932
206	0x3defe5f2	0.117137805
207	0x3db56be7	0.08858471
208	0xbd03a868	-0.032143027
209	0x3d2557c0	0.040366888
210	0xbda0203a	-0.07818647
211	0xbd325879	-0.043541405
212	0xbc98cd33	-0.018652534
213	0x3d59c57e	0.05316686
214	0xbd468d01	-0.048474316
215	0xbadf518e	-0.0017037855
216	0x3d737e4e	0.059446625
217	0xbd0619f5	-0.0327396
218	0xbcc6e7b5	-0.024280408
219	0x3cd26cc3	0.025686627
220	0x3d5688c0	0.05237651
221	0xbd3d5def	-0.04623216
222	0xbc109414	-0.008824367
223	0xbbf97ceb	-0.0076137683
224	0x3cc56032	0.024093721
225	0xbc88e386	-0.016710054
226	0xbceb41b7	-0.028717859
227	0x3b9627fb	0.0045824028
228	0xbca52bc9	-0.02016248
229	0xbd9eec29	-0.07759888
230	0xbc5a8e13	-0.013339537
231	0x3adbb861	0.0016763323
232	0x3cef0ff9	0.029182421
233	0x3d584e50	0.05280906
234	0xbd96d258	-0.07364339
235	0xbd711afd	-0.05886363
236	0x3c904447	0.017610682
237	0x3d985e94	0.07439914
238	0xbd41fe69	-0.047361765
239	0xbd7c39ba	-0.06157849
240	0x3dac3d46	0.084101245
241	0x3cb69681	0.022288563
242	0xbd665878	-0.056236714
243	0xbce82efd	-0.028342718
244	0x3c1e5a51	0.009665088
245	0x3c831d0d	0.016005063
246	0x3c85839f	0.016298113
247	0xbe02100c	-0.12701434
248	0x3d5203e8	0.051273257
249	0x3e0b20e5	0.13586767
250	0xbd66a1d6	-0.056306683
251	0xbcc06934	-0.023487665
252	0x3d9e1167	0.07718163
253	0x3d38b23a	0.045091845
254	0x3d488a61	0.048960093
255	0xbcf9b384	-0.030481108

value.weight f4 [1, 3136]
0	0xbc8a2de4	-0.016867585
1	0xbbcacf06	-0.00618923
2	0xbc42b98a	-0.011885056
3	0x3bcec2fc	0.006309865
4	0xbc073ae3	-0.008253786
5	0x3c541840	0.012945235
6	0xbc76db81	-0.015066982
7	0xbb3ad354	-0.002850731
8	0x3b953cf4	0.0045543853
9	0xbc4e6dcc	-0.01259942
10	0x3c6b65ae	0.014367504
11	0xbc8feb80	-0.01756835
12	0x3c55afc0	0.01304239
13	0x3b7c5b38	0.003850652
14	0x3c9179df	0.017758308
15	0x3c448ed6	0.011996945
16	0xbc63d303	-0.01390529
17	0x3c45382e	0.01203732
18	0x3c233fac	0.009963911
19	0x3bdd1d08	0.0067478456
20	0x3c7eece2	0.015559407
21	0xbc2e3683	-0.010633114
22	0xbc5d7dc3	-0.013518753
23	0xb966f400	-0.00022025406
24	0x3bc1b704	0.0059117097
25	0xb9489f00	-0.00019132718
26	0xbc7344f3	-0.014847982
27	0xbc42353c	-0.011853512
28	0xbc375a6a	-0.01119099
29	0x3b52d4c8	0.0032170285
30	0x3c35f2dc	0.0111052655
31	0xbbf09fca	-0.007343267
32	0xbc7eabec	-0.015543919
33	0x3b87bf70	0.004142694
34	0xbbac8318	-0.005264651
35	0x3c9121b3	0.017716264
36	0xbaac4150	-0.0013142023
37	0xbbc2887c	-0.0059366804
38	0x3bbb3cbc	0.005714027
39	0x3a2da5c0	0.0006624125
40	0x3b281e48	0.0025652815
41	0xbae09150	-0.001713315
42	0x3c58b4cc	0.013226699
43	0xbb5b85c0	-0.003349647
44	0x3c8020db	0.015640667
45	0xbb000c38	-0.0019538533
46	0x3b824180	0.0039750934
47	0xbbaa6420	-0.005199924
48	0x3c3e8a32	0.011629628
49	0x3abf7930	0.001460826
50	0x3bd06700	0.006359935
51	0x397b1500	0.00023945048
52	0x3b3a6870	0.0028443597
53	0x3c5eb576	0.013593068
54	0xbc6b177c	-0.014348861
55	0x3bd611b0	0.0065328702
56	0xbc8f9998	-0.017529294
57	0x3c7ff632	0.015622662
58	0xba7b5240	-0.00095871463
59	0x3aa938d0	0.0012910608
60	0xbc830d8c	-0.01599767
61	0xbb03b370	-0.0020095967
62	0x3c286e2c	0.010280173
63	0x3c8ba4bf	0.01704633
64	0x3c1ee4f8	0.009698145
65	0xbc3f6e00	-0.011683941
66	0xbc8a367d	-0.016871685
67	0x3c1dd222	0.009632619
68	0xbc52ab18	-0.012858175
69	0xbaad3730	-0.00132153
70	0xbc869a8f	-0.016431121
71	0xbc411d8e	-0.011786832
72	0x3c2ab9d6	0.010420283
73	0xbb86c3e4	-0.0041127075
74	0xbc328535	-0.010896017
75	0xbbc7c8fc	-0.0060969573
76	0xbc1f1b3a	-0.009711081
77	0xbbe84ebc	-0.007089464
78	0xbba7a00e	-0.0051155156
79	0x3c2d573c	0.01057988
80	0x3aedaa30	0.0018132385
81	0x3bae9d74	0.0053288285
82	0x3c6b8ac6	0.014376348
83	0x3c2ff670	0.010739908
84	0x3aabe680	0.0013114959
85	0xbbd7fd6a	-0.0065914886
86	0xbaf805a0	-0.0018922575
87	0x3c5ace5e	0.013354866
88	0x3c2e41f6	0.0106358435
89	0xbbe5a5ee	-0.0070083058
90	0xbc8d7036	-0.01726542
91	0xbbe23358	-0.0069030933
92	0xbbf382a6	-0.007431346
93	0x3b872cd4	0.004125217
94	0xba2cb760	-0.00065886043
95	0xbc145fa3	-0.009056005
96	0xbc912b4a	-0.017720837
97	0x3c35970e	0.0110833775
98	0x3b3f8228	0.0029221866
99	0xbc7b5c61	-0.015341849
100	0x3bdc603c	0.006725339
101	0xbc00361c	-0.007825401
102	0xbc0e2313	-0.0086753545
103	0x3c1acae2	0.009447785
104	0x3b853c18	0.0040660016
105	0x3c6a28b6	0.014291933
106	0x39d424c0	0.00040463172
107	0x3b6e87b8	0.0036396813
108	0xbc0ff91e	-0.0087874215
109	0x3c376192	0.011192696
110	0xbabf8b60	-0.001461368
111	0xbc38ed6e	-0.011287076
112	0x3bad4c60	0.0052886456
113	0x3a323a00	0.0006798804
114	0xba9d32f0	-0.001199333
115	0x3c6f2fe2	0.0145988185
116	0xbacf6500	-0.0015822947
117	0xbc816c80	-0.015798807
118	0xba2f25a0	-0.0006681327
119	0x3c275baa	0.0102147255
120	0xbc746d65	-0.01491866
121	0x3beeb89c	0.0072851907
122	0x3c8a1e41	0.01686013
123	0x3bce67f4	0.0062990133
124	0xbba6620e	-0.005077607
125	0x3bf5adf0	0.0074975416
126	0xbb8ebf12	-0.0043562734
127	0xbb47671c	-0.0030426448
128	0x3b219f90	0.0024661757
129	0x3c5fa666	0.013650512
130	0xbbd8b24e	-0.0066130525
131	0xbc2bfcce	-0.010497285
132	0xbc8a753b	-0.016901603
133	0x3c7b5702	0.0153405685
134	0x3b8f29c4	0.0043689925
135	0x3b870de4	0.004121529
136	0x3c180d2c	0.009280484
137	0xbb13b55c	-0.0022538519
138	0x3c234cca	0.009967038
139	0xbb1c65f8	-0.002386449
140	0x3c8890b1	0.016670557
141	0xbc445498	-0.011983059
142	0xbb33e478	-0.002744941
143	0xbc2e1110	-0.010624185
144	0xbc6455be	-0.013936458
145	0x3c3e5672	0.01161729
146	0x3ab063d0	0.0013457481
147	0x3c12440a	0.008927355
148	0x3c7a5092	0.0152779985
149	0xbc4416a5	-0.0119682895
150	0x3c5f82d6	0.013642034
151	0x3c82058d	0.015871787
152	0xbb05b590	-0.002040241
153	0xbb597d48	-0.0033186246
154	0xbbbbef66	-0.0057353256
155	0xbc4af340	-0.012387097
156	0xbc8e2fb8	-0.017356738
157	0x3c23de22	0.010001691
158	0xbc6b765c	-0.014371481
159	0xbc2e5500	-0.010640383
160	0x3bbb9dfc	0.0057256203
161	0xbc7c838e	-0.015412224
162	0x3b491260	0.0030681118
163	0xbc70ed28	-0.01470498
164	0xbb873f18	-0.0041273944
165	0xbc83659e	-0.016039666
166	0xbbb71c86	-0.005588117
167	0x3c8713c1	0.016488912
168	0xbc0bb940	-0.008528054
169	0xbc7b8571	-0.015351639
170	0xbc187a5a	-0.009306515
171	0x3b341ac8	0.0027481783
172	0xbbbf56c6	-0.0058392016
173	0xbc8c045b	-0.01709192
174	0xbc6eb17a	-0.014568681
175	0xbc751bca	-0.014960239
176	0x3c671bb2	0.014105724
177	0x3c3ca69a	0.01151433
178	0xbc84e81b	-0.016223958
179	0x3aeabf90	0.0017909873
180	0x3b595f40	0.0033168346
181	0x3c6677c6	0.014066642
182	0x3c851383	0.016244655
183	0xbc1bac9e	-0.009501604
184	0x3af66db0	0.0018801
185	0x3c60ef06	0.013728863
186	0xbc69082c	-0.01422314
187	0xbbb2a9b2	-0.005452358
188	0x3af25e90	0.0018491317
189	0x3aa65c80	0.0012692362
190	0x3acf24b0	0.001580378
191	0x3b4309e8	0.0029760543
192	0x3c579fce	0.013160659
193	0x3baac858	0.005211871
194	0x3c3b52b6	0.011433294
195	0xbbd9d8a0	-0.006648138
196	0x3c8f63c5	0.017503629
197	0xbc63344e	-0.013867451
198	0x3b3a0fa8	0.002839068
199	0x3c03c4fa	0.008042568
200	0x3c0e5dfe	0.008689402
201	0xbc0e17f3	-0.008672702
202	0xbc0d6aea	-0.008631447
203	0xbb32f7f8	-0.0027308445
204	0xbc6eb805	-0.014570241
205	0x3c868f25	0.016425679
206	0x3c83a585	0.016070137
207	0xbaa768e0	-0.0012772344
208	0x3c19a22a	0.009377042
209	0xbc842718	-0.016131923
210	0x3c8bcb39	0.017064678
211	0x3bc02da0	0.005864814
212	0x3c29af6a	0.010356763
213	0xbb8e712e	-0.004346988
214	0xbb80b200	-0.0039274693
215	0x3b98be5c	0.0046613645
216	0x3c5b1696	0.013372084
217	0xbc80813d	-0.015686626
218	0xbb6ce200	-0.0036145449
219	0x3bed6a68	0.0072453506
220	0x3c43419e	0.0119175
221	0xbbc4e392	-0.006008574
222	0x3bd7c050	0.0065842047
223	0x3c1bdd82	0.009513261
224	0xbc339945	-0.010961835
225	0x3b062118	0.0020466503
226	0xbc0b3810	-0.008497253
227	0xbc089373	-0.008335936
228	0xbba19b8a	-0.004931872
229	0xbc33901c	-0.010959651
230	0xba929c30	-0.0011185464
231	0x3c206be6	0.00979135
232	0xba31bf20	-0.0006780494
233	0xba982f00	-0.0011610687
234	0xbc569158	-0.013096176
235	0x3c53f5aa	0.012936989
236	0x3c2e39c6	0.010633891
237	0x3c838a8b	0.016057273
238	0x3c8d3cab	0.017240843
239	0xbbc97d4a	-0.006148969
240	0xbc24f615	-0.010068436
241	0xbc11ed17	-0.008906624
242	0x3c343626	0.010999238
243	0x3c1432f0	0.009045348
244	0xbc57a0e0	-0.013160914
245	0x3b5c7e08	0.0033644456
246	0xbc8b6334	-0.017015077
247	0xba9f23a0	-0.0012141354
248	0xbc025850	-0.007955626
249	0xbc418b4c	-0.011812996
250	0xbc91dc37	-0.017805202
251	0x3be71c24	0.007052915
252	0x3b283a08	0.0025669355
253	0x3c57acdc	0.0131637715
254	0xbbb14d46	-0.005410823
255	0x3b692138	0.0035572778

advantage.weight f4 [4, 3136]
0	0x3c843461	0.016138257
1	0x3a3ae120	0.0007128883
2	0x3c08aad4	0.00834151
3	0xbc5a31de	-0.013317553
4	0xbc4c55b0	-0.012471601
5	0xbbab5d00	-0.0052295923
6	0x3c2c2f50	0.010509327
7	0xbc8eae3d	-0.017417068
8	0x3c348e7c	0.011020299
9	0x3ab4e4a0	0.0013801046
10	0x3b8deebc	0.004331438
11	0x3b5a4980	0.003330797
12	0xbad4f100	-0.001624614
13	0x3a812480	0.0009852797
14	0x3c17f290	0.00927414
15	0x3c0d2fe8	0.008617379
16	0xbb0d3e30	-0.002155196
17	0x3bf28ec0	0.007402271
18	0x3af51e70	0.0018701088
19	0x3a8f08b0	0.0010912623
20	0x3c852a5d	0.016255552
21	0x3c75c83e	0.015001355
22	0xbc6cc5a3	-0.014451417
23	0xbc1da62c	-0.009622138
24	0x3afaa990	0.001912402
25	0xbc41c243	-0.011826101
26	0xbc247f77	-0.010040156
27	0xbc6770d3	-0.0141260205
28	0x3c1be5fe	0.009515284
29	0x3c38cd4e	0.011279417
30	0xbc492db8	-0.012278967
31	0xbbda2618	-0.006657373
32	0xbb398814	-0.0028309869
33	0x3beb59d0	0.0071823373
34	0xbc615cdc	-0.01375505
35	0xbc42e6fa	-0.011895889
36	0xbc589c60	-0.013220876
37	0x3bdd7d60	0.0067593306
38	0x3c15fedc	0.0091550015
39	0x39bb3e40	0.000357138
40	0x3c47d3e0	0.012196511
41	0xbc86e5a3	-0.016466921
42	0xb97fc380	-0.00024391524
43	0xba838e50	-0.0010036919
44	0x3c218c6e	0.009860141
45	0x3c79cf76	0.015247216
46	0x3bd7f054	0.0065899286
47	0x3c48fff8	0.012268059
48	0x3be4ccf4	0.00698244
49	0xbc618000	-0.013763428
50	0x3c26124c	0.010136198
51	0x3b470300	0.0030366778
52	0x3c534e08	0.012897022
53	0x3b9f163c	0.0048549455
54	0x3c80a127	0.015701843
55	0x3b8e4b9c	0.0043425094
56	0xb9d889c0	-0.00041301362
57	0xbc6909c8	-0.014223523
58	0x3c319b8e	0.01084031
59	0x3a83f680	0.001006797
60	0x3b97daf0	0.0046342537
61	0xbc8d1d06	-0.017225754
62	0xbc4dab38	-0.012553029
63	0xbc8cf5d4	-0.017207064
64	0xbc6b433e	-0.0143592935
65	0x3b9e70e8	0.004835237
66	0x3b0abb78	0.002116887
67	0x3c6e485a	0.014543617
68	0x3adaf4e0	0.0016705059
69	0x3be7a6e0	0.0070694536
70	0xbc7ad821	-0.015310318
71	0x3b11aab8	0.0022227
72	0xbc732501	-0.014840365
73	0xbaa1cc50	-0.0012344215
74	0xbbe859f2	-0.0070908004
75	0x3c14a9e6	0.00907371
76	0xbc6a2ffc	-0.014293667
77	0x3c09566e	0.008382423
78	0xbc2f62d5	-0.010704716
79	0xbb98ecbc	-0.004666893
80	0xbb2e53d4	-0.0026600258
81	0x3c870d51	0.016485842
82	0x3c7fab32	0.015604781
83	0x3c1180aa	0.008880774
84	0x3c8eb3fd	0.01741981
85	0x3c8691b3	0.016426897
86	0xbc575bc3	-0.013144436
87	0x3c661dbe	0.014045177
88	0x3bf64d34	0.0075165275
89	0xbc0a7c47	-0.008452482
90	0x3c089a40	0.008337557
91	0xbb90ae40	-0.0044153035
92	0xbc57b5a0	-0.013165861
93	0x3c6f395a	0.014601076
94	0xbb32f5f0	-0.0027307235
95	0xbbd187f2	-0.00639438
96	0x3b1ca338	0.0023900997
97	0x3c3956aa	0.011312166
98	0x3c259b4e	0.010107828
99	0xbbffd4ea	-0.0078073638
100	0xbc8f87e6	-0.017520856
101	0xbc5f47e5	-0.013627981
102	0xbc4913a8	-0.012272753
103	0xbc4e2818	-0.012582801
104	0x3c908a43	0.017644053
105	0xbc3c0835	-0.011476566
106	0x3c761b42	0.015021147
107	0xba566240	-0.00081780925
108	0xbae04970	-0.001711173
109	0x3c6ee9ea	0.014582137
110	0x3c43a0ac	0.011940163
111	0x3c7eb3e6	0.015545821
112	0xbb68c11c	-0.0035515493
113	0xbbdceb80	-0.006741941
114	0xbaeda360	-0.0018130355
115	0x3c4365a6	0.01192609
116	0x3b956ef4	0.004560346
117	0x3af187b0	0.0018427279
118	0xbc7934e3	-0.015210363
119	0xbb8cab4e	-0.004292882
120	0xbc8e156f	-0.017344205
121	0xbc7bf248	-0.015377589
122	0xbb7d2f08	-0.003863277
123	0xba7e8600	-0.00097092986
124	0xbb140380	-0.0022585094
125	0x3bc1ad20	0.0059105307
126	0x3c47cdb0	0.012195036
127	0x3bc37010	0.0059642866
128	0xbc7930c1	-0.015209378
129	0x3c33e228	0.010979213
130	0xba413d20	-0.0007371474
131	0xbc0cce0e	-0.008594049
132	0xb9d80dc0	-0.00041208975
133	0x3c1a6fd6	0.009426078
134	0xbc0c0e1a	-0.008548284
135	0xbc4a8af8	-0.012362234
136	0x3ba07f44	0.0048979837
137	0x3be7bd74	0.007072145
138	0x3c6f880e	0.01461984
139	0x3b9be994	0.0047580693
140	0x3c1b06c8	0.009462066
141	0x39dabc40	0.00041720457
142	0x3bec6660	0.0072143525
143	0xbb23ecf8	-0.002501307
144	0x3c6bb85e	0.014387218
145	0xbbc4c58a	-0.006004994
146	0x3c35efaa	0.011104504
147	0x3a96b860	0.001149904
148	0xbb82f3f8	-0.0039963685
149	0xbc087efe	-0.008331059
150	0xbc1bae77	-0.009502045
151	0x3a1c9360	0.00059728883
152	0x3c03a852	0.008035736
153	0xbbe79218	-0.0070669763
154	0x3b190c68	0.0023353342
155	0x3b064790	0.0020489432
156	0x3c47dc7a	0.012198562
157	0xbc2f92cc	-0.010716151
158	0x3a9e42f0	0.0012074392
159	0xbbfe21d4	-0.0077554975
160	0x3c2d5c92	0.0105811525
161	0xbbeac286	-0.0071643023
162	0xbbe5d4a0	-0.0070138723
163	0x3bb011fc	0.0053732377
164	0xbbe9d3a0	-0.0071358234
165	0xba65b1c0	-0.00087621436
166	0x3c87fc41	0.016599776
167	0x3c5b718e	0.013393773
168	0x3b184fe8	0.0023240987
169	0xb9f27000	-0.00046241283
170	0x3b9ec764	0.0048455466
171	0xbaca0db0	-0.0015415456
172	0x3afd1720	0.001930926
173	0x3c880183	0.016602283
174	0xbbc0d0aa	-0.0058842497
175	0x3c8c1e81	0.01710439
176	0x3c35c1da	0.011093581
177	0x3c2c08ea	0.010500172
178	0x3c54f770	0.012998447
179	0xbc460e98	-0.01208844
180	0xbc485d4e	-0.012229277
181	0x3c8cbaa7	0.017178847
182	0xbb792cb0	-0.003802102
183	0xbab6f1d0	-0.0013957564
184	0x3ae88b60	0.0017741732
185	0x3bd499c4	0.006488057
186	0xbc7ca7aa	-0.015420834
187	0xbb3d5188	-0.0028887708
188	0xbc670f0c	-0.014102709
189	0x3c057900	0.008146524
190	0xbb77b9b0	-0.0037799887
191	0xbc6bca11	-0.014391438
192	0x3c0ad4c8	0.008473583
193	0x3c575c0e	0.013144506
194	0x3c5b370a	0.013379822
195	0x3c77fae6	0.015135502
196	0xbbe977ae	-0.0071248626
197	0xbb2c11d4	-0.0026255744
198	0x3b310098	0.002700841
199	0xba41c900	-0.0007392317
200	0x3c4fe4ec	0.012688857
201	0xbc84ddf5	-0.016219119
202	0x3b3cb358	0.002879342
203	0x3c203390	0.009777918
204	0x3c54151c	0.012944486
205	0x3c5864ce	0.013207627
206	0xbaafcd60	-0.0013412647
207	0x3bd1ec24	0.006406324
208	0xbc629b45	-0.013830964
209	0xbbcd68b2	-0.006268584
210	0xbc5fa2f5	-0.013649692
211	0xbc7d71ce	-0.015469028
212	0xbc6fb8f8	-0.014631502
213	0x3aaf3020	0.0013365783
214	0x3c863ecf	0.016387371
215	0x3bdf8094	0.0068207476
216	0xbc4cae2a	-0.012492696
217	0x3adf9520	0.0017057993
218	0xbc105ed5	-0.008811672
219	0xbbe3ed66	-0.0069557903
220	0xbb0a9cc0	-0.002115056
221	0xba791660	-0.00095019303
222	0x3b9f5328	0.004862208
223	0xbc863685	-0.016383419
224	0x3c5cc68e	0.0134750735
225	0xbc3166be	-0.010827718
226	0xbc6811d1	-0.014164404
227	0x3c2177da	0.009855235
228	0x3c8b3e83	0.016997581
229	0x3c796a2e	0.015223069
230	0x3c89cffb	0.016822806
231	0x3b625090	0.0034532882
232	0x3bfda910	0.007741101
233	0x3c042180	0.008064628
234	0x3c20cefc	0.009814974
235	0xbc89c327	-0.016816689
236	0x3b199e50	0.002344031
237	0x3c7896c6	0.015172666
238	0x3c1494ce	0.009068681
239	0xbc40568c	-0.011739384
240	0x3c76ea92	0.015070574
241	0xbc8a11aa	-0.016854126
242	0xbbbae2fc	-0.005703328
243	0x3aae5f70	0.0013303589
244	0x3c124b3e	0.008929072
245	0x3bd3eb1c	0.006467236
246	0xbc80fc6e	-0.015745368
247	0xbb83a6e4	-0.0040176976
248	0x3c7c62a2	0.015404375
249	0x3bcf4980	0.0063259006
250	0xbc45e49c	-0.0120784305
251	0xbb665de4	-0.0035151178
252	0xbbc5393c	-0.0060187858
253	0xbc0f81e0	-0.008758992
254	0x3bf959b0	0.0076095685
255	0x3c07704c	0.00826652

advantage.bias f4 [4]
0	0xbc3c3773	-0.0114878295
1	0x3c08aa0a	0.008341322
2	0xbc8f455c	-0.017489128
3	0x3c905911	0.017620595
