breakout/model/target_net_state_dict.pt (torch_old, 177756 bytes, 20 tensors)

conv1.weight f4 [16, 4, 5, 5]
0.13687871 -0.06490595 -0.3005523 -0.12217994 0.05264269 0.083731994 -0.23780647 -0.5085723
-0.2874272 0.31116688 0.02492626 -0.03292104 -0.7597906 -0.07391536 -0.1891581 0.37605438
0.34150186 0.131065 -0.0774337 0.06383012 -0.09390908 -0.010405424 0.010675627 0.35766643
0.040017873 0.1092191 0.6426573 0.66736305 0.48259166 -0.057487283 0.5240453 -0.0032499577
0.9485502 0.6040595 0.24302255 0.24248831 0.20614637 -0.72448397 0.11003269 -0.26058245
0.5718545 0.3765309 0.113324076 0.4485624 0.37129167 -0.106296636 -0.23106478 0.065800734
0.23757504 -0.18131313 0.21952039 0.24944402 0.46428117 0.111072764 -0.018611338 0.28127912
0.03363322 0.8185236 0.5415198 -0.1883267 -0.40462866 -0.112257384 -0.07232095 -0.19931498
0.10143971 -0.5421924 0.15890197 -0.22805879 0.15257858 -0.40384266 -0.54778624 0.06636931
0.105919175 0.17060849 -0.010002015 -0.41014105 -0.8052863 -0.7469665 -0.6123736 -0.3285112
-0.053818516 -0.4135814 -0.22536993 -0.5111287 -0.44214803 -0.053513527 -0.12167404 -0.46907055
-0.3709574 -0.87509775 0.016407426 0.34259638 0.5217018 -0.057364095 0.37838686 -0.629573
0.13351351 -0.33313194 0.541346 0.2895202 -0.09713132 -0.15286146 -0.27026075 0.14585902
-0.008615229 -0.1729123 -0.17244641 -0.06901307 -0.1303763 -0.27960312 -0.10366747 -0.03181026
-0.011296221 -0.0063191676 0.1332453 0.08381792 0.049961757 0.07246899 0.009309933 0.020139651
-0.08033847 0.067671716 -0.01782072 0.1392382 -0.007840092 0.029164663 -0.26918522 -0.13142036
-0.09181158 -0.16040461 -0.026291737 -0.095382184 -0.0071789045 -0.08485463 -0.0894756 0.053026024
-0.23231578 -0.26460415 0.054665234 0.3323808 -0.0885637 0.055904496 0.12577052 0.22833021
0.06653155 -0.07066744 0.077667885 -0.26633337 0.007538407 0.0325678 -0.21041766 0.24681896
0.08233564 -0.033742663 -0.090137996 0.08434519 0.16086245 0.20560634 -0.25492576 0.033399098
-0.05741506 -0.031232288 -0.2868181 0.42373517 0.18613657 0.17651819 0.19759138 0.2731416
0.23855883 -0.2671744 0.033861298 -0.07490906 0.35907942 0.091026604 0.23941071 -0.31793725
0.16681138 0.15111092 0.15853101 -0.047697842 -0.35343358 0.14685759 0.27993014 -0.023385173
-0.012564541 0.015372974 -0.1367922 -0.11522527 0.26655135 -0.18323614 0.22257645 0.15328589
0.15313312 -0.47267732 -0.016882816 -0.025822988 0.13871776 -0.098768376 0.21725166 -0.33622977
0.047156606 0.22711968 0.2366818 0.102611154 0.17764126 0.037404034 0.07959147 -0.060022272
0.0055556716 0.089148164 0.004968386 -0.06550314 -0.06444995 -0.12872687 -0.00958377 -0.03444443
-0.065589614 0.061395787 0.005135587 -0.024474159 -0.079929866 -0.111493275 -0.0862133 0.049220435
-0.10677952 0.14156401 0.17565605 0.171713 0.07816301 0.13781025 0.049185872 0.09255349
0.042274762 -0.021094223 0.11206838 0.039448623 -0.109062366 0.04612101 0.02208766 -0.05292953
0.08078335 0.09359438 -0.040533528 0.10442681 0.07309799 -0.09191639 0.014770397 0.03457595
-0.065038964 -0.0096684825 0.20616153 0.12072503 0.13110627 0.23806176 0.12087595 0.08286597
00000000: ef29 0c3e 69ed 84bd fee1 99be 7a39 fabd
00000010: dc9f 573d ae7b ab3d 8a83 73be cb31 02bf
00000020: a829 93be 4451 9f3e 2832 cc3c 36d8 06bd
00000030: a381 42bf f060 97bd a9b2 41be 338a c03e
00000040: 55d9 ae3e e735 063e 8f95 9ebd 5eb9 823d
00000050: 6753 c0bd 837b 2abc d3e8 2e3c 0e20 b73e
00000060: c8e9 233d 43ae df3d 3085 243f 4ed8 2a3f
00000070: 4116 f73e c977 6bbd d527 063f 3efd 54bb
00000080: 30d4 723f a5a3 1a3f e7da 783e db4e 783e
00000090: 0918 533e c877 39bf d258 e13d 106b 85be
000000a0: 0e65 123f a8c8 c03e 7416 e83d f9a9 e53e
000000b0: f119 be3e 0db2 d9bd 3f9c 6cbe 89c2 863d
000000c0: df46 733e 26aa 39be f4c9 603e 416e 7f3e
000000d0: 43b6 ed3e 1e7a e33d ce76 98bc d103 903e
000000e0: fdc2 093d c38a 513f 0ba1 0a3f b7d8 40be
000000f0: 7d2b cfbe 33e7 e5bd 021d 94bd 3a19 4cbe
00000100: 9fbf cf3d 1fcd 0abf 33b7 223e 3e88 69be
00000110: 8f3d 1c3e 77c4 cebe b83b 0cbf a2ec 873d
00000120: 27ec d83d feb3 2e3e 7edf 23bc 02fe d1be
00000130: 3e27 4ebf 3239 3fbf 84c4 1cbf 9f32 a8be
00000140: ce70 5cbd f1c0 d3be 60c7 66be 55d9 02bf
00000150: 3a61 e2be 0031 5bbd 3d30 f9bd 042a f0be
00000160: 21ee bdbe 6806 60bf de68 863c cb68 af3e
00000170: 408e 053f 9df6 6abd ecbb c13e b22b 21bf
00000180: c4b7 083e 4590 aabe a795 0a3f fe3b 943e
00000190: c9ec c6bd b787 1cbe 9e5f 8abe 115c 153e
000001a0: e426 0dbc ec0f 31be cb95 30be b956 8dbd
000001b0: 5d81 05be 2428 8fbe 9c4f d4bd 7a4b 02bd
000001c0: c913 39bc 0511 cfbb 7571 083e bba8 ab3d
000001d0: b3a4 4c3d 9f6a 943d b088 183c e9fb a43c
000001e0: 7f88 a4bd 7897 8a3d c2fc 91bc 7594 0e3e
000001f0: bb73 00bc bbea ee3c a5d2 89be 0f93 06be
00000200: b607 bcbd 1b41 24be c561 d7bc bc57 c3bd
00000210: 043d ebbb 44c8 adbd fc3e b7bd d131 593d
00000220: 30e4 6dbe 327a 87be a7e8 5f3d d12d aa3e
00000230: e360 b5bd 1dfc 643d fdc9 003e 65cf 693e
00000240: b141 883d 17ba 90bd 5710 9f3d d95c 88be
00000250: be04 f73b d065 053d ba77 57be 1cbe 7c3e
00000260: 979f a83d bf35 0abd 459a b8bd 2cbd ac3d
00000270: 20b9 243e 788a 523e a185 82be 7ecd 083d
00000280: 0e2c 6bbd dbda ffbc d2d9 92be d1f3 d83e
00000290: 969a 3e3e 2fc1 343e 6555 4a3e 37d9 8b3e
000002a0: c448 743e 15cb 88be 25b2 0a3d ec69 99bd
000002b0: 42d9 b73e 286c ba3d 1528 753e acc8 a2be
000002c0: 9ad0 2a3e d2bc 1a3e f455 223e d05e 43bd
000002d0: 3ff5 b4be d661 163e 0153 8f3e 4392 bfbc
000002e0: 81db 4dbc edde 7b3c 4113 0cbe 3afb ebbd
000002f0: 6b79 883e 41a2 3bbe 15eb 633e faf6 1c3e
00000300: eece 1c3e c302 f2be d54d 8abc bb8a d3bc
00000310: 070c 0e3e 1347 cabd 3877 5e3e 4f26 acbe
00000320: 4927 413d 1092 683e b75c 723e cc25 d23d
00000330: 97e7 353e f934 193d da00 a33d ead9 75bd
00000340: 5a0c b63b 5093 b63d d8cd a23b 8326 86bd
00000350: 56fe 83bd fad0 03be 3f05 1dbc 9a15 0dbd
00000360: d953 86bd 267a 7b3d 6d48 a83b 087e c8bc
00000370: 45b2 a3bd 9656 e4bd 9990 b0bd 5e9b 493d
00000380: 39af dabd 28f6 103e 2edf 333e 88d5 2f3e
00000390: ee13 a03d 211e 0d3e 2077 493d af8c bd3d
000003a0: 4d28 2d3d cbcd acbc 1b84 e53d e194 213d
000003b0: 175c dfbd 62e9 3c3d 2ef1 b43c a3cc 58bd
000003c0: be71 a53d 69ae bf3d 7c06 26bd b9dd d53d
000003d0: 66b4 953d a93e bcbd 89ff 713c 839f 0d3d
000003e0: 2633 85bd 8e68 1ebc 021c 533e af3e f73d
000003f0: b940 063e 76c6 733e cf8d f73d a2b5 a93d

conv1.bias f4 [16]
0.4068789 0.13587649 -0.03464652 0.015948437 0.048143204 0.15807869 0.12736996 -0.13201226
0.040138382 0.21753348 0.09460971 0.6129343 -0.23064357 -0.16808599 -0.39130256 0.6130178
00000000: 6e52 d03e 3523 0b3e 82e9 0dbd 4ca6 823c
00000010: cf31 453d 61df 213e 456d 023e 392e 07be
00000020: 2568 243d 19c1 5e3e bcc2 c13d 43e9 1c3f
00000030: d42d 6cbe bc1e 2cbe cf58 c8be bcee 1c3f

bn1.weight f4 [16]
3.8272038 5.8188167 0.1725438 5.415712 -0.0009469655 2.5487847 3.455983 2.570778
3.4909296 2.5334165 0.21850337 5.1690125 1.8742679 2.746529 4.036142 3.7375164
00000000: e8f0 7440 bf33 ba40 52af 303e 834d ad40
00000010: c73d 78ba 4a1f 2340 d32e 5d40 a087 2440
00000020: 646b 5f40 7f23 2240 59bf 5f3e 8d68 a540
00000030: 03e8 ef3f 22c7 2f40 1328 8140 7833 6f40

bn1.bias f4 [16]
-2.3139932 -3.2229886 -0.35202813 -0.7098523 -0.003547598 0.06924663 0.5897334 -1.2797294
-0.8322695 -0.27932307 -0.43564388 -2.016359 -1.2505298 -0.9171018 -0.28021675 -0.15716757
00000000: 7718 14c0 7245 4ec0 083d b4be e1b8 35bf
00000010: d17e 68bb 2dd1 8d3d c5f8 163f 2cce a3bf
00000020: 9d0f 55bf 6f03 8fbe b70c dfbe 070c 01c0
00000030: 5c11 a0bf 2fc7 6abf 9278 8fbe 89f0 20be

bn1.running_mean f4 [16]
0.37700132 0.09408864 0.55144846 -0.041603897 0.106904685 0.17997141 0.0131220585 -0.17718206
0.11110239 0.18773586 1.1756195 0.5683806 -0.32424718 -0.20680688 -0.2588516 0.77947396
00000000: 5106 c13e 8bb1 c03d ba2b 0d3f d968 2abd
00000010: d8f0 da3d 6d4a 383e e7fd 563c 376f 35be
00000020: a689 e33d d43d 403e b37a 963f 6481 113f
00000030: ba03 a6be 2fc5 53be 3288 84be 9b8b 473f

bn1.running_var f4 [16]
0.020366568 0.019999972 0.8511859 0.1511 0.009416916 0.3225659 0.050956063 0.025624251
0.021667602 0.06945025 2.9129434 0.016732188 0.35734144 0.015808051 0.57494915 0.14843939
00000000: cad7 a63c fbd6 a33c 52e7 593f f5b9 1a3e
00000010: 6949 1a3c 5c27 a53e 4eb7 503d f3e9 d13c
00000020: 4180 b13c ef3b 8e3d aa6d 3a40 f111 893c
00000030: 75f5 b63e e37f 813c de2f 133f 7f00 183e

conv2.weight f4 [32, 16, 5, 5]
-1.0157096 -0.819109 -0.6491075 0.92235637 0.19749413 0.42872456 0.9873437 0.18373075
1.0324233 -0.5662218 0.4820931 0.3735231 -0.52268755 0.23118055 -0.26000273 0.51901376
0.72778296 1.5806257 0.16437685 -1.4932299 -1.2577045 -0.5349331 0.2903924 -1.0610255
0.6072979 -0.8027339 0.3373268 0.3208358 0.7056186 0.8597844 -1.8553447 -0.7722404
-2.2763352 1.1939095 0.55465096 0.84244955 -0.47517398 0.03666553 0.26384664 0.48679438
0.24226323 1.0706997 -0.91570085 -0.50023484 -0.2527932 -0.6101791 0.047685124 0.42118752
-3.3661761 -1.6806288 -0.07792782 -0.021444058 0.0079221185 -0.040264733 -0.04377262 -0.029331978
-0.007207457 -0.07215534 -0.07605626 -0.033896137 0.06921723 0.010143387 -0.042173963 0.06134313
0.015322953 4.5793247e-05 0.069514155 0.010480255 0.06302265 -0.021053692 0.00162932 0.011313031
0.0112663 0.06899769 0.05472885 -0.82346106 -0.7772094 0.3151295 0.9385655 0.02199058
0.2816294 -0.83680505 0.25496992 1.3380466 0.21499088 0.09503738 0.1330061 1.0753925
0.18003546 -0.33187115 -1.8030064 -0.118315905 0.8082362 0.7874868 -0.029792372 0.82178515
-0.7691612 -0.7772911 -0.93913376 -0.40845773 0.040071465 0.029378882 -0.008115427 -0.032062378
-0.0069557237 -0.054093823 0.04297919 0.014248222 -0.04194917 -0.01556022 -0.03509138 -0.041168787
-0.059158478 -0.05473188 0.020530215 -0.014667142 0.004123522 0.019390393 0.044863936 0.030236976
0.053230036 0.04377558 -0.020587677 0.039158635 0.04258787 0.2278585 0.015277808 0.302681
-0.03861111 -0.50741255 -0.93156767 0.11352956 0.9663074 -0.06903059 0.7216488 -1.0185107
0.23685855 0.41585723 -0.1380233 -0.11917264 0.44040716 0.4814533 0.9755349 0.06426606
-0.72374284 -0.389101 -0.2885956 -0.112231925 -0.491521 0.7464649 -2.1576867 -1.0494497
-1.3833529 -1.5562861 0.6862552 -0.75115424 -0.35389343 0.6917913 0.055965338 -1.3241277
1.07768 -0.64681256 -0.03968647 0.3811567 1.1482122 -0.37466532 1.7527338 -0.65014035
0.6688258 -0.0023630213 0.62754786 -0.5616778 -0.23999196 -0.17102364 0.6046883 -0.15539254
0.018893195 -1.3818829 -0.5651653 -1.2195373 -0.11849064 0.5064192 -1.0542579 -0.7690702
0.34291816 1.2861966 -0.0869446 0.46249515 -0.2995813 -1.2629093 -2.1476407 -1.4408393
-0.707859 0.89148945 0.7038733 0.43162695 -0.843457 -0.91942304 0.1341572 -0.59724504
0.65258884 0.088031135 -0.29022858 -0.36628333 0.4363429 0.29730248 0.096826516 -0.5849269
0.25623164 0.38691434 0.67708254 0.8988283 0.45919323 0.11204424 0.12060218 -0.936182
-0.8990614 -1.3397381 -1.6637131 -1.3517603 0.8329127 1.009374 -0.31834468 0.94616103
-2.1479092 -0.15675034 -0.9082472 -0.6999064 0.17542617 -0.24490298 0.29826564 -0.61097395
-0.42903394 -1.3067019 -0.7072322 1.3856316 0.5066515 0.020604428 0.13009848 -0.19960079
-0.3456788 -0.08544486 2.776349 0.19026357 0.17362377 1.227046 -0.057257485 1.2443104
0.82194954 0.191732 0.032457553 -0.01057325 -0.110527255 -0.08928055 0.0048634475 -0.08715789
00000000: c602 82bf 21b1 51bf e92b 26bf 8c1f 6c3f
00000010: e73b 4a3e c981 db3e 8fc2 7c3f ea23 3c3e
00000020: 7226 843f e9f3 10bf e8d4 f63e 6b3e bf3e
00000030: dace 05bf 98ba 6c3e 141f 85be 16de 043f
00000040: fc4f 3a3f f151 ca3f 6852 283e 2822 bfbf
00000050: 76fc a0bf 60f1 08bf 50ae 943e afcf 87bf
00000060: e077 1b3f f87f 4dbf 19b6 ac3e 9744 a43e
00000070: 6ca3 343f d51a 5c3f ef7b edbf 8cb1 45bf
00000080: 7aaf 11c0 07d2 983f 9bfd 0d3f c6aa 573f
00000090: 014a f3be 982e 163d e816 873e 1d3d f93e
000000a0: da13 783e b00c 893f 5f6b 6abf 640f 00bf
000000b0: 1c6e 81be b334 1cbf 7a51 433d e4a5 d73e
000000c0: 6e6f 57c0 d81e d7bf 9f98 9fbd 73ab afbc
000000d0: c6cb 013c a2ec 24bd eb4a 33bd 9e49 f0bc
000000e0: 882c ecbb 2ec6 93bd 62c3 9bbd add6 0abd
000000f0: c3c1 8d3d 7330 263c 9bbe 2cbd ef42 7b3d
00000100: 200d 7b3c 2012 4038 705d 8e3d 60b5 2b3c
00000110: 0512 813d cb78 acbc e88e d53a 4b5a 393c
00000120: 4a96 383c a94e 8d3d 5c2b 603d 58ce 52bf
00000130: 32f7 46bf a758 a13e d445 703f 9725 b43c
00000140: bb31 903e db38 56bf 6b8b 823e 1c45 ab3f
00000150: 9226 5c3e f5a2 c23d c032 083e 76a6 893f
00000160: 375b 383e 04eb a9be eac8 e6bf 9c4f f2bd
00000170: 91e8 4e3f bc98 493f 220f f4bc 8360 523f
00000180: c0e7 44bf 8dfc 46bf 126b 70bf 5f21 d1be
00000190: fa21 243d fbab f03c 91f6 04bc d753 03bd
000001a0: d7ec e3bb 7c91 5dbd f20a 303d 6071 693c
000001b0: e5d2 2bbd 4bf0 7ebc fbbb 0fbd 9aa0 28bd
000001c0: 2950 72bd 892e 60bd fb2e a83c 744e 70bc
000001d0: 9c1e 873b 9ad8 9e3c 3fc3 373d 89b3 f73c
000001e0: bd07 5a3d 064e 333d 7da7 a8bc ce64 203d
000001f0: 9e70 2e3d bd53 693e c54f 7a3c 01f9 9a3e
00000200: af26 1ebd cae5 01bf 387b 6ebf 3082 e83d
00000210: ec5f 773f e95f 8dbd fabd 383f 8f5e 82bf
00000220: 0c8b 723e 3deb d43e fb55 0dbe c910 f4bd
00000230: 0c7d e13e 0c81 f63e a8bc 793f ed9d 833d
00000240: 3647 39bf 3f38 c7be cdc2 93be dad9 e5bd
00000250: a4a8 fbbe 5318 3f3f 8a17 0ac0 5e54 86bf
00000260: b511 b1bf 6234 c7bf 6cae 2f3f a54b 40bf
00000270: 8531 b5be 3c19 313f e93b 653d 047d a9bf
00000280: 6bf1 893f 8295 25bf 488e 22bd f926 c33e
00000290: 9ef8 923f 22d4 bfbe 9559 e03f 996f 26bf
000002a0: 2b38 2b3f ebdc 1abb faa6 203f 1eca 0fbf
000002b0: 74c0 75be d220 2fbe dacc 1a3f 391f 1fbe
000002c0: e7c5 9a3c 8ae1 b0bf acae 10bf cc19 9cbf
000002d0: 38ab f2bd b0a4 013f ecf1 86bf c9e1 44bf
000002e0: f892 af3e 17a2 a43f 0310 b2bd 2acc ec3e
000002f0: b862 99be 03a7 a1bf f272 09c0 6c6d b8bf
00000300: 3f36 35bf a738 643f 0a31 343f 35fe dc3e
00000310: ccec 57bf 4f5f 6bbf 8160 093e 0de5 18bf
00000320: 1010 273f ab49 b43d d798 94be 7d89 bbbe
00000330: 5668 df3e 0838 983e fb4c c63d c5bd 15bf
00000340: cb30 833e a319 c63e 4855 2d3f 9d19 663f
00000350: 601b eb3e 7377 e53d 47fe f63d a0a9 6fbf
00000360: e328 66bf 8a7c abbf 8df4 d4bf 7b06 adbf
00000370: c439 553f 2b33 813f 13fe a2be 9c37 723f
00000380: 5877 09c0 2983 20be e382 68bf 112d 33bf
00000390: eba2 333e d9c7 7abe 46b6 983e ca68 1cbf
000003a0: 56aa dbbe 0242 a7bf 2b0d 35bf 605c b13f
000003b0: eab3 013f 9eca a83c 8938 053e 2664 4cbe
000003c0: d0fc b0be b7fd aebd b4af 3140 74d4 423e
000003d0: 6eca 313e d80f 9d3f d386 6abd 9045 9f3f
000003e0: 496b 523f 6555 443e 36f2 043d 6d3b 2dbc
000003f0: 1d5c e2bd b9d8 b6bd 8e5d 9f3b d67f b2bd

conv2.bias f4 [32]
0.51317614 -0.66475195 0.016251123 0.426329 -0.3568611 0.2487647 -0.22673571 -0.5782349
-0.34305707 -0.029980553 0.06461572 0.17472574 0.3648817 0.10339943 0.98981684 -0.5047539
-0.6140763 0.03098007 -0.36741322 -0.55329317 -0.5164516 -0.10468411 -0.016174179 0.42381325
0.110754155 -0.39103183 0.38648224 0.33302635 0.109208 -0.25904983 0.49416253 -0.3952757
00000000: 835f 033f 2f2d 2abf 1321 853c cb47 da3e
00000010: 80b6 b6be 2cbc 7e3e 682d 68be 3407 14bf
00000020: 2da5 afbe c799 f5bc 3f55 843d 4eeb 323e
00000030: c6d1 ba3e 15c3 d33d a364 7d3f 8d37 01bf
00000040: 1b34 1dbf eac9 fd3c 961d bcbe 9fa4 0dbf
00000050: 2c36 04bf 9f64 d6bd b67f 84bc 0dfe d83e
00000060: 13d3 e23d 5335 c8be 00e1 c53e 6e82 aa3e
00000070: 72a8 df3d 2ea2 84be df02 fd3e 9461 cabe

bn2.weight f4 [32]
3.4617164 0.77527004 1.907495 2.5526273 2.935635 0.0078036706 0.008048504 2.902413
1.3694154 3.3988023 0.0147943655 3.2853727 4.317547 1.6117634 2.032484 2.428488
4.2217155 3.5927532 0.0045233364 4.8738203 2.9864614 2.6506925 2.5603182 2.6026266
3.4034138 0.011879484 2.0728807 1.0241894 2.2629735 4.1993175 0.0031883167 2.686257
00000000: c38c 5d40 1978 463f cc28 f43f 3f5e 2340
00000010: 72e1 3b40 efb5 ff3b dfdd 033c 22c1 3940
00000020: 0149 af3f fa85 5940 1164 723c 8c43 5240
00000030: 5829 8a40 434e ce3f 3814 0240 596c 1b40
00000040: 4b18 8740 abef 6540 7f38 943b 56f6 9b40
00000050: 2f22 3f40 f2a4 2940 41dc 2340 6f91 2640
00000060: 88d1 5940 2ba2 423c 14aa 0440 a318 833f
00000070: 8fd4 1040 cf60 8640 14f3 503b a2eb 2b40

bn2.bias f4 [32]
2.9247878 -1.3119473 -0.87791175 -1.0469687 2.3354187 -0.29040974 -0.3874659 -0.3177501
3.1343722 0.22419623 -0.39802903 0.47781512 1.0860028 -1.2092407 -0.6161007 -1.1452029
0.44063097 -0.060023636 -0.24643342 2.6593425 -0.67329717 3.2201836 0.5404535 0.48271587
0.88079566 -0.486904 4.400703 -1.4819114 -0.73248947 3.122381 -0.21813686 3.1627836
00000000: b92f 3b40 e4ed a7bf d3be 60bf 1203 86bf
00000010: 8077 1540 96b0 94be ee61 c6be 24b0 a2be
00000020: 8e99 4840 b293 653e 76ca cbbe 2fa4 f43e
00000030: 2402 8b3f 66c8 9abf c7b8 1dbf 0296 92bf
00000040: 629a e13e 58db 75bd 0b59 7cbe ab32 2a40
00000050: 345d 2cbf 7d17 4e40 295b 0a3f 8926 f73e
00000060: d37b 613f 7b4b f9be 8fd2 8c40 46af bdbf
00000070: 6e84 3bbf 17d5 4740 455f 5fbe 0c6b 4a40

bn2.running_mean f4 [32]
3.0337234 -1.8738241 -0.2624294 -4.9560466 18.083181 -0.5405001 -4.774023 13.76996
1.8189406 -13.377275 -2.1204355 22.121712 -11.1253395 6.944601 -21.129765 -0.1627151
-14.088658 8.359423 -7.177259 -44.470287 -16.551521 10.38204 9.761914 -20.058758
-4.670652 -3.107464 -10.885065 14.128454 -4.6947455 -9.043352 2.3394198 11.106051
00000000: 8628 4240 78d9 efbf 255d 86be ef97 9ec0
00000010: 5baa 9041 375e 0abf ccc4 98c0 c251 5c41
00000020: 0cd3 e83f 5209 56c1 37b5 07c0 44f9 b041
00000030: 6401 32c1 2c3a de40 c209 a9c1 ca9e 26be
00000040: 256b 61c1 32c0 0541 1bac e5c0 93e1 31c2
00000050: 8469 84c1 d61c 2641 cd30 1c41 5678 a0c1
00000060: fb75 95c0 b1e0 46c0 3a29 2ec1 260e 6241
00000070: 5b3b 96c0 92b1 10c1 0eb9 1540 63b2 3141

bn2.running_var f4 [32]
319.59766 25.646532 33.212578 48.66346 63.013435 21.107712 7.623678 643.7513
112.673904 107.053894 37.202915 451.31198 822.0296 113.50002 1834.29 88.22214
215.33081 252.76173 12.904699 724.2843 85.16407 185.12222 154.5968 407.75153
345.61588 59.96604 108.2202 69.924126 148.65666 865.75586 19.854437 137.67194
00000000: 80cc 9f43 192c cd41 aed9 0442 62a7 4242
00000010: c20d 7c42 98dc a841 2cf5 f340 15f0 2044
00000020: 0a59 e142 981b d642 c9cf 1442 efa7 e143
00000030: e581 4d44 0300 e342 4849 e544 bc71 b042
00000040: b054 5743 01c3 7c43 a679 4e41 3212 3544
00000050: 0154 aa42 4a1f 3943 c898 1a43 32e0 cb43
00000060: d5ce ac43 3add 6f42 be70 d842 27d9 8b42
00000070: 1ba8 1443 6070 5844 e3d5 9e41 04ac 0943

conv3.weight f4 [32, 32, 5, 5]
1.4269619 0.7002244 0.43757102 -0.5590857 0.46218383 -0.00862258 0.24417181 0.17414024
0.5026582 -0.4475581 0.2676828 0.34204173 0.112903036 0.092521966 1.0119109 0.05289378
0.41092858 0.5280225 0.7969685 0.38526753 0.22996272 -1.0272292 0.51492655 0.060540643
0.32805035 1.5165313 1.2152385 0.93635553 0.00852265 0.7795587 -0.571601 1.046488
0.319532 0.38196906 -1.0447682 1.1162522 0.42226884 0.39642042 0.24552189 0.2081791
0.57544863 0.7975004 -0.029509952 2.6966343 -0.35419875 -0.06767999 -0.061039533 -0.088790745
-2.685973 0.18204941 1.7764442 -0.13406627 -0.4123778 0.31157207 0.24800262 0.8588365
-0.064666174 -0.35441464 0.036395397 -0.026553262 0.51392317 0.13406582 -0.2467583 -1.3197105
-0.5197711 1.306605 -0.4743112 0.4124952 2.063652 -0.9949536 -0.02610338 1.0605057
-1.284366 -0.5225024 2.9546268 0.16520585 -0.09352402 -0.5837791 -0.9720627 0.59826064
0.54471034 0.12474031 1.0107933 0.97141975 0.942192 -1.0665699 -0.6360421 0.019994179
0.36178726 -0.482409 1.1264625 -0.081667565 0.76330423 -0.59213835 0.11634327 0.2697657
-0.63502103 0.5708123 1.6669464 0.84908676 0.011015068 0.8738461 -0.96717376 -0.2364819
-0.2065298 -0.65414935 0.351086 0.68015635 0.4869328 0.24580409 0.23152901 -0.19267774
-0.08185791 -1.3899231 1.5481038 -0.25002795 -0.0805178 0.44990286 0.14243446 -0.0050461134
-0.23118721 0.57559574 0.22131857 1.7013854 0.336722 -0.33306608 0.25323477 0.51233774
-0.011892225 -0.04437079 -0.09280338 -0.025532873 0.456649 -0.24790376 -0.20475484 -0.10048787
-0.31453818 0.04372545 0.37348637 0.17621864 0.7760914 0.087157525 0.0023273574 0.35298675
-0.06980986 0.1343161 0.31066528 0.43213448 0.13864544 0.3861426 0.15169272 0.6477287
0.05210267 0.24633534 -0.6347637 -0.2657536 -0.026152907 -0.03755097 0.17334081 0.0060234964
-0.04159915 -0.19973926 -0.11184703 0.4152624 0.6769257 0.4257401 -0.07377678 -0.26681817
-0.039191935 -0.35565665 0.30568254 -0.28254253 0.32128707 0.28879598 0.3960477 0.6766722
-0.73511523 -0.20292781 -0.9249604 -0.2234693 0.6574854 0.14697269 0.45454708 -0.38380513
0.1810153 -0.47901842 0.35809013 -0.6150697 1.3250424 0.17435692 -1.007525 0.10254263
-0.09409801 0.27464265 -0.6495108 2.5348935 1.326621 0.44423988 -0.6083263 -0.32426283
-0.21294932 1.212196 -0.6240313 0.5472487 0.17282255 -0.2141742 0.18091774 -0.5113571
0.6845386 -0.6115572 -0.7098135 -0.63743895 -0.58289474 -0.43198174 -0.5314649 -0.4612187
-0.32296506 -0.059972856 -0.45288983 -1.4128176 -0.28121895 0.67329186 0.41154617 -2.1107612
0.61341065 0.20243858 -0.08463721 -0.56005996 -0.9028815 0.63637257 1.3892016 0.7160657
0.0710254 0.06052299 -0.45413283 -0.6267709 -0.7030437 -0.29136223 -0.084157 1.5890986
-0.40102062 0.44081613 0.08670775 -0.16258666 0.27004775 -2.6202514 -0.7382189 0.76654136
0.8021746 -0.32515055 0.18741463 -0.23056218 -0.20478095 0.53886944 -0.32361102 -0.031904947
00000000: b0a6 b63f e841 333f 4f09 e03e 3e20 0fbf
00000010: 5ca3 ec3e b945 0dbc 2d08 7a3e d251 323e
00000020: 35ae 003f 5626 e5be b80d 893e 1820 af3e
00000030: b539 e73d 287c bd3d 4c86 813f 26a7 583d
00000040: 3b65 d23e 7c2c 073f 2106 4c3f c941 c53e
00000050: 597b 6b3e 3f7c 83bf 3ad2 033f 77f9 773d
00000060: 37f6 a73e b31d c23f ef8c 9b3f ffb4 6f3f
00000070: 96a2 0b3c 2991 473f 7154 12bf 52f3 853f
00000080: b399 a33e 7391 c33e f7ba 85bf 5ae1 8e3f
00000090: 9f33 d83e 9ef7 ca3e 176a 7b3e e72c 553e
000000a0: 9a50 133f fc28 4c3f dbbe f1bc a895 2c40
000000b0: 8a59 b5be ce9b 8abd 9704 7abd ecd7 b5bd
000000c0: fbe6 2bc0 296b 3a3e 8662 e33f ab48 09be
000000d0: 2f23 d3be 6086 9f3e 66f4 7d3e b5dc 5b3f
000000e0: b36f 84bd d675 b5be 5713 153d 3a86 d9bc
000000f0: 7890 033f 8d48 093e 35ae 7cbe 46ec a8bf
00000100: b80f 05bf d53e a73f ebd8 f2be 9232 d33e
00000110: e012 0440 47b5 7ebf c1d6 d5bc a7be 873f
00000120: 1b66 a4bf b8c2 05bf 9b18 3d40 b92b 293e
00000130: 8589 bfbd 8c72 15bf 1ad9 78bf 9c27 193f
00000140: 2372 0b3f d977 ff3d ad61 813f f7ae 783f
00000150: 7f33 713f 5d85 88bf a8d3 22bf d5ca a33c
00000160: 2e3c b93e 50fe f6be ec2f 903f 5341 a7bd
00000170: e867 433f 6196 17bf 6145 ee3d bb1e 8a3e
00000180: bd90 22bf c120 123f 805e d53f c05d 593f
00000190: 8b78 343c 61b4 5f3f b398 77bf 5028 72be
000001a0: 8c7c 53be 5576 27bf 8bc1 b33e ba1e 2e3f
000001b0: 424f f93e 11b4 7b3e f115 6d3e 504d 45be
000001c0: 1fa5 a7bd 00e9 b1bf 4428 c63f aa03 80be
000001d0: 84e6 a4bd ab59 e63e 57da 113e de59 a5bb
000001e0: 57bc 6cbe 3e5a 133f 56a1 623e ffc6 d93f
000001f0: d366 ac3e a387 aabe fda7 813e 9128 033f
00000200: 9bd7 42bc 25be 35bd b30f bebd 512a d1bc
00000210: e6cd e93e 7cda 7dbe 41ab 51be 96cc cdbd
00000220: 260b a1be 7519 333d 9b39 bf3e a972 343e
00000230: edad 463f a57f b23d 9486 183b aeba b43e
00000240: 79f8 8ebd 298a 093e 850f 9f3e bb40 dd3e
00000250: 12f9 0d3e 7cb4 c53e 5655 1b3e 8cd1 253f
00000260: 9c69 553d 553f 7c3e e07f 22bf db10 88be
00000270: 9f3e d6bc 0ccf 19bd 4180 313e c060 c53b
00000280: df63 2abd 7388 4cbe 0e10 e5bd 469d d43e
00000290: 014b 2d3f 9bfa d93e 4818 97bd 649c 88be
000002a0: b987 20bd a118 b6be 6c82 9c3e 6aa9 90be
000002b0: bd7f a43e 11dd 933e c4c6 ca3e 643a 2d3f
000002c0: 8330 3cbf 4fcc 4fbe 34ca 6cbf 23d5 64be
000002d0: f750 283f 0280 163e 65ba e83e 1b82 c4be
000002e0: 135c 393e e741 f5be 9757 b73e 3575 1dbf
000002f0: fd9a a93f 9f8a 323e 94f6 80bf df01 d23d
00000300: 75b6 c0bd f69d 8c3e 5746 26bf b23b 2240
00000310: b8ce a93f 6973 e33e 46bb 1bbf c705 a6be
00000320: 630f 5abe 3d29 9b3f 84c0 1fbf 7e18 0c3f
00000330: 65f8 303e 7b50 5bbe 8042 393e 4de8 02bf
00000340: ec3d 2f3f 038f 1cbf 56b6 35bf 332f 23bf
00000350: 9738 15bf b62c ddbe 150e 08bf dc24 ecbe
00000360: ad5b a5be 19a6 75bd 2de1 e7be 35d7 b4bf
00000370: eefb 8fbe db5c 2c3f 2eb6 d23e b616 07c0
00000380: 7b08 1d3f 0f4c 4f3e 4656 adbd 1760 0fbf
00000390: 3e23 67bf 50e9 223f 5cd1 b13f 1550 373f
000003a0: c475 913d f4e6 773d 1984 e8be 0f74 20bf
000003b0: acfa 33bf 6e2d 95be 815a acbd 9567 cb3f
000003c0: 9352 cdbe a7b2 e13e d593 b13d 1e7d 26be
000003d0: b343 8a3e 33b2 27c0 eafb 3cbf 0e3c 443f
000003e0: 515b 4d3f 227a a6be 9fe9 3f3e 7e18 6cbe
000003f0: 19b2 51be 59f3 093f 58b0 a5be c3ae 02bd

conv3.bias f4 [32]
-0.8266541 0.09692074 -0.89778364 -2.0219805 -1.4035672 -0.0063323784 2.221142 -0.71960837
1.236405 0.47168434 0.76326704 -1.0405155 0.28620252 1.1852992 -1.234661 -1.8981931
-1.0559832 -2.7647495 2.4764693 -0.25360465 1.2603822 0.103634164 0.4402564 -1.22382
0.45467135 -1.1320709 -0.20371465 -0.4140047 1.2773569 0.22801395 0.108111724 1.3673322
00000000: 9a9f 53bf 627e c63d 26d5 65bf 2168 01c0
00000010: 17a8 b3bf d77f cfbb 3127 0e40 4138 38bf
00000020: 8542 9e3f 9c80 f13e 7865 433f 9d2f 85bf
00000030: 2389 923e e2b7 973f 5f09 9ebf fef7 f2bf
00000040: 752a 87bf a8f1 30c0 797e 1e40 78d8 81be
00000050: 3454 a13f 263e d43d 4969 e13e 22a6 9cbf
00000060: afca e83e b3e7 90bf 939a 50be 6df8 d3be
00000070: 6e80 a33f 7d7c 693e ae69 dd3d be04 af3f

bn3.weight f4 [32]
4.9236226 0.0077689863 4.353245 3.063596 4.115899 0.0024590367 3.0069575 4.1794724
1.1601045 2.1321237 3.5257463 2.951087 3.658782 5.601612 3.1106474 5.4073334
2.40419 2.7422943 3.9418797 2.1862 4.0812244 -0.0005269034 4.4607215 1.3966068
2.1727848 1.7215328 1.3155005 3.7061062 2.5592537 0.0051040575 0.008419382 1.4007739
00000000: 518e 9d40 fb92 fe3b c84d 8b40 f511 4440
00000010: 72b5 8340 ca27 213b fe71 4040 3dbe 8540
00000020: 4e7e 943f b774 0840 d4a5 6140 9cde 3c40
00000030: 7c29 6a40 6840 b340 d914 4740 e008 ad40
00000040: 40de 1940 c081 2f40 c247 7c40 b3ea 0b40
00000050: 6499 8240 e31f 0aba 3bbe 8e40 03c4 b23f
00000060: e80e 0b40 305b dc3f 5262 a83f d830 6d40
00000070: d0ca 2340 f03f a73b 73f1 093c 8f4c b33f

bn3.bias f4 [32]
1.5755751 -0.105388634 -0.061010975 6.654587 -0.9186402 -0.063800566 1.799827 -0.16784672
-0.00257017 3.668089 2.2156756 -1.286229 -0.40400743 -0.55400246 -0.6907453 -0.29799542
3.041287 -1.4133654 -1.4510186 3.1062331 2.4766867 -0.0153980125 5.2681513 -0.8955499
3.60184 3.8895586 5.129783 3.603488 4.1353045 -0.16217126 -0.118719175 3.0250363
00000000: 72ac c93f ffd5 d7bd a5e6 79bd 60f2 d440
00000010: 012c 6bbf dfa9 82bd bb60 e63f 03e0 2bbe
00000020: 4c70 28bb f8c1 6a40 a1cd 0d40 27a3 a4bf
00000030: 10da cebe 1bd3 0dbf afd4 30bf db92 98be
00000040: 72a4 4240 28e9 b4bf faba b9bf 86cc 4640
00000050: 0982 1e40 f247 7cbc b294 a840 c242 65bf
00000060: 8c84 6640 87ee 7840 2f27 a440 8c9f 6640
00000070: 6a54 8440 3910 26be 0a23 f3bd 329a 4140

bn3.running_mean f4 [32]
65.37459 -39.43069 22.305855 31.493553 -3.8293529 -2.4061546 -7.291617 19.90518
-11.80466 -93.684364 -10.255465 49.7815 63.787563 119.947296 -233.04857 30.367455
-64.78758 -3.2102313 10.312264 -54.554306 106.563805 0.7570085 -110.0843 -53.368477
-40.323807 -71.38161 35.352394 -39.8125 -1.4003223 -13.498948 25.406693 -72.79583
00000000: cabf 8242 07b9 1dc2 6472 b241 ccf2 fb41
00000010: 1e14 75c0 70fe 19c0 ed54 e9c0 cf3d 9f41
00000020: e3df 3cc1 655e bbc2 6216 24c1 4220 4742
00000030: 7726 7f42 04e5 ef42 6f0c 69c3 8cf0 f241
00000040: 3e93 81c2 6e74 4dc0 09ff 2441 9c37 5ac2
00000050: ab20 d542 4fcb 413f 292b dcc2 5279 55c2
00000060: 944b 21c2 62c3 8ec2 da68 0d42 0040 1fc2
00000070: c33d b3bf b1fb 57c1 e840 cb41 7797 91c2

bn3.running_var f4 [32]
3245.5527 53.46487 1789.1749 1929.4546 881.4767 52.27045 1552.6322 657.88794
2422.7302 391.01303 338.76126 9880.121 5872.1787 4539.2886 15107.195 6341.693
696.54 389.67065 677.3562 231.19012 2467.5774 26.1921 2117.0725 756.6707
319.41632 1522.2126 2763.9478 302.97195 719.14325 39.07113 156.47467 606.9546
00000000: d8d8 4a45 07dc 5542 99a5 df44 8c2e f144
00000010: 825e 5c44 f114 5142 3b14 c244 d478 2444
00000020: af6b 1745 ab81 c343 7161 a943 7c60 1a46
00000030: 6e81 b745 4fda 8d45 c80c 6c46 8b2d c645
00000040: 8f22 2e44 d8d5 c243 cc56 2944 ac30 6743
00000050: 3d39 1a45 6c89 d141 2951 0445 ed2a 3d44
00000060: 4ab5 9f43 ce46 be44 2abf 2c45 697c 9743
00000070: 2bc9 3344 d648 1c42 8479 1c43 18bd 1744

head.weight f4 [4, 800]
1.4797405 0.26195896 -1.1992822 -0.4768072 0.39859185 3.8988965 -0.66503644 -2.455309
-0.06461657 1.752904 -2.8690453 -1.1532887 2.1020517 3.4809737 0.040120743 0.13981347
-0.97475046 0.777362 -0.19930239 -3.9530346 -0.29420167 -0.7197072 0.108427815 -1.7872461
-3.4441953 0.078146964 -0.028286647 0.08903043 -0.07358471 0.010510849 -0.004693992 0.086047195
-0.2543566 0.22549294 0.07173749 -0.30743858 -0.027729025 0.14007029 -0.23703383 0.007276483
0.24428478 0.2787936 -0.15367064 0.13033687 0.3969828 -0.20232677 -0.01759072 -0.16254191
-0.21543464 0.44346473 0.28339353 0.49633145 0.16859363 0.532523 -0.50606185 1.1609885
-2.48785 -3.4324877 -1.3855377 0.15668607 -0.21001169 1.4011877 -0.71870065 -1.6336036
2.0587893 -0.39331925 0.16135359 0.5290097 0.4630096 -0.534957 -0.9270632 -0.89402896
1.4923495 2.9532766 -4.072879 1.2542692 1.0922877 1.0384752 0.9870438 0.9246696
0.76634043 0.7042344 0.45894194 0.34038466 0.78703374 0.41182157 0.078339346 0.34671697
0.3644671 0.58871007 1.0978696 0.80326015 0.4935878 0.66875756 0.98021483 0.4871983
0.46673974 0.6859687 1.0590181 1.7313968 -0.26317924 0.499691 -1.4096011 0.94759357
2.1164823 0.40761486 1.9225358 1.228389 -0.43525457 -1.8506451 -0.77965343 -2.4295924
-0.21519525 1.4795468 -2.9988265 -2.1870258 -0.94462097 1.4221499 -1.1428797 -2.397114
0.85651064 -1.3791089 -0.9287498 -1.1823039 -3.8337042 -0.060505405 -0.2462705 -0.24530955
0.012012363 0.13033226 -0.12330626 0.11158546 -0.028389487 0.15980475 0.29649305 -0.124373764
-0.19320098 0.010396118 0.17576334 -0.07443738 -0.21963872 -0.21989383 0.062449843 -0.13508448
0.08491896 -0.102656364 0.041171834 -0.057530906 0.013020232 -0.3602078 2.119183 0.09668152
0.312902 0.80550617 0.5866387 0.88948786 -0.10387815 -0.39417872 -0.2935768 1.8079929
0.9523292 0.6249532 -0.40652883 1.4043959 1.1711497 0.5379277 -0.9436784 -0.089189485
-0.005332181 -0.2926095 4.7607307 -1.0061566 -0.9632288 -1.5931829 3.4911602 -1.2204487
-0.749927 0.5321893 0.15056898 2.2530465 0.88954854 -1.8823986 -2.2278593 -2.0329478
-3.2164114 2.0045397 1.5399374 -0.47329763 -0.20554198 -1.5498035 1.0304471 -0.8549104
1.1170775 2.0752094 -2.4705052 0.39645392 0.16441658 -1.3124353 -1.1828957 1.1222157
-0.05066687 -0.09993925 0.7521334 0.25756907 0.65941167 0.09794584 -2.8956552 -1.9255866
-0.86675966 1.5858189 1.8303889 -0.64335406 0.54194313 1.6877475 1.7767718 2.0253758
1.543836 1.269677 0.9503227 0.99463356 0.9417784 1.2850714 1.4748688 0.94879097
-0.37833372 0.18684795 -0.3787513 -0.68936884 0.47920382 1.4454823 0.9181174 0.59835696
0.42052445 1.2615902 1.284954 1.0531049 0.5628681 0.7225104 1.4292476 1.2903422
0.83203346 0.9633977 0.73428404 0.9534663 1.7673059 -0.3225532 0.6061437 0.56013674
1.0439702 1.4560999 -0.8165111 -0.024321495 0.34871352 -0.330008 1.8107738 -0.37083244
00000000: 2368 bd3f 7c1f 863e 1482 99bf 1320 f4be
00000010: 3b14 cc3e 8587 7940 d43f 2abf c823 1dc0
00000020: b155 84bd 295f e03f 709e 37c0 f79e 93bf
00000030: 0488 0640 46c8 5e40 a655 243d 432b 0f3e
00000040: 3f89 79bf 3201 473f ed15 4cbe 85fe 7cc0
00000050: 9aa1 96be bb3e 38bf 670f de3d 7bc4 e4bf
00000060: b26d 5cc0 840b a03d 66b9 e7bc 9655 b63d
00000070: 95b3 96bd b235 2c3c 0fd0 99bb 8339 b03d
00000080: 073b 82be 9fe7 663e 1beb 923d 9768 9dbe
00000090: fb27 e3bc 966e 0f3e ffb8 72be 906f ee3b
000000a0: ca25 7a3e 09be 8e3e d65b 1dbe 0777 053e
000000b0: 5441 cb3e c02e 4fbe 6a1a 90bc 6371 26be
000000c0: e69a 5cbe cf0d e33e f518 913e 281f fe3e
000000d0: cfa3 2c3e 6d53 083f 458d 01bf 459b 943f
000000e0: ef38 1fc0 e1ad 5bc0 4d59 b1bf 5072 203e
000000f0: 4e0d 57be 1e5a b33f c4fc 37bf ec19 d1bf
00000100: 34c3 0340 2461 c9be e039 253e 2e6d 073f
00000110: 980f ed3e f1f2 08bf 0454 6dbf 15df 64bf
00000120: 4f05 bf3f 7c02 3d40 0655 82c0 e58b a03f
00000130: 15d0 8b3f c1ec 843f e7ae 7c3f 26b7 6c3f
00000140: e32e 443f b548 343f 70fa ea3e e646 ae3e
00000150: 0b7b 493f 47da d23e 6170 a03d e384 b13e
00000160: 6f9b ba3e b4b5 163f fe86 8c3f 75a2 4d3f
00000170: 8ab7 fc3e b233 2b3f 5cef 7a3f 0e72 f93e
00000180: 83f8 ee3e a59b 2f3f e88d 873f 699e dd3f
00000190: 6ebf 86be 80d7 ff3e cf6d b4bf 7e95 723f
000001a0: 7274 0740 e5b2 d03e a715 f63f da3b 9d3f
000001b0: b0d9 debe f0e1 ecbf 5e97 47bf 717e 1bc0
000001c0: 255c 5cbe ca61 bd3f c6ec 3fc0 3bf8 0bc0
000001d0: aed2 71bf 0209 b63f e249 92bf 516a 19c0
000001e0: 4844 5b3f a486 b0bf 8cc2 6dbf bc55 97bf
000001f0: 695b 75c0 84d4 77bd 552e 7cbe 6d32 7bbe
00000200: 81cf 443c d275 053e fe87 fcbd eb86 e43d
00000210: 1291 e8bc dba3 233e f0cd 973e acb7 febd
00000220: 7ad6 45be 7b54 2a3c 4efb 333e a072 98bd
00000230: f9e8 60be d92b 61be 68cb 7f3d 9653 0abe
00000240: fee9 ad3d 803d d2bd cca3 283d 87a5 6bbd
00000250: d052 553c 286d b8be b2a0 0740 f600 c63d
00000260: b134 a03e a735 4e3f f42d 163f 7ab5 633f
00000270: 11be d4bd cbd1 c9be b34f 96be 506c e73f
00000280: d9cb 733f effc 1f3f 8c24 d0be 3fc3 b33f
00000290: 3ce8 953f a1b5 093f e894 71bf faa8 b6bd
000002a0: 94b9 aebb ead0 95be e857 9840 bdc9 80bf
000002b0: 2a96 76bf 6bed cbbf 2b6f 5f40 aa37 9cbf
000002c0: 37fb 3fbf 8f3d 083f c12e 1a3e ea31 1040
000002d0: 74b9 633f 70f2 f0bf 3f95 0ec0 d11b 02c0
000002e0: afd9 4dc0 614a 0040 ab1c c53f 1154 f2be
000002f0: 9979 52be f65f c6bf b1e5 833f 68db 5abf
00000300: 65fc 8e3f 3bd0 0440 c21c 1ec0 02fc ca3e
00000310: d25c 283e e1fd a7bf 2069 97bf c4a4 8f3f
00000320: 1088 4fbd f3ac ccbd d18b 403f 18e0 833e
00000330: 34cf 283f d497 c83d 6a52 39c0 9f79 f6bf
00000340: f6e3 5dbf 1dfc ca3f 2f4a ea3f dab2 24bf
00000350: c9bc 0a3f 1c08 d83f 426d e33f c29f 0140
00000360: 6b9c c53f c784 a23f 5948 733f 4ea0 7e3f
00000370: 6418 713f 387d a43f 80c8 bc3f f7e3 723f
00000380: f5b4 c1be 1255 3f3e b1eb c1be 7a7a 30bf
00000390: 345a f53e 9005 b93f be09 6b3f ec2d 193f
000003a0: fb4e d73e ca7b a13f 5f79 a43f 24cc 863f
000003b0: 2018 103f 71f6 383f 96f1 b63f ef29 a53f
000003c0: 2500 553f 3ba1 763f 0afa 3b3f 5e16 743f
000003d0: 1437 e23f b125 a5be 3c2c 1b3f 1f65 0f3f
000003e0: d1a0 853f 7b61 ba3f df06 51bf df3d c7bc
000003f0: 948a b23e cff6 a8be 70c7 e73f c0dd bdbe

head.bias f4 [4]
2.5932748 0.9466332 0.5153982 2.475936
00000000: 37f8 2540 8e56 723f 23f1 033f bc75 1e40
